Assets/Models/Good Models/16feb.onnx (onnx, 99462 bytes, 12 tensors)

action_model._discrete_distribution.branches.0.bias f4 [3]
0	0x3e0ec237	0.13941275
1	0x3e3646d3	0.17800455
2	0xbe285b2b	-0.16441028

action_model._discrete_distribution.branches.0.weight f4 [3, 128]
0	0x3eb4867a	0.35258847
1	0x3e96a305	0.2942125
2	0x3ed8dc86	0.42355746
3	0x3e171cfd	0.14757152
4	0xc017f290	-2.3741798
5	0x3e9d5132	0.3072601
6	0x3e1b60a3	0.15173583
7	0x3e9d5627	0.30729792
8	0x3ef428ce	0.47687382
9	0x3f80ce9d	1.0063053
10	0x3f5131ef	0.8171682
11	0x3efd3f92	0.49462563
12	0x3e818373	0.252956
13	0xbe95b549	-0.29239872
14	0xbf379285	-0.71707946
15	0x3f9b692c	1.2141471
16	0x3e8899eb	0.2667993
17	0x401b75ae	2.4290576
18	0x3e8ade61	0.27122787
19	0x3f23c3d4	0.63970685
20	0x3f5a8c60	0.85370445
21	0x3eb93c93	0.36179027
22	0xbf233d86	-0.6376575
23	0x3f286720	0.65782356
24	0x3ee17bc7	0.44039747
25	0x3ff5a8cd	1.9192139
26	0x3f6b2783	0.91857165
27	0x3f8836e7	1.0641755
28	0x3ddcc606	0.107799575
29	0x3f473687	0.7781758
30	0x3fc641c4	1.548882
31	0x3ec11151	0.37708524
32	0xbf217105	-0.6306308
33	0x3e53db8e	0.20689222
34	0x3ea151c7	0.31507704
35	0xc070901f	-3.7587965
36	0xc04b036d	-3.172084
37	0x3f284a9f	0.6573886
38	0x3fa5c9c5	1.29522
39	0xbefd67e8	-0.49493337
40	0x3f024db9	0.50899845
41	0x3e9be4ce	0.30448002
42	0xbf2493f4	-0.6428826
43	0x3e859dbc	0.26096904
44	0x3f4db3d5	0.80352527
45	0x3e6126bc	0.21987432
46	0x3f499a85	0.78751403
47	0xbe0c3d5d	-0.13695283
48	0x3e7b7105	0.24554832
49	0xbe53ffa6	-0.20702991
50	0x3e301201	0.17194368
51	0xc0711c49	-3.7673514
52	0x3e848338	0.25881362
53	0xc00baf94	-2.1825914
54	0x3e65b916	0.22433886
55	0xbc322cfe	-0.010874985
56	0xbe32ddc7	-0.17467414
57	0x3efa2050	0.48852777
58	0xbf8ce893	-1.1008476
59	0x3f31f366	0.6951202
60	0xbf476aec	-0.77897525
61	0x3f3081b2	0.689479
62	0x3f15b877	0.58484596
63	0x3f4c2300	0.79740906
64	0x3e62fe44	0.22167307
65	0x3f2f4281	0.6846085
66	0xbf807f37	-1.0038823
67	0x3f3516da	0.70737994
68	0x3dcf6559	0.101267524
69	0x3e83a850	0.2571435
70	0x3fd94614	1.6974511
71	0x405c65d4	3.443715
72	0x3f0dfcaa	0.5546366
73	0x3f82bea6	1.0214431
74	0x3dfafa86	0.12254815
75	0xbe807457	-0.2508876
76	0x3cbeba9d	0.023282344
77	0x3d4559e5	0.048181433
78	0xbbdd0da6	-0.006746012
79	0x3ffb2010	1.961916
80	0x3f03343b	0.5125157
81	0xc02f023f	-2.734512
82	0xbe19804e	-0.1499035
83	0x3f9f01cf	1.2422427
84	0x3d6c3a70	0.057672918
85	0x3dcdf541	0.10056544
86	0x3f1b927b	0.60770386
87	0x3de0be47	0.109737925
88	0x3f2ac4e7	0.667067
89	0xbdcfa057	-0.10138004
90	0x3f561768	0.83629465
91	0x3f396712	0.724229
92	0x3ef78bd0	0.48348856
93	0x3ec176b0	0.37785864
94	0x3f91921a	1.1372712
95	0xbf6159cc	-0.88027644
96	0x3f42681b	0.759401
97	0x3c87745e	0.01653498
98	0x3eb2d716	0.34929723
99	0x3ee98134	0.45606387
100	0x3f9854d1	1.1900884
101	0xbd858f56	-0.0652148
102	0xc0086368	-2.1310673
103	0xbfbbc8e6	-1.4670684
104	0x3f14fafd	0.5819548
105	0x3c7cefae	0.015438003
106	0x3cc22bde	0.023702558
107	0xbfc6d5a7	-1.5533952
108	0x3ef47c99	0.4775131
109	0x3fa85ae2	1.3152735
110	0x3f30bd02	0.69038403
111	0xbfa99746	-1.324929
112	0xbefeee48	-0.4979117
113	0x3f500118	0.8125167
114	0x400d45dd	2.207389
115	0x3f84713f	1.034706
116	0x3cdf3b0d	0.027249837
117	0x3fa7a5b6	1.3097446
118	0xbf8c0b3a	-1.0940926
119	0x3d3edcfb	0.046597462
120	0x3d8f455b	0.069956504
121	0x3ee6cf0d	0.45079842
122	0x3e386e00	0.18010712
123	0x3e53c75f	0.20681523
124	0x3fd8c30e	1.6934526
125	0xbef16a8d	-0.47151604
126	0x3e6556c9	0.22396387
127	0x3c51195e	0.012762396
128	0x3f380568	0.7188325
129	0x3f4bd953	0.79628485
130	0x39ded791	0.0004250375
131	0x3ea565d9	0.32304266
132	0x3efc22ba	0.49245244
133	0x3f07d3ec	0.5305774
134	0x3eb8ec38	0.3611772
135	0xbf25ee53	-0.6481678
136	0xbf8d2490	-1.1026783
137	0x3e88305c	0.26599395
138	0xbfff9ebf	-1.997032
139	0xc03a6fad	-2.9130661
140	0x3ed27791	0.41106847
141	0x3e0a8763	0.13528208
142	0xc0368af5	-2.8522313
143	0xbf5d34c4	-0.8640864
144	0x3f06d1c4	0.52663827
145	0xc035ea28	-2.8424168
146	0xbd22d1fd	-0.03975104
147	0xbff0e4ae	-1.8819788
148	0x3e3eec44	0.18644816
149	0x404dae57	3.2137659
150	0x3ea9f131	0.33191827
151	0x3eeadfb3	0.45873794
152	0x3f14aee0	0.5807934
153	0xc028c952	-2.6372876
154	0x3f417d1a	0.75581515
155	0xbf6276b6	-0.8846239
156	0x3e3b9c59	0.1832136
157	0x3ee7ca60	0.45271587
158	0xbfd66d2f	-1.675207
159	0x3e15f6e1	0.14644958
160	0x3ef61b9d	0.48067942
161	0x3f0ba0df	0.54542345
162	0x3d1112b4	0.035418227
163	0x3fe376ac	1.7770591
164	0x3fe3d2fa	1.779876
165	0x3f4811c6	0.7815212
166	0x3eec2ce0	0.46127987
167	0x3f62afd4	0.8854954
168	0x3e2d9135	0.16949923
169	0x3ece98f2	0.40351063
170	0x3fceb8bd	1.6150128
171	0x3d54d84d	0.051964093
172	0xbf475e94	-0.7787869
173	0x3f521280	0.8205948
174	0x3ff93044	1.9467854
175	0x3fa977f9	1.3239738
176	0xbd94b436	-0.07260935
177	0x3f7d7f43	0.9902231
178	0xbf963583	-1.173508
179	0x4024580d	2.5678742
180	0x3eff3aa5	0.4984943
181	0x3f4f37bb	0.8094441
182	0x3ee10ad1	0.43953565
183	0xbfc7c4de	-1.5606954
184	0x3f01e11a	0.507341
185	0x3f11415d	0.5674036
186	0x3f764e0e	0.9621285
187	0xbf5abfcd	-0.85448915
188	0x3f300cd2	0.6876956
189	0x3ec1875e	0.3779859
190	0x3f2126fb	0.62950104
191	0xbeecf97f	-0.462841
192	0x3edc24c0	0.42996788
193	0x3fb8e563	1.4445003
194	0x3e0ca2b5	0.13733943
195	0x3f5fc167	0.87404484
196	0xbe3689dd	-0.17826028
197	0x3e8088c2	0.25104338
198	0xbff297c9	-1.8952571
199	0x3e910711	0.28325704
200	0x3e92cc90	0.28671694
201	0xbf8ceafb	-1.100921
202	0x3f12ce4e	0.57346046
203	0x400829e3	2.1275566
204	0xbf6fe4da	-0.93708575
205	0x3ebff91e	0.3749475
206	0xbf26fc8a	-0.65229094
207	0x3fa8a827	1.3176316
208	0x3e143926	0.14474925
209	0x3fb5ef23	1.4213604
210	0xbf9bcb04	-1.217133
211	0xbf89665f	-1.0734366
212	0x3eb1b329	0.34707
213	0x3f851944	1.0398335
214	0x3f036803	0.51330584
215	0x3f333653	0.7000477
216	0xbe433342	-0.19062522
217	0x3f24a759	0.6431785
218	0x3cf14688	0.029452577
219	0x3eff96cc	0.49919736
220	0x3cb0732f	0.021539299
221	0x3e0d2fd1	0.13787772
222	0xc0029626	-2.0404143
223	0x3faaebb5	1.3353182
224	0x3e63b811	0.22238185
225	0xc003527d	-2.0519097
226	0x3ef8ba4f	0.48579642
227	0x3f4dd330	0.8040037
228	0xc00ddc7b	-2.216582
229	0x3f048c19	0.5177627
230	0x3f16b83c	0.5887487
231	0x3ff3270a	1.8996289
232	0xbe76c47e	-0.24098393
233	0x3f30193d	0.6878851
234	0x3f0270a5	0.5095313
235	0x3f6c8464	0.9238951
236	0x3f4b9553	0.79524726
237	0x40026bd7	2.037832
238	0xbe8938af	-0.2680106
239	0x3fba57b8	1.455802
240	0x3f21f910	0.63270664
241	0xc00c2de6	-2.1903014
242	0x3e4fbf5a	0.20287839
243	0x3edcf6e2	0.43157107
244	0x3e062860	0.1310134
245	0x3efa5ae9	0.48897484
246	0x3f13fd18	0.57808065
247	0x3f40e7d1	0.75353724
248	0x3fb20750	1.3908482
249	0x3f2a9f28	0.66649103
250	0xbe8b5903	-0.27216348
251	0xbe7ecca2	-0.24882749
252	0x3fecbbdc	1.849483
253	0x3fd6432f	1.6739253
254	0xbe53cc43	-0.20683388
255	0x3cf0fbe5	0.029416988

action_model._discrete_distribution.branches.1.bias f4 [3]
0	0x3e46ac39	0.19401635
1	0xbd8e0ed4	-0.06936422
2	0x3e6f14de	0.23347804

action_model._discrete_distribution.branches.1.weight f4 [3, 128]
0	0x3dfa93a5	0.12235192
1	0xc023fcd7	-2.5623071
2	0x3f41fd8d	0.7577751
3	0x3e88bbb5	0.2670571
4	0x3e74205b	0.23840468
5	0x3f2600f9	0.64845234
6	0x3e3a78a6	0.18210086
7	0xbeb120d0	-0.34595346
8	0xc00cb02e	-2.1982532
9	0xc006af24	-2.1044397
10	0xbd74ae65	-0.059736628
11	0x3fc0891d	1.5041844
12	0xbf5a3c3f	-0.8524818
13	0x3d20b599	0.039235685
14	0xbf6f21c7	-0.93410915
15	0xc0087a21	-2.1324542
16	0x3daa4865	0.083145894
17	0x3f6c9e95	0.92429477
18	0x3f1b5ff1	0.6069327
19	0x3f5cb976	0.8622049
20	0xbf531e3d	-0.82468015
21	0xbf941be9	-1.1571018
22	0xbe146248	-0.14490616
23	0x3e173947	0.14767943
24	0x3f213f5b	0.629873
25	0x3f31a24d	0.69388276
26	0x3f953ac7	1.1658562
27	0xc07b5d63	-3.9275749
28	0x3d8ffe50	0.07030928
29	0x3f3e868f	0.7442407
30	0x3f41e78e	0.7574395
31	0x3f423d19	0.7587448
32	0x3eab6cfb	0.33481583
33	0x3e831419	0.2560127
34	0xbf22a807	-0.6353764
35	0x3e70ef32	0.23528746
36	0x3efead77	0.49741718
37	0x3ec00be4	0.37509072
38	0xc009932d	-2.149608
39	0x3e4887c3	0.19583039
40	0x3ea16302	0.3152085
41	0x3ed3db1b	0.41378102
42	0x3e3299e7	0.17441522
43	0xbf106106	-0.56398046
44	0x4008e041	2.1386874
45	0x3ea1b761	0.3158522
46	0x3e3c52f8	0.18391025
47	0x3ea7a8ba	0.32745916
48	0x3e8eebb1	0.27914193
49	0xbec10730	-0.37700796
50	0x3f9af7bd	1.2106854
51	0x3eb40632	0.35160977
52	0x3f0d5ce9	0.55219895
53	0x3f980cc9	1.1878902
54	0x3e909ddb	0.28245434
55	0x3f08e0f4	0.5346825
56	0xc081899d	-4.0480485
57	0x3e9e4040	0.30908394
58	0x3e4ce0e4	0.20007664
59	0x3ef98a8a	0.4873851
60	0x3ee59725	0.44841877
61	0x3eb276a6	0.34856147
62	0x3f0e1c9a	0.5551239
63	0x3ffa5ac9	1.9558955
64	0x3d4ba6f6	0.049719773
65	0x3e57211b	0.21008722
66	0x3f3f91e9	0.74832016
67	0x3f973acd	1.181482
68	0xbef363e5	-0.4753715
69	0x3e8eaa5d	0.27864352
70	0xbf9fc94b	-1.2483305
71	0x3f2b8716	0.67003
72	0x3f6030ba	0.8757435
73	0xc013b97b	-2.3081958
74	0xbd84ff3f	-0.06493997
75	0xbf693192	-0.91091263
76	0xbfc64457	-1.5489606
77	0x3e0f2b86	0.13981447
78	0x3f2376f9	0.6385341
79	0xbff5235e	-1.9151418
80	0x3e959f2d	0.29223004
81	0x3e6c4fe3	0.2307735
82	0x3fe1f281	1.7652131
83	0x3e828f0c	0.2549976
84	0x3b940349	0.004516993
85	0x3f1ee253	0.62064093
86	0x3f06ff04	0.5273287
87	0x3e1a993c	0.15097517
88	0x3f14cb22	0.58122456
89	0xbf2d7d52	-0.6776935
90	0xbf999af5	-1.2000414
91	0x3fe05f14	1.7529016
92	0x3e491b87	0.19639407
93	0xc0050157	-2.0782068
94	0x3fe8d037	1.8188542
95	0xc09696d5	-4.705912
96	0x3f807c9d	1.0038029
97	0xbd3470e2	-0.044052966
98	0x3f0ebeec	0.55760074
99	0x3e0ebca2	0.13939145
100	0x3ed63af0	0.4184184
101	0x400260e8	2.0371647
102	0x3f3b807f	0.73242944
103	0xbdf97486	-0.12180428
104	0xc039435c	-2.8947363
105	0x3efa55ad	0.4889349
106	0x3ec8421c	0.39112937
107	0x3fcfd611	1.6237203
108	0x3f721a6d	0.9457157
109	0x3f0f2bbe	0.5592612
110	0x3e73a408	0.23793042
111	0x3fb236a5	1.3922926
112	0xbf82e6a5	-1.0226637
113	0x3f0a33ed	0.5398548
114	0x3f98b90e	1.1931474
115	0x3de5c826	0.11219816
116	0x3e8470e6	0.25867385
117	0xbf642656	-0.89120996
118	0x3fa1529e	1.2603338
119	0x40046d10	2.0691566
120	0xbf97b9df	-1.1853598
121	0x3f375b75	0.7162393
122	0x3ec4c893	0.38434276
123	0x3e813f4e	0.2524361
124	0xbdd388f8	-0.10328859
125	0x3f30a204	0.68997216
126	0x3f2c032c	0.6719234
127	0xc0443a1d	-3.066047
128	0xbf232d95	-0.6374143
129	0x3f086c8b	0.53290623
130	0x3edcc74c	0.431208
131	0x3e93b218	0.28846812
132	0xbed029a4	-0.4065677
133	0x3f895629	1.0729419
134	0xbe869aca	-0.2628997
135	0xbf72b82b	-0.9481227
136	0x3f9b41c3	1.2129444
137	0xbeba1870	-0.3634677
138	0xbf5a9276	-0.8537973
139	0x3e8dbec5	0.27684608
140	0x3ede33b1	0.43398812
141	0x3e03717f	0.12836264
142	0x3f080932	0.5313903
143	0x3ec342f1	0.3813701
144	0x3eaed28b	0.34145007
145	0xbf4f8762	-0.8106595
146	0x3e54f456	0.20796332
147	0xbfccf7b8	-1.6013098
148	0x3d1333b7	0.03593799
149	0x3e167016	0.14691195
150	0x3ed500a1	0.41602042
151	0x3f0d5131	0.55202013
152	0x3f1b5fac	0.6069286
153	0x3ec7d307	0.3902819
154	0xbf3ae0d9	-0.7299934
155	0x3fae28b9	1.3606178
156	0x3db58f4e	0.08865224
157	0xbebdef03	-0.37096414
158	0xbc616114	-0.013756055
159	0xbf59f12d	-0.8513363
160	0xc00d68e9	-2.2095282
161	0x3e4cbf32	0.1999481
162	0x3f18156c	0.5940769
163	0xbebd1428	-0.3692944
164	0xbf891ba3	-1.0711559
165	0x3d72b6a3	0.059256207
166	0x3e91dde1	0.28489593
167	0x3f4ffea3	0.8124792
168	0x3f1a8a36	0.60367143
169	0x3c1b7382	0.009487988
170	0x3f6f7d6d	0.9355076
171	0x3f3362b3	0.7007248
172	0xc04011ca	-3.0010858
173	0x3eb07637	0.3446519
174	0x3e86a6ec	0.26299226
175	0xbf3b89f4	-0.73257375
176	0x3dd27ae8	0.10277349
177	0x3ea6139a	0.3243683
178	0x3edd0343	0.4316655
179	0xbe9232b6	-0.28554314
180	0x3f1b36b6	0.6063036
181	0xbf8d6560	-1.1046562
182	0xbe4833f2	-0.19551066
183	0x3fbe930f	1.4888629
184	0x3f6adb5e	0.9174098
185	0xbe91ed58	-0.2850139
186	0xbc2841ec	-0.010269623
187	0xbee8e694	-0.45488417
188	0xbe94d7d7	-0.29070923
189	0x3ebfcba7	0.37460062
190	0xbee84263	-0.4536315
191	0xbfd7aa06	-1.6848762
192	0x3e902916	0.28156346
193	0x3e2313b6	0.15925488
194	0x3f3e1992	0.7425777
195	0x3de85e06	0.113460585
196	0x3f5abd61	0.8544522
197	0x3ecb7ded	0.3974451
198	0xbe993f8e	-0.299313
199	0xbea58685	-0.32329193
200	0x3f00bab7	0.50284904
201	0x3f8494ba	1.0357888
202	0x3f3819a0	0.719141
203	0x3da59087	0.08084207
204	0x3f328ad7	0.697431
205	0x3f265fb8	0.64989805
206	0x3e0abf7a	0.13549605
207	0x3fe75264	1.8072019
208	0x3e98b6b3	0.29826888
209	0x3df2b9b0	0.11851823
210	0x3d9565f0	0.07294834
211	0xbefe484f	-0.49664542
212	0x3f0f8ae9	0.56071335
213	0x3edde095	0.43335405
214	0x3f0fc032	0.5615264
215	0xbd1e3728	-0.03862682
216	0x3e52a3e1	0.20570327
217	0x3d13b1f3	0.036058377
218	0x3f9a1083	1.2036289
219	0xbf86d262	-1.0532954
220	0x3f6fbc4c	0.93646693
221	0x3fe4dd77	1.7880086
222	0xbd5f5c04	-0.054531112
223	0x3fe7a020	1.8095741
224	0x3f121d3d	0.57075864
225	0x3e20d234	0.15705186
226	0x3e5e693b	0.2171983
227	0x3d256d0e	0.040387206
228	0xbdd3dae5	-0.10344485
229	0x3f8ee0a9	1.1162311
230	0xbf938a07	-1.1526498
231	0x3f5c371b	0.86021584
232	0x3f57a7fc	0.842407
233	0x3f3a0eb3	0.7267868
234	0xbe5b69ce	-0.2142708
235	0xbf03d9fa	-0.5150448
236	0x3f018639	0.5059543
237	0xbf1114ae	-0.5667218
238	0x3f4c9861	0.7992001
239	0xbfb79720	-1.4342995
240	0x3f746b93	0.95476645
241	0x3eb5903d	0.35461608
242	0xc02ffd11	-2.749821
243	0xbf31847b	-0.69342774
244	0x3eb43037	0.35193035
245	0x3ef1c7ba	0.47222692
246	0xbe686dbf	-0.22698115
247	0xbf58e78d	-0.8472832
248	0x3fba3bbc	1.454948
249	0x3f189444	0.59601235
250	0x3e93c2e0	0.28859615
251	0xbfac5252	-1.3462622
252	0xbf47ebb2	-0.7809402
253	0xbf3dfe17	-0.74215835
254	0xc0505c28	-3.2556248
255	0x3fd95f6c	1.6982245

action_model._discrete_distribution.branches.2.bias f4 [2]
0	0xbe228a0c	-0.15872973
1	0x3e228ace	0.15873262

action_model._discrete_distribution.branches.2.weight f4 [2, 128]
0	0xc007afb5	-2.1200993
1	0xbe479827	-0.19491635
2	0xbf8a8a0a	-1.0823376
3	0x3f81187a	1.0085595
4	0xbf886de0	-1.0658531
5	0xbe979f02	-0.296135
6	0xbef6f172	-0.48231083
7	0xbf9c6488	-1.221818
8	0x3f8367bc	1.0266032
9	0x3f4c587a	0.79822505
10	0x3fb2fc19	1.3983184
11	0x3e166563	0.14687113
12	0xbe82e659	-0.25566366
13	0xbe0f46d3	-0.13991861
14	0x3e3cac81	0.1842518
15	0xbfcb4100	-1.5879211
16	0xbeb3e3d0	-0.35134745
17	0xbf397929	-0.724505
18	0xbe40415f	-0.18774937
19	0xbf3b5cbc	-0.73188376
20	0xbfc2b992	-1.5212882
21	0xbf853479	-1.0406638
22	0x3fc3c80d	1.5295426
23	0x3ea8eb66	0.32992095
24	0xbf0a17ec	-0.5394275
25	0xbefb8c94	-0.4913069
26	0xbfa1a135	-1.2627321
27	0x3be307ae	0.0069284057
28	0x3f7378ee	0.951064
29	0xbed1d68f	-0.40984008
30	0xbf216ec4	-0.6305964
31	0xbe4dd80a	-0.20101944
32	0xbf800d32	-1.0004027
33	0xbb840f93	-0.004030177
34	0x3ebfa33f	0.37429234
35	0xbf0228f2	-0.5084373
36	0x3fb900e0	1.4453392
37	0x3e893b87	0.26803228
38	0x3e587295	0.2113746
39	0xbf090108	-0.535172
40	0x3e3af641	0.18258001
41	0xbec2a8fb	-0.38019547
42	0xbf265822	-0.6497823
43	0xbf4183e7	-0.7559189
44	0xbfa7c1fa	-1.3106072
45	0xbe4d75d2	-0.20064476
46	0xbedf2fae	-0.43591064
47	0xbf21cfda	-0.6320778
48	0xbdbe080d	-0.09278879
49	0x400ba227	2.181772
50	0xc0529dfa	-3.2908921
51	0xbcd9024f	-0.026490359
52	0x3e784672	0.24245623
53	0xbf47d96d	-0.7806614
54	0x3f227b5e	0.63469493
55	0xbf9af884	-1.2107091
56	0x3ed75218	0.4205482
57	0x3e8d8db7	0.27647182
58	0xbe6dd0fb	-0.23224251
59	0x3f044395	0.5166562
60	0x3f33c5e1	0.70223814
61	0xbe9aba26	-0.30220145
62	0xbefe0feb	-0.4962152
63	0x3f993837	1.197028
64	0x3e6b4146	0.22974119
65	0x3e285783	0.16439633
66	0xbf643372	-0.89141
67	0xbdf923dd	-0.121650435
68	0xbf02cb86	-0.510918
69	0xbdc615da	-0.096721366
70	0x3e059a2b	0.13047092
71	0xbe177a86	-0.14792833
72	0xbf33ebb9	-0.7028156
73	0xbf1c23f9	-0.6099239
74	0xbec99dac	-0.39378107
75	0x3f5ecb59	0.87029034
76	0xbe9c8e46	-0.30577296
77	0xbf51b638	-0.8191867
78	0x3e26492c	0.1623885
79	0x3f8d67b6	1.1047275
80	0x3edf5483	0.43619165
81	0x3f3f0fbe	0.74633396
82	0x3f39ea8e	0.7262353
83	0x3fb3f268	1.4058352
84	0x3f010276	0.5039438
85	0xbf8a499a	-1.0803711
86	0xbe9051e7	-0.28187487
87	0xbd799fa5	-0.060943265
88	0xbe426626	-0.18984279
89	0x3ea02aa4	0.31282532
90	0xbf3a252b	-0.72712964
91	0x3ece21c9	0.4026015
92	0x3da138d9	0.07872171
93	0xbf2b0727	-0.6680779
94	0xbf165030	-0.58716106
95	0xbf54ab87	-0.8307423
96	0xbfd15b24	-1.6355939
97	0xbebb9bbe	-0.3664226
98	0x3fd95871	1.6980115
99	0x3f498b1b	0.78727883
100	0x3f28556c	0.65755343
101	0x3fc47c63	1.535046
102	0xbeece679	-0.46269587
103	0x3fe54bf2	1.7913802
104	0xbd11944c	-0.035541818
105	0xbf888e42	-1.0668414
106	0x3eb0346c	0.34414995
107	0xbfa05755	-1.2526652
108	0xbddb6e34	-0.10714379
109	0xbd2ba151	-0.04190189
110	0xbef14d0f	-0.47129104
111	0xbe87ef3f	-0.26549718
112	0x3f6fbe53	0.93649787
113	0x3f528d21	0.82246596
114	0xbec0c68f	-0.37651488
115	0xbec17df7	-0.37791416
116	0x3e324ffb	0.17413323
117	0xbe0f5194	-0.13995963
118	0xbe9abb4b	-0.30221018
119	0x3f3466f8	0.7046962
120	0x3fc36d56	1.5267742
121	0x3f994d85	1.1976782
122	0xbda138ae	-0.07872139
123	0xbf870cf4	-1.0550828
124	0x3ed0cc46	0.40780848
125	0x3ff03e84	1.8769078
126	0xbf9b80a5	-1.2148634
127	0x3edd1128	0.43177152
128	0x4006f3d1	2.1086314
129	0x3e4b2df9	0.19841756
130	0x3f8e086f	1.1096324
131	0xbf8163f0	-1.0108624
132	0x3f875d50	1.0575352
133	0x3e9da631	0.30790856
134	0x3efaa527	0.48954126
135	0x3f9addc0	1.2098923
136	0xbf81a139	-1.0127326
137	0xbf4d8a5d	-0.8028925
138	0xbfb35566	-1.4010437
139	0xbe04da4f	-0.12973903
140	0x3e7b9f90	0.24572587
141	0x3e00f70e	0.12594244
142	0xbe3db8d6	-0.1852754
143	0x3fc912f4	1.5708909
144	0x3eb612e4	0.35561287
145	0x3f39c388	0.7256398
146	0x3e32bc02	0.17454532
147	0x3f3cafbd	0.73705655
148	0x3fc41530	1.5318966
149	0x3f851a2e	1.0398614
150	0xbfc519e5	-1.5398527
151	0xbe97f00d	-0.29675332
152	0x3f091948	0.535542
153	0x3efcdd8b	0.49387774
154	0x3fa2c688	1.2716837
155	0xbcca63d3	-0.024705803
156	0xbf783b73	-0.9696571
157	0x3ecb86c9	0.3975127
158	0x3f2326ad	0.6373089
159	0x3e42366e	0.18966076
160	0x3f811023	1.008305
161	0xb9836a94	-0.00025065674
162	0xbeb5e5a0	-0.35526752
163	0x3f034f09	0.51292473
164	0xbfba27cd	-1.4543396
165	0xbe8517a3	-0.25994596
166	0xbe64213f	-0.22278307
167	0x3f0b3227	0.543734
168	0xbe390c24	-0.18071038
169	0x3eba9a45	0.36445823
170	0x3f276088	0.6538167
171	0x3f3ee1cb	0.7456328
172	0x3fa72e25	1.3060957
173	0x3e6295b4	0.2212742
174	0x3ed836bb	0.42229256
175	0x3f1f602e	0.62256134
176	0x3da37ac8	0.07982403
177	0xc00b5832	-2.177258
178	0x4051ada1	3.2762225
179	0x3cb4f72f	0.022090523
180	0xbe7221cb	-0.23645703
181	0x3f4ada01	0.792389
182	0xbf1ec32a	-0.62016547
183	0x3f9c3fc0	1.2206955
184	0xbed2d5a8	-0.41178632
185	0xbe8fd72b	-0.28093848
186	0x3e6cab23	0.23112158
187	0xbf059963	-0.52187175
188	0xbf32245f	-0.6958675
189	0x3e95eb7d	0.29281226
190	0x3f0049d0	0.5011263
191	0xbf99e16f	-1.2021922
192	0xbe6ea7d2	-0.23306206
193	0xbe2d468c	-0.16921443
194	0x3f634e42	0.88791287
195	0x3e06b735	0.13155825
196	0x3eff32b7	0.4984338
197	0x3deb4e76	0.114895746
198	0xbdd03c20	-0.10167718
199	0x3e13e0fa	0.1444129
200	0x3f3b9e8c	0.732888
201	0x3f1cf271	0.61307436
202	0x3ec4552c	0.3834623
203	0xbf5a3599	-0.85238034
204	0x3e9f990c	0.31171453
205	0x3f5095b5	0.81478435
206	0xbe251a7f	-0.16123389
207	0xbf8ae611	-1.0851461
208	0xbed13003	-0.40856943
209	0xbf3fe288	-0.74955034
210	0xbf3701fa	-0.7148739
211	0xbfb40d90	-1.4066639
212	0xbf01d788	-0.507195
213	0x3f881eb2	1.0634367
214	0x3e8d910e	0.2764973
215	0x3d958b5c	0.07301971
216	0x3e336bbc	0.17521566
217	0xbea1bcbe	-0.3158931
218	0x3f3acd3f	0.7296943
219	0xbecc9742	-0.3995915
220	0xbdaae65a	-0.08344717
221	0x3f2cd425	0.67511207
222	0x3f1b897e	0.6075667
223	0x3f547d0e	0.8300332
224	0x3fd06181	1.6279756
225	0x3ebc49ca	0.36775047
226	0xbfd9cbd4	-1.7015328
227	0xbf4d32b2	-0.8015548
228	0xbf2c47b0	-0.67296886
229	0xbfc6027b	-1.5469507
230	0x3eec1cd0	0.46115732
231	0xbfe56a99	-1.7923156
232	0x3cf73114	0.03017477
233	0x3f88ed80	1.0697479
234	0xbeb97238	-0.36219954
235	0x3f9d84da	1.2306168
236	0x3deb1f1a	0.114805415
237	0x3d455dbd	0.0481851
238	0x3ef95fb8	0.4870584
239	0x3e804880	0.25055313
240	0xbf6e0a18	-0.9298415
241	0xbf53dfaa	-0.8276316
242	0x3ec5115e	0.38489813
243	0x3ec0d12b	0.37659582
244	0xbe328058	-0.17431772
245	0x3e0c0388	0.13673222
246	0x3e93b895	0.28851762
247	0xbf39eb0a	-0.72624266
248	0xbfc4db2b	-1.5379385
249	0xbf9adaab	-1.2097982
250	0x3db6e8ec	0.08931145
251	0x3f871718	1.0553923
252	0xbecc65b1	-0.39921334
253	0xbff0846b	-1.8790411
254	0x3f98ae36	1.1928165
255	0xbeddc86e	-0.43316978

action_model._discrete_distribution.branches.3.bias f4 [2]
0	0x3d8e07eb	0.06935104
1	0xbd8e070f	-0.0693494

action_model._discrete_distribution.branches.3.weight f4 [2, 128]
0	0xbf899ae2	-1.0750391
1	0xbf674f86	-0.9035572
2	0xbe482da9	-0.19548668
3	0xbe6cd6b5	-0.23128779
4	0xbebabcd3	-0.36472186
5	0x3f0b67a0	0.54454994
6	0x3e7419d9	0.23837985
7	0x3fa7bbaf	1.3104151
8	0x40176361	2.3654406
9	0xbe801e75	-0.25023237
10	0x3e38bb63	0.18040232
11	0x3e9f6961	0.31135085
12	0x3e99db53	0.30050144
13	0x3e65f315	0.2245601
14	0xc01f9a43	-2.4937904
15	0xbfc511f2	-1.5396101
16	0xbd9960ca	-0.07489164
17	0xbed95675	-0.42448774
18	0xbd521794	-0.051292017
19	0xbfd75b3c	-1.6824718
20	0x3f9413d1	1.1568547
21	0xbfc0d333	-1.5064453
22	0x3d35ff69	0.04443303
23	0x3e4e360e	0.20137808
24	0x3cc2a822	0.023761813
25	0xbe9ea9cc	-0.3098892
26	0x3ec5e0c2	0.3864804
27	0xbfaa6b5f	-1.3314017
28	0xbd9df240	-0.07712221
29	0x3e9a79a3	0.30170926
30	0xbe1ffa0d	-0.1562273
31	0x3fa3ab52	1.2786658
32	0x4027a184	2.6192331
33	0x3e13621d	0.14392896
34	0xbe2f308d	-0.17108364
35	0xbf0dcd63	-0.5539152
36	0xbdba04fe	-0.090829834
37	0x3c9e9184	0.019356497
38	0x3fb7ad98	1.4349852
39	0x3f09ce19	0.53830105
40	0xbdbae34d	-0.091253854
41	0x3d94f3ec	0.07273087
42	0xbe6da67c	-0.2320804
43	0xbf31c9a0	-0.6944828
44	0x3f1534ea	0.58283865
45	0xbeb600d9	-0.35547522
46	0x3fe60375	1.7969805
47	0x3e0151e8	0.12628901
48	0xbcab19bf	-0.0208863
49	0xc00a08bd	-2.1567833
50	0xbe34b3d4	-0.17646724
51	0x3ff44c7d	1.9085842
52	0xbca26dd9	-0.01982777
53	0x3edfba03	0.43696603
54	0x3e86d31a	0.26332933
55	0xbf232334	-0.6372559
56	0x3e251820	0.16122484
57	0x3c906584	0.017626531
58	0xbdb699ff	-0.08916091
59	0x3e75767d	0.23970981
60	0xbf0dc50d	-0.553788
61	0x3de71d4d	0.112848856
62	0x3e7bc8ce	0.2458832
63	0xbfc14dd5	-1.5101877
64	0x3ca26013	0.019821202
65	0xbea80872	-0.32818943
66	0xbf0ecdf7	-0.5578303
67	0xc002b9e2	-2.0425954
68	0x3ee91dd8	0.4553058
69	0xbcc9ce24	-0.024634428
70	0xbfa31380	-1.2740326
71	0xbdd1b469	-0.10239489
72	0xbecfa8ee	-0.4055857
73	0x3f23122e	0.63699615
74	0xbe0c922a	-0.13727632
75	0xbf176774	-0.5914223
76	0x3f9b86ae	1.2150476
77	0xbd1a7707	-0.03771117
78	0xbff349d1	-1.9006902
79	0x3fbb3d69	1.4628116
80	0x3df4ed51	0.11959327
81	0x3e7a0b62	0.24418405
82	0xbed5d09b	-0.41760716
83	0x3f9d9870	1.2312145
84	0x3ce26534	0.027636148
85	0xbd8354e0	-0.06412673
86	0xbd88a4de	-0.06672071
87	0xbd46b871	-0.04851574
88	0xbf49c41b	-0.7881486
89	0x3fe60e0c	1.7973037
90	0xbf30be97	-0.6904082
91	0xbebfe943	-0.37482652
92	0xbde8d436	-0.11368601
93	0xbf905afd	-1.1277767
94	0xbf53e8a3	-0.8277685
95	0xbe510116	-0.2041057
96	0x3fcb6051	1.5888768
97	0x3fe600c0	1.7968979
98	0xbd019987	-0.031640556
99	0xbda049ac	-0.07826552
100	0xbee2b23a	-0.442766
101	0x3fd8c9bc	1.6936564
102	0xbfb4cdad	-1.4125267
103	0xc02b6750	-2.6781807
104	0xbf3a6940	-0.7281685
105	0xc007cec6	-2.1219954
106	0x3d82e2f0	0.06390941
107	0xc04d1b22	-3.204781
108	0xbc4739d1	-0.012159781
109	0xbef99f19	-0.48754194
110	0xbe3e82b6	-0.1860455
111	0x3ee3edfd	0.44517508
112	0xbfa0bdc6	-1.2557914
113	0x3e59b614	0.21260864
114	0x3f38714c	0.7204788
115	0x3fe3fbd7	1.781123
116	0x3c50b972	0.012739526
117	0x3f7ec2a7	0.99515766
118	0x3f41373f	0.75474924
119	0x3f5892de	0.845991
120	0x3fba820b	1.4570936
121	0x3e5fb60a	0.21846786
122	0xbd8a94c3	-0.06766655
123	0x3f8edff7	1.1162099
124	0x3efaa786	0.48955935
125	0xbe564950	-0.20926404
126	0xbf7fa91d	-0.9986742
127	0xbba33fd2	-0.004981973
128	0x3f8ab4d6	1.0836437
129	0x3f61791b	0.8807542
130	0x3e4a722b	0.19770114
131	0x3e81b32e	0.25332016
132	0x3eb9d16e	0.36292595
133	0xbf057470	-0.52130795
134	0xbe7896a0	-0.24276209
135	0xbfa9f64d	-1.327829
136	0xc016fa90	-2.3590431
137	0x3e75f949	0.24020876
138	0xbe2942f1	-0.16529442
139	0xbea4d16f	-0.32191035
140	0xbea1881b	-0.31549153
141	0xbe72686a	-0.23672643
142	0x401fe16d	2.498134
143	0x3fc4fffc	1.539062
144	0x3da92d2b	0.08260568
145	0x3edb991d	0.42890254
146	0x3d9073c5	0.07053331
147	0x3fd83b1c	1.6893039
148	0xbf947dc5	-1.1600882
149	0x3fc11e91	1.5087453
150	0xbd42b8b1	-0.047539417
151	0xbe42854f	-0.18996166
152	0xbc9444e8	-0.018099263
153	0x3e9a375d	0.30120364
154	0xbecb35a0	-0.3968935
155	0x3fad9be8	1.3563204
156	0x3db3de78	0.08782667
157	0xbea0d65d	-0.31413546
158	0x3e11223b	0.14173214
159	0xbfa36025	-1.2763716
160	0xc028063c	-2.6253805
161	0xbe081d03	-0.13292317
162	0x3e284da6	0.1643587
163	0x3f0ee998	0.55825186
164	0x3da9a9ea	0.08284362
165	0xbcc83f6d	-0.024444306
166	0xbfb6bcbe	-1.427635
167	0xbf093ec2	-0.53611386
168	0x3d71dfc1	0.05905128
169	0xbdb47555	-0.08811442
170	0x3e6b85fa	0.23000327
171	0x3f2cecd6	0.6754888
172	0xbf176c6e	-0.59149826
173	0x3eb110c7	0.34583113
174	0xbfe4e720	-1.7883034
175	0xbe08d855	-0.13363774
176	0x3d02515e	0.03181588
177	0x400a122e	2.1573596
178	0x3e3644de	0.17799708
179	0xbff366f0	-1.9015789
180	0x3d18ffe6	0.03735342
181	0xbee103cb	-0.43948206
182	0xbe860c12	-0.26181084
183	0x3f219975	0.6312478
184	0xbe25de85	-0.16198166
185	0x3ba01007	0.004884723
186	0x3db19a8d	0.08672056
187	0xbe6d62a7	-0.23182164
188	0x3f0ef74b	0.5584609
189	0xbdea5d27	-0.11443549
190	0xbe6c721f	-0.23090409
191	0x3fc0884c	1.5041595
192	0x3b07e1d0	0.002073396
193	0x3eaaf8f7	0.3339307
194	0x3f10f6b9	0.5662647
195	0x40027231	2.0382197
196	0xbee7726a	-0.45204479
197	0xb9cf97be	-0.00039595173
198	0x3fa58c91	1.2933522
199	0x3dfe3f26	0.12414388
200	0x3ec9cc57	0.3941371
201	0xbf2067f2	-0.6265861
202	0x3e165a07	0.1468278
203	0x3f1718bb	0.5902211
204	0xbf9a8623	-1.2072185
205	0x3d5787a3	0.052619588
206	0x3ff4045f	1.9063834
207	0xbfbe2970	-1.4856396
208	0xbde699bf	-0.112597935
209	0xbe51d924	-0.20492989
210	0x3edef686	0.43547457
211	0xbfa1b4a0	-1.2633247
212	0xbd309d26	-0.04311862
213	0x3d6bf118	0.05760297
214	0x3d8112a8	0.063023865
215	0x3d0cbec6	0.034361623
216	0x3f4a70bb	0.79078263
217	0xbfe2dacc	-1.7723022
218	0x3f316ae6	0.6930374
219	0x3ebab9d2	0.36469895
220	0x3de719ba	0.11284204
221	0x3f8e993e	1.1140516
222	0x3f4f8908	0.8106847
223	0x3e38c5fd	0.18044277
224	0xbfca8691	-1.5822316
225	0xbfe64ef7	-1.7992848
226	0x3d651ba6	0.05593457
227	0x3dbf5b30	0.093435645
228	0x3edc8672	0.43071324
229	0xbfd98e9c	-1.6996646
230	0x3fb59964	1.4187436
231	0x402b4b7a	2.6764817
232	0x3f391933	0.72304076
233	0x4007c445	2.1213543
234	0xbd8b11da	-0.06790514
235	0x404ca968	3.1978397
236	0x3c3f13b6	0.011662414
237	0x3efe4790	0.49663973
238	0x3e4065b5	0.18788798
239	0xbee48ed0	-0.44640207
240	0x3f9f9a68	1.2468996
241	0xbe47ee70	-0.1952455
242	0xbf3cf150	-0.73805714
243	0xbfe1fcf4	-1.765532
244	0x3b17797a	0.0023113177
245	0xbf8103a3	-1.0079235
246	0xbf4331c3	-0.76247805
247	0xbf597219	-0.84939724
248	0xbfbc0593	-1.4689201
249	0xbe4bd6b9	-0.19906129
250	0x3db42802	0.087966934
251	0xbf901518	-1.1256437
252	0xbef0817a	-0.46973783
253	0x3e447f6f	0.19189237
254	0x3f79d068	0.9758363
255	0x3b9340be	0.004493802

network_body.linear_encoder.seq_layers.0.bias f4 [128]
0	0xbde36604	-0.11103442
1	0xbd9487c2	-0.07252456
2	0x3e34ddbe	0.17662713
3	0x3d95f3ca	0.0732189
4	0xbd3abf08	-0.045592338
5	0x3e64b9a6	0.22336444
6	0xbe83ea88	-0.2576487
7	0xbe76d25d	-0.24103685
8	0xbc6e2ec1	-0.014537514
9	0x3efd65ee	0.4949183
10	0xbd74064f	-0.05957633
11	0xbe6c5fca	-0.23083416
12	0x3d7a96cf	0.06117898
13	0x3e59f9e0	0.21286726
14	0xbeee9b4d	-0.4660286
15	0x3f1b3f4b	0.6064345
16	0xbe3a740e	-0.18208334
17	0x3d2356cf	0.03987771
18	0x3f7e0e48	0.9924054
19	0x3ed06582	0.40702444
20	0x3e8b57af	0.27215335
21	0xbe0f3ef9	-0.13988866
22	0x3e978355	0.29592386
23	0x3d106800	0.035255432
24	0x3ef02e9d	0.46910563
25	0xbe8da92e	-0.27668136
26	0xbe9384b9	-0.28812197
27	0xbe9ccbd7	-0.30624267
28	0x3eeae3c2	0.4587689
29	0x3d0d1292	0.03444154
30	0xbcdbc2f4	-0.02682636
31	0x3ebee583	0.3728448
32	0x3c75d739	0.015004926
33	0x3e4be9bc	0.19913381
34	0xbdfde03b	-0.12396284
35	0x3eb5006a	0.35351878
36	0x3e8eae7d	0.278675
37	0x3e506295	0.20350106
38	0xbeb58b63	-0.35457906
39	0xbe9f50cd	-0.31116334
40	0x3b9516ca	0.004549836
41	0xbe49b150	-0.19696546
42	0xbd83ed85	-0.06441788
43	0x3df244ad	0.11829505
44	0xbe873404	-0.26406872
45	0xbc82c8ca	-0.015964884
46	0x3f6698fb	0.9007718
47	0x3ebc0587	0.36722967
48	0x3d249a7a	0.040186383
49	0x3f822301	1.0166932
50	0x3e6b42c7	0.22974692
51	0x3dd6584b	0.10466059
52	0xbe083dc6	-0.13304815
53	0xbe80b950	-0.25141382
54	0x3d9c6bff	0.07637786
55	0x3d857ab4	0.065175444
56	0x3ea57d52	0.32322174
57	0x3da7ffb3	0.08203068
58	0x3c969300	0.018380642
59	0x3e4c929c	0.19977802
60	0xbe543b6a	-0.2072579
61	0x3b2b6241	0.0026151093
62	0xbe93f465	-0.28897396
63	0x3e003813	0.1252139
64	0xbde8f53b	-0.11374899
65	0xbdfadc2b	-0.12249025
66	0x3e07800a	0.13232437
67	0xbda11d54	-0.07866922
68	0x3dbc78aa	0.09202702
69	0x3f1f85a7	0.6231331
70	0xbe7691bd	-0.24079032
71	0xbe93a847	-0.28839323
72	0x3de73100	0.11288643
73	0xbed5b072	-0.4173618
74	0xbd140862	-0.036140807
75	0x3dcac66b	0.099011265
76	0xbdc42843	-0.09577992
77	0x3e5c8f60	0.21539068
78	0xbe2eb447	-0.17060958
79	0xbe6d62de	-0.23182246
80	0x3d4db0cc	0.050217435
81	0x3daaeaac	0.08345541
82	0xbd687d35	-0.05676003
83	0xbe1926a9	-0.14956154
84	0xbde85600	-0.11344528
85	0xba01287c	-0.0004926992
86	0x3d99ef0c	0.07516298
87	0xbd9645e0	-0.07337546
88	0xbdab9c36	-0.08379404
89	0x3d7d8001	0.061889652
90	0xbe00bfbd	-0.12573142
91	0x3cd968eb	0.026539287
92	0xbd8202de	-0.06348203
93	0x3f2737ba	0.65319407
94	0x3deaa1c0	0.114566326
95	0x3e4cd7ab	0.20004146
96	0x3eda45e4	0.42631447
97	0x3ddf774a	0.109114245
98	0x3f32f481	0.69904333
99	0x3f2f56be	0.68491733
100	0xbe3e58f6	-0.18588623
101	0x3e25424c	0.16138572
102	0xbc16459e	-0.0091718715
103	0xbdd58324	-0.10425404
104	0x3e7d9f9f	0.24767922
105	0xbe2b3326	-0.1671873
106	0xbead5e43	-0.33860978
107	0x3f14a9f9	0.5807186
108	0xbd131d7a	-0.035916783
109	0x3e81666d	0.25273457
110	0x3dd9ca7b	0.10634323
111	0x3f89d9e9	1.0769626
112	0x3d92b855	0.07164065
113	0x3f10f7d3	0.5662815
114	0x3de03dc2	0.10949279
115	0x3cbe44f3	0.023226237
116	0xbe8a7b3d	-0.27047148
117	0x3e78a7cb	0.24282758
118	0xbdd746bc	-0.105115384
119	0xbe8b0390	-0.27151155
120	0x3d02307f	0.03178453
121	0xbe350d1c	-0.17680782
122	0xbc8c71f1	-0.017144175
123	0xbd7f70d0	-0.062363446
124	0x3f603d85	0.8759387
125	0xbe1c63bf	-0.15272425
126	0x3c939941	0.018017413
127	0xbe364ba2	-0.17802289

network_body.linear_encoder.seq_layers.0.weight f4 [128, 45]
0	0xbdf83573	-0.1211957
1	0x3d7ef4f3	0.06224532
2	0x3e4adeaf	0.1981151
3	0x3fcd53c0	1.6041183
4	0x3e557687	0.20845996
5	0x3ee8f3f5	0.45498624
6	0x3d0fc8f0	0.03510374
7	0xbbb0c593	-0.0053946464
8	0xbdce6a3a	-0.10078855
9	0xbe6cc7a8	-0.23123038
10	0xbe439973	-0.19101505
11	0xbdb7c8ca	-0.08973844
12	0x3f61a123	0.881365
13	0xbdc9a2c1	-0.09845496
14	0x3ebd1fc4	0.36938298
15	0xbe320c14	-0.1738742
16	0x3d37ec3f	0.044903036
17	0xbeeb83da	-0.45999032
18	0xbeba4cfb	-0.36386856
19	0x3d4822a8	0.048861176
20	0xbf70d06d	-0.9406803
21	0x3f1903e2	0.5977155
22	0x3c255e4a	0.010093281
23	0x3e8e6cd1	0.27817395
24	0xbf1d7758	-0.6151023
25	0xbf270dd6	-0.65255487
26	0xbf775de2	-0.9662763
27	0xbe60b9fe	-0.2194595
28	0xbd8e786e	-0.06956564
29	0xbf390b12	-0.72282517
30	0x3e2c8dc7	0.16850959
31	0x3da2f273	0.079564
32	0x3e12e86b	0.14346473
33	0xbec941f2	-0.39308125
34	0x3ea7375d	0.32659426
35	0x3ed51199	0.41614988
36	0x3da9e63b	0.08295866
37	0xbef54d5a	-0.47910577
38	0x3db79f26	0.08965902
39	0xbe8b9c37	-0.2726762
40	0x3edf48b6	0.43610162
41	0x3d95b56f	0.07309996
42	0x3e8bbea6	0.2729389
43	0x3f33945a	0.7014824
44	0x3fe44753	1.7834266
45	0x3dff0621	0.12452341
46	0xbe2d14fd	-0.16902538
47	0x3fb2d7a7	1.3972062
48	0x3eeba1e8	0.46021962
49	0x3f36e76e	0.71446884
50	0x3f068624	0.5254843
51	0x3e1ed1d7	0.15509735
52	0x3e3dace9	0.18522991
53	0x3e940bf8	0.2891538
54	0x3da82bff	0.082115166
55	0xbe0fdd99	-0.14049377
56	0x3f5e8641	0.86923605
57	0x3e51cb8b	0.20487802
58	0x3ea1a9ae	0.31574768
59	0x3ea89b86	0.32931155
60	0xbd2e476e	-0.04254859
61	0xbe1c6d6a	-0.15276113
62	0xbef9c9db	-0.48786816
63	0x3e37068f	0.17873596
64	0xbe67f2cc	-0.22651213
65	0x3e041870	0.12899947
66	0x3f701f22	0.93797505
67	0xbde17452	-0.110085145
68	0x3eb8ba9a	0.36079866
69	0xbe3345f8	-0.1750716
70	0xbe51049f	-0.20411919
71	0xbf0ad5a7	-0.5423226
72	0xbd63cd2a	-0.05561558
73	0xbc3a3b14	-0.011366624
74	0xbc9159d8	-0.017743036
75	0x3ee40a5e	0.4453916
76	0xbeee7995	-0.46577135
77	0x3df9c434	0.12195626
78	0x3d59fd7c	0.053220257
79	0x3e71d919	0.23617972
80	0xbf276d57	-0.65401214
81	0xbdac5f6b	-0.08416637
82	0xbd41fbb1	-0.047359172
83	0xbeebdc02	-0.4606629
84	0xbf7fa59b	-0.9986207
85	0xbeb112bb	-0.34584603
86	0x3edf5639	0.4362047
87	0xbe8462ed	-0.25856724
88	0x3ec2a749	0.38018253
89	0xbf6bebbe	-0.9215659
90	0x3edcb5e6	0.43107527
91	0xbdd342ee	-0.103155
92	0xbf2f84c0	-0.68561935
93	0xbe82c998	-0.2554443
94	0xbec5c850	-0.3862939
95	0xbe7443a2	-0.23853925
96	0x3e272e0a	0.16326156
97	0xbee4b065	-0.44665828
98	0xbe1a3d30	-0.15062404
99	0x3e99c737	0.300348
100	0xbda0a742	-0.07844402
101	0x3d516980	0.051126003
102	0x3f1c3f70	0.610343
103	0x3e90d685	0.28288665
104	0xbe8f63b1	-0.28005746
105	0x3deec2f9	0.11658282
106	0xbec3f0a1	-0.38269523
107	0x3c800950	0.01562944
108	0x3edf9dae	0.43674988
109	0x3e37d0f9	0.1795081
110	0x3e9575a5	0.29191318
111	0x3ddda37b	0.10822197
112	0xbed32320	-0.41237736
113	0xbedff31c	-0.43740165
114	0x3ea73be8	0.32662892
115	0x3e4b76ac	0.19869488
116	0x3f0b2ca8	0.54365015
117	0x3f1c3a34	0.6102631
118	0x3d093058	0.03349337
119	0x3f21571f	0.6302356
120	0x3cde63b7	0.027147157
121	0x3e07de5f	0.13268422
122	0xbdbbf06f	-0.091767184
123	0x3e7e0c1f	0.24809311
124	0x3e58d6b5	0.21175654
125	0x3e23ebd6	0.16007933
126	0x3f08ea12	0.5348216
127	0xbd0d797c	-0.034539685
128	0x3f5e4276	0.8682016
129	0x3db8e765	0.0902851
130	0x3f65b4cd	0.89729005
131	0x3e473122	0.19452336
132	0x3eaebfd6	0.34130734
133	0xbeebeb3b	-0.46077904
134	0xbedba89c	-0.42902076
135	0x3e1d2f1f	0.15350007
136	0xbf10b196	-0.56520975
137	0x3e8c0d7e	0.27354044
138	0xbe0097ff	-0.12557982
139	0x3e9d53e1	0.30728057
140	0x3f17b6aa	0.592631
141	0xbf23e81d	-0.6402605
142	0xbcec28df	-0.028828083
143	0xbdc912b1	-0.09818018
144	0x3e46a897	0.1940025
145	0xbf3bdb24	-0.7338126
146	0x3e673d59	0.22581996
147	0xbed6d8ef	-0.41962382
148	0x3c987f98	0.018615529
149	0x3f2702db	0.6523873
150	0xbe1248bb	-0.14285557
151	0xbe9fed4d	-0.31235734
152	0x3fa3aebc	1.27877
153	0x3d3f0664	0.046636954
154	0xbf0c372c	-0.54771686
155	0x3f25cf66	0.6476959
156	0xbd3bbfc3	-0.045837175
157	0x3ee1f122	0.44129282
158	0x3f78e13b	0.97218674
159	0xbe1d0fa5	-0.15337999
160	0xbdb71b54	-0.08940759
161	0x3fbe400c	1.4863296
162	0x3e32ef75	0.17474158
163	0xbf150412	-0.58209336
164	0x3de427d9	0.11140413
165	0xbd384b8a	-0.044993915
166	0x3f1451c4	0.57937264
167	0x3f129d94	0.57271695
168	0xbdc9769e	-0.098370776
169	0x3f311335	0.6916993
170	0x3ee8df64	0.45482934
171	0xbe57fca7	-0.21092473
172	0xbed46c73	-0.4148899
173	0xbf49d758	-0.78844213
174	0x3fa2086c	1.265882
175	0x3f2bb804	0.6707766
176	0x3f6104d1	0.87897974
177	0xbe551942	-0.20810416
178	0x3f205c09	0.62640435
179	0x3ef0b472	0.4701267
180	0xbec53bdf	-0.3852224
181	0x3f2a3636	0.6648897
182	0xbe097431	-0.1342323
183	0xbaf272fa	-0.00184974
184	0xbd165000	-0.036697388
185	0xbec7aa9a	-0.38997346
186	0xbdedb0d6	-0.116059944
187	0x3f46ff36	0.7773317
188	0xbde116d4	-0.10990682
189	0xbe9a6689	-0.30156353
190	0x3f08682a	0.5328394
191	0x3e00dc85	0.12584122
192	0xbe1db1b1	-0.15399815
193	0x3f189841	0.5960732
194	0xbecf777a	-0.4052084
195	0x3e67e843	0.22647195
196	0x3f3babed	0.7330921
197	0x3e875fdc	0.26440322
198	0xbf202e9a	-0.6257111
199	0x3eb08ad7	0.34480926
200	0x3f71e3f2	0.9448844
201	0xbf301777	-0.68785805
202	0xbe1e76d7	-0.15475021
203	0xbea5489a	-0.32281953
204	0x3da2cce2	0.079492345
205	0x3f2b8b8e	0.6700982
206	0xbe1e6d2c	-0.15471333
207	0xbef3a013	-0.47583064
208	0x3f275531	0.65364367
209	0x3eacb9cf	0.3373551
210	0xbd750fef	-0.05982965
211	0xbf4d48e1	-0.8018933
212	0xbe8ebfa7	-0.27880594
213	0x3c9d96a2	0.019236866
214	0x3eaa7c62	0.33298022
215	0xbef5098c	-0.47858846
216	0xbf2154d5	-0.6302007
217	0x3f042965	0.51625663
218	0x3f4ce89d	0.8004244
219	0x3ec32ccc	0.38120115
220	0xbd92276d	-0.07136426
221	0xbf07967a	-0.52963984
222	0x3cc66791	0.024219306
223	0x3edac35b	0.4272717
224	0x3d41792d	0.047234703
225	0x3dc11f25	0.094297685
226	0x3da66c1c	0.08126089
227	0xbec75e53	-0.3893915
228	0xbe949b07	-0.29024526
229	0xbecb7601	-0.39738467
230	0xbe40f25e	-0.18842456
231	0x3ee0a19b	0.43873295
232	0x3e947b9e	0.29000562
233	0x3e1b0666	0.1513916
234	0x3ec8b9de	0.39204305
235	0xba391543	-0.0007060358
236	0xbeb33c27	-0.3500683
237	0xbe942806	-0.28936785
238	0x3eb0d61f	0.3453836
239	0x3d8bb9f8	0.0682258
240	0x3e1df093	0.15423803
241	0x3ebee6b4	0.37285388
242	0x3ddbe5d5	0.10737196
243	0xbd09edb6	-0.033673964
244	0xbbcdf3bc	-0.006285159
245	0xbea38d76	-0.31943864
246	0x3e9c6b24	0.30550492
247	0xbf6a88e3	-0.9161512
248	0xbda1d768	-0.079024136
249	0x3ec2f305	0.38076034
250	0x3ec13f58	0.3774364
251	0x3d1d3c9a	0.038387872
252	0x3e0b8d87	0.13628207
253	0xbdff9fc4	-0.12481645
254	0x3cd2da76	0.025738936
255	0xbf824da5	-1.0179945

network_body.linear_encoder.seq_layers.2.bias f4 [128]
0	0xbd2d9b16	-0.04238423
1	0xbd5f33ee	-0.054492883
2	0xbc31c8ac	-0.010851067
3	0x3e225dd6	0.15856108
4	0xbee8aff4	-0.45446742
5	0xbe81917b	-0.25306305
6	0xbe7ed555	-0.24886067
7	0xbdc79a36	-0.0974621
8	0xbd9482e6	-0.072515294
9	0xbe5b9bdc	-0.21446174
10	0xbee8da6d	-0.45479146
11	0x3d884e0a	0.0665551
12	0xbe800649	-0.25004795
13	0xbd19d3c4	-0.03755547
14	0x3e192d08	0.14958584
15	0xbdec6d0c	-0.115442365
16	0xbe52f707	-0.20602046
17	0x3cd71a7f	0.026257752
18	0x3e3ab543	0.18233208
19	0xbddecf6c	-0.10879406
20	0xbe85df15	-0.2614676
21	0xbefce445	-0.49392906
22	0x3ae906bb	0.0017778495
23	0xbc9512d8	-0.018197462
24	0xbd672f55	-0.056441624
25	0x3e0b2bd9	0.13590945
26	0x3d7daf29	0.061934624
27	0xbd99780c	-0.074936
28	0x3d76b593	0.060231756
29	0xbd1ac246	-0.03778293
30	0xbe84c44d	-0.25931016
31	0xbe1b172e	-0.15145561
32	0x3d77f860	0.060539603
33	0x3e3ec5db	0.18630163
34	0xbe878158	-0.2646587
35	0xbe925382	-0.28579336
36	0xbea566e4	-0.32305062
37	0x3da6cf0c	0.0814496
38	0xbd12567c	-0.03572701
39	0x3cb3d919	0.021954106
40	0x3da1ca26	0.07899885
41	0xbb38c3d5	-0.0028192897
42	0x3c803cd9	0.015654014
43	0x3d9ffbad	0.07811675
44	0xbdbb6594	-0.09150234
45	0xbd4cef83	-0.050033104
46	0x3ed55294	0.41664565
47	0xbe621e5c	-0.22081894
48	0xbcafe66a	-0.021472175
49	0xbe354064	-0.17700344
50	0x3e4f76a1	0.20260097
51	0x3d00b44d	0.03142195
52	0x3e2bd877	0.16781794
53	0xbcb7a7c8	-0.022418872
54	0xbe7f3c4e	-0.24925348
55	0x3d28fa40	0.041254282
56	0xbd4ff12d	-0.050767113
57	0xbdf95af0	-0.12175548
58	0xbaa055c3	-0.001223259
59	0x3da660a2	0.081239
60	0xbeb07bdf	-0.34469506
61	0xbd8015ad	-0.06254134
62	0x3d80984a	0.06279047
63	0x3db54dee	0.088527545
64	0x3c25eab6	0.01012676
65	0x3cab5476	0.020914298
66	0xbd913f63	-0.07092168
67	0x3e3c5161	0.18390419
68	0xbbf024ef	-0.0073286216
69	0xbd688a05	-0.05677225
70	0xbdffcabf	-0.124898426
71	0xbad6b53d	-0.0016380918
72	0xbd6b7061	-0.05748022
73	0xbd34ec94	-0.04417093
74	0x3e8771fc	0.2645415
75	0x3d866295	0.06561772
76	0x3d59ddc0	0.053189993
77	0x3c3416ad	0.010991734
78	0xbe7146a6	-0.23562106
79	0x3e6631c2	0.22479919
80	0xbd1ab94e	-0.037774377
81	0xbdb22fac	-0.08700499
82	0xbe43b84b	-0.19113271
83	0xbea81b6d	-0.32833424
84	0xbe1dcc78	-0.1541003
85	0xbdb37f96	-0.087645695
86	0x3d8af81e	0.06785606
87	0xbdb0ac8d	-0.086266614
88	0x3e6f05e6	0.23342094
89	0xbc01e9cb	-0.007929276
90	0x3e5212d9	0.20515002
91	0x3dabb211	0.08383573
92	0xbed0f37e	-0.4081077
93	0xbddc0668	-0.107434094
94	0x3b018eb4	0.0019768896
95	0xbe44ccd1	-0.19218756
96	0xbe559ffb	-0.20861809
97	0xbe3d3555	-0.18477376
98	0x3e2da689	0.1695806
99	0x3e063655	0.13106664
100	0x3c447b47	0.011992282
101	0x3e5bba76	0.21457848
102	0x3c005d53	0.00783475
103	0xbd01925f	-0.03163373
104	0x3e0c25ea	0.13686338
105	0xbc2e0f76	-0.010623803
106	0x3d8a652f	0.067575805
107	0x3cb039d4	0.02151195
108	0xbd030101	-0.03198338
109	0xbc1ccd65	-0.009570454
110	0xbea3f550	-0.32023096
111	0x3ca89e99	0.020583438
112	0xbe10a710	-0.1412623
113	0x3dd87faf	0.10571229
114	0x3df8e77f	0.121535294
115	0xbd60f527	-0.054921295
116	0x3e014c43	0.12626748
117	0xbea62600	-0.32450867
118	0xbd80ef11	-0.06295598
119	0x3d352f88	0.044234782
120	0xbe3d08e9	-0.1846043
121	0x3e4036c5	0.18770893
122	0xbd7c8c10	-0.06165701
123	0x3e0dd588	0.13850987
124	0xbe075593	-0.13216238
125	0xbea34e82	-0.31895834
126	0x3d475e60	0.048673987
127	0xbe2c21be	-0.16809747

network_body.linear_encoder.seq_layers.2.weight f4 [128, 128]
0	0xbd850171	-0.064944156
1	0xbf76a201	-0.9634095
2	0xbdcebd20	-0.100946665
3	0xbf5e1fe9	-0.8676744
4	0x3dc861bb	0.097842656
5	0x3ee55422	0.4479075
6	0xbe64b4dd	-0.22334619
7	0xbf48bf4f	-0.78416914
8	0xbe6f84df	-0.2339053
9	0xbd892a15	-0.0669748
10	0xbf145ae2	-0.57951176
11	0x3f2e115b	0.6799523
12	0xbf466c3d	-0.7750891
13	0xbe00364d	-0.12520714
14	0xbe50792f	-0.20358728
15	0xbf09eb5d	-0.5387476
16	0x3f17f85f	0.5936336
17	0xbdb21a9d	-0.08696482
18	0xbdc10a8c	-0.0942584
19	0x3ecddefb	0.40209183
20	0x3ed0d60e	0.4078831
21	0xbf294042	-0.66113675
22	0xbf6ff2cd	-0.9372986
23	0x3dd36720	0.10322404
24	0xbe5ecd40	-0.21757984
25	0x3f8ba50a	1.0909741
26	0x3ec1f8ce	0.37885135
27	0xbe5b49db	-0.21414892
28	0xbea99cb0	-0.33127356
29	0xbe96c982	-0.29450613
30	0xbec3a59f	-0.38212296
31	0x3e689234	0.22712022
32	0xbf1301b6	-0.57424486
33	0x3d11fd2f	0.035641845
34	0xbf2ed4de	-0.6829356
35	0x3dab7729	0.08372337
36	0x3e624675	0.2209719
37	0xbf29fa4d	-0.66397554
38	0xbe114140	-0.14185047
39	0x3e7ffa97	0.24997936
40	0x3f6aee6f	0.9177007
41	0x3ca8c6c7	0.020602597
42	0x3e01fbea	0.12693754
43	0xbf85b495	-1.0445734
44	0xbe95a9c1	-0.29231074
45	0xbf9b9753	-1.2155555
46	0xbe723a68	-0.23655093
47	0xbe5e403d	-0.21704192
48	0xbe9f859a	-0.31156617
49	0x3d02ece9	0.031964216
50	0xbe99ba3e	-0.30024904
51	0xbe9e6405	-0.30935684
52	0xbebe00b7	-0.3710992
53	0x3e1b517b	0.15167801
54	0x3c987cbd	0.018614167
55	0x3e0f7b84	0.14011961
56	0xbe3b984b	-0.18319814
57	0xbee3bc11	-0.4447942
58	0xbcf29e1d	-0.02961641
59	0xbd5d1945	-0.053979177
60	0xbee7c9d0	-0.45271158
61	0xbf154e70	-0.5832281
62	0xbf8c86fb	-1.0978693
63	0x3e32d6a3	0.1746469
64	0xbd531fdb	-0.05154405
65	0xbf2644eb	-0.6494891
66	0xbd80b608	-0.0628472
67	0xbf1f34c9	-0.6218992
68	0xbe72d1d6	-0.23712859
69	0xbeb4fb35	-0.35347906
70	0xbec4a65c	-0.38408172
71	0x3f34ad64	0.70577073
72	0x3f34b447	0.7058758
73	0xbeccd1ef	-0.40003917
74	0xbf3c7413	-0.73614615
75	0xbea75a48	-0.32686067
76	0xbf22acff	-0.6354522
77	0xbe5f6284	-0.21814924
78	0xbf23280b	-0.63732976
79	0xbf06c95a	-0.5265099
80	0xbf144a78	-0.5792613
81	0x3f0464e5	0.5171645
82	0xbf644a60	-0.8917599
83	0x3f402249	0.75052315
84	0x3dad1abc	0.08452365
85	0x3f279a1f	0.65469545
86	0x3da9ec33	0.082970046
87	0x3e7c2a40	0.24625492
88	0xbd8ad63b	-0.067791425
89	0xbe855340	-0.26040077
90	0x3e5bd555	0.21468098
91	0xbee8a5e7	-0.45439073
92	0xbd8952a1	-0.06705213
93	0xbedb4cb5	-0.4283196
94	0x3ec151a5	0.37757602
95	0xbe106b7c	-0.14103502
96	0xbf17857a	-0.59188044
97	0x3e13a272	0.14417437
98	0xbefe09c2	-0.4961682
99	0xbe5eef10	-0.21770883
100	0xbe405e6c	-0.18786019
101	0xbe979c12	-0.2961126
102	0xbfb28045	-1.3945395
103	0x3ed82284	0.42213833
104	0xbe2cb55a	-0.16866055
105	0x3d9f2b22	0.07771899
106	0xbf117cb3	-0.568309
107	0x3d8b6ad5	0.06807486
108	0xbcd6880a	-0.026187915
109	0x3e9106eb	0.2832559
110	0x3ea19816	0.31561345
111	0xbe4ed5dd	-0.2019877
112	0xbef3692c	-0.47541177
113	0xbf1e8ea2	-0.6193639
114	0x3f749293	0.95536155
115	0xbde3b298	-0.111180484
116	0xbe912218	-0.28346324
117	0xbf43e1c0	-0.7651634
118	0xbf7eadc0	-0.9948387
119	0x3e59c51d	0.21266599
120	0x3d511272	0.05104298
121	0x3ee7277b	0.4514731
122	0x3e972462	0.29519945
123	0xbee0cf17	-0.43907997
124	0x3d972b48	0.07381302
125	0xbb1225d8	-0.0022300389
126	0x3ef11f78	0.4709432
127	0xbe9461e9	-0.2898095
128	0x3e0a5786	0.1350995
129	0xbeb4a9fd	-0.3528594
130	0x3b8f9226	0.004381436
131	0x3f1e8fbe	0.61938083
132	0x3de4ae61	0.11166073
133	0xbea9ba7c	-0.3315009
134	0x3ea0e056	0.31421155
135	0x3eb06d71	0.34458497
136	0x3f784f7d	0.9699629
137	0x3c7c54eb	0.015401105
138	0xbdd0a4ee	-0.10187708
139	0x3efeb186	0.49744815
140	0xbe6935f3	-0.22774486
141	0xbbc29111	-0.0059377034
142	0xbe4188c4	-0.18899828
143	0xbe9e0a28	-0.30867124
144	0xbd739804	-0.059471145
145	0xbdf95fc9	-0.12176473
146	0xbe65c1e2	-0.22437242
147	0xbf514625	-0.8174766
148	0xbf54408f	-0.8291101
149	0xbe3c9319	-0.18415488
150	0xbf37f3da	-0.7185646
151	0x3e9f651d	0.3113183
152	0xbf7bb534	-0.9832337
153	0xbf887b1c	-1.066257
154	0xbdeb3b55	-0.11485926
155	0xbd19578c	-0.037437007
156	0x3e5b8151	0.21436049
157	0xbea308d6	-0.3184268
158	0xbdf8dabf	-0.121510975
159	0xbe406b1a	-0.18790856
160	0x3f5fdb45	0.87443954
161	0xbf0b6d2c	-0.5446346
162	0xbf8249fb	-1.0178827
163	0xbede455b	-0.4341229
164	0xbd6fd36c	-0.058551237
165	0x3e8916a5	0.2677509
166	0xbea406f4	-0.32036555
167	0xbf001b16	-0.5004133
168	0xbea707b9	-0.3262308
169	0xbe800e4a	-0.25010902
170	0x3f34d660	0.7063961
171	0xbdb68339	-0.089117475
172	0x3ed94b29	0.42440155
173	0xbf599a77	-0.8500132
174	0xbde7cdcc	-0.113185495
175	0xbf2064d4	-0.6265385
176	0xbe9f7438	-0.31143355
177	0x3ed6830b	0.41896853
178	0xbf119348	-0.5686536
179	0xbee75513	-0.45182094
180	0x3ec2c173	0.38038215
181	0xbf8d4e0f	-1.1039447
182	0xbf0f746e	-0.5603703
183	0x3cda17ed	0.026622737
184	0xbf3c7beb	-0.73626584
185	0x3ed43edd	0.4145421
186	0xbe6e51ff	-0.23273467
187	0x3e914b7d	0.28377905
188	0x3ef58521	0.47953132
189	0x3d9cdac4	0.07658914
190	0x3ec02398	0.37527156
191	0x3dbeef99	0.093230434
192	0x3f6f7f92	0.9355403
193	0xbf10c1ec	-0.565459
194	0xbeeea0db	-0.46607098
195	0xbf130720	-0.57432747
196	0xbe285cea	-0.16441694
197	0xbe3f86bc	-0.18703741
198	0xbe5f5230	-0.21808696
199	0x3d9047e1	0.0704496
200	0xbf87f9a4	-1.0623059
201	0x3e31ae28	0.17351592
202	0x3f15cefe	0.5851897
203	0x3f4952b9	0.7864185
204	0xbeb4513b	-0.35218224
205	0xbe264cb4	-0.16240197
206	0x3d4e27d2	0.050330944
207	0x3f31279b	0.6920106
208	0x3d2fcf76	0.04292246
209	0xbe4344e8	-0.19069254
210	0x3d34606b	0.044037264
211	0xbef2fd9d	-0.47459117
212	0x3f99d95d	1.2019459
213	0xbe36d125	-0.1785322
214	0xbe593e20	-0.21215105
215	0x3d74ef4e	0.05979853
216	0x3ee67e5f	0.45018288
217	0xbfc8666f	-1.565626
218	0x3e9bf242	0.30458266
219	0x3e890e33	0.26768646
220	0x3f07de50	0.53073597
221	0xbe697561	-0.22798683
222	0xbf3f377f	-0.74694055
223	0x3d5fe087	0.054657485
224	0xbeb839c2	-0.35981566
225	0xbf03cf5f	-0.514883
226	0xbf382ebc	-0.7194631
227	0xbdd0b423	-0.10190608
228	0xbee84b67	-0.45370027
229	0x3eb139be	0.34614366
230	0x3d877f8c	0.066161245
231	0xbe1f1231	-0.15534283
232	0xbd8a74d2	-0.06760563
233	0xbc86d4a5	-0.016458819
234	0x3eb4e175	0.3532826
235	0xbf67fe4c	-0.906224
236	0x3eb3afe9	0.35095146
237	0xbf3a6eb0	-0.72825146
238	0x3f006c01	0.501648
239	0xbde57d97	-0.11205595
240	0xbf23c198	-0.63967276
241	0xbea1d34c	-0.3160652
242	0x3eaaa033	0.33325347
243	0x3dd63a14	0.10460296
244	0x3e5c75e7	0.21529351
245	0xbe1aad57	-0.15105186
246	0xbf7095dc	-0.9397867
247	0x3ecda00e	0.40161175
248	0xbe45922a	-0.19294038
249	0x3eed22c7	0.46315596
250	0x3ece14d5	0.4025027
251	0x3edd5fe9	0.43237236
252	0xbdc86c25	-0.09786252
253	0x3c188530	0.009309098
254	0x3e1caece	0.15301058
255	0x3e567123	0.20941596
