Assets/Models/Good Models/26feb.onnx (onnx, 351666 bytes, 14 tensors)

106 f4 [70]
0.28803828 0.14303413 0.3715045 0.46102774 0.49849015 0.28914204 0.14238134 0.37622127
0.45982134 0.49844956 0.54365444 0.1893261 0.5315508 0.39810592 0.27961227 0.14111651
0.37483555 0.4649034 0.497808 0.28055766 0.14048007 0.37965545 0.46366042 0.4977604
0.54754597 0.1811889 0.5352984 0.40176755 0.27070108 0.13906363 0.37813967 0.46867996
0.49699292 0.27145043 0.13844046 0.38300276 0.46743205 0.49693677 0.5515974 0.17366277
0.53887206 0.40664184 0.2612563 0.13685441 0.3814699 0.47237974 0.49603587 0.26177144
0.13624161 0.38633475 0.4711602 0.4959758 0.55580944 0.16756283 0.5422561 0.412929
0.25091994 0.13450481 0.38422573 0.47532836 0.49473074 0.25114506 0.13390355 0.38903376
0.4741011 0.49466184 0.5606771 0.16232343 0.54483 0.41899803
00000000: c179 933e 8a77 123e d635 be3e d40b ec3e
00000010: 1a3a ff3e 6d0a 943e 6acc 113e 13a0 c03e
00000020: b46d eb3e c834 ff3e f02c 0b3f b3de 413e
00000030: b713 083f 8ad4 cb3e 5729 8f3e d980 103e
00000040: 72ea bf3e d207 ee3e b1e0 fe3e 41a5 8f3e
00000050: 02da 0f3e 3362 c23e e664 ed3e 73da fe3e
00000060: f92b 0c3f 9589 393e 5109 093f 7ab4 cd3e
00000070: 5599 8a3e b266 0e3e 869b c13e d2f6 ef3e
00000080: db75 fe3e 8dfb 8a3e 56c3 0d3e f018 c43e
00000090: 4153 ef3e 7f6e fe3e 7d35 0d3f a7d4 313e
000000a0: 85f3 093f 5c33 d03e 63c3 853e 9023 0c3e
000000b0: 0650 c33e c2db f13e 6af8 fd3e e806 863e
000000c0: ec82 0b3e abcd c53e e93b f13e 8af0 fd3e
000000d0: 8749 0e3f 9795 2b3e 4cd1 0a3f 6e6b d33e
000000e0: 9478 803e a1bb 093e 3cb9 c43e 3d5e f33e
000000f0: 594d fd3e 1696 803e 031e 093e 6f2f c73e
00000100: 61bd f23e 5144 fd3e 8988 0f3f 1d38 263e
00000110: fb79 0b3f e986 d63e

action_model._discrete_distribution.branches.0.bias f4 [3]
0.011653368 0.047434755 -0.05912503
00000000: c5ed 3e3c f24a 423d 162d 72bd

action_model._discrete_distribution.branches.0.weight f4 [3, 256]
-0.057240214 0.040978625 0.0071649123 0.013450134 0.019025862 0.03026929 0.012873078 0.047091343
-0.0108189285 -0.02069532 0.014447175 -0.048252746 0.012759989 0.0003685823 0.026954098 0.003150892
0.015137576 -0.0071084034 0.03804034 -0.0026145256 0.012532079 0.017609408 0.021610247 -0.005964351
0.0046961997 0.02447803 0.11954758 -0.016227446 -0.002014611 -0.0098865125 0.062237225 -0.04071214
0.004809287 0.03301173 0.03476458 0.032339413 -0.0120776165 -0.004017108 0.006064238 -0.002419242
0.019394955 -0.01100797 -0.010986823 0.034155767 -0.010774496 -0.015852368 0.026933622 -0.0070344126
-0.05601951 0.052480586 -0.012587747 -0.005695702 -0.021628888 -0.035277314 0.0040760557 -0.031478137
-0.025304724 0.008628733 -0.001290533 -0.07381576 0.02898024 -0.0008577428 -0.033918936 -0.014512329
0.034874093 0.0010847627 0.022432916 0.01983604 -0.043491915 0.043291386 0.056878105 0.020728722
-0.043307204 -0.023276875 0.028135696 0.0020265505 -0.013455478 0.021163236 0.03280472 0.03854968
0.029609859 0.04577626 -0.03330263 0.014672979 0.017550904 0.0063495664 -0.017021004 0.019700615
0.0649337 -0.045174785 0.0335834 0.038840264 0.022537788 -0.01086994 -0.042589713 0.047776073
0.011001962 0.021776047 0.026647506 0.014061199 -0.042271305 0.0068441974 0.062542334 0.05549893
0.018297788 0.051870935 -0.009369345 0.052209415 0.014348447 -0.024326302 -0.011348382 0.0426881
-0.014274383 -0.0011988911 -0.0023975098 0.05260403 0.043587845 0.016231675 0.06659273 0.009609196
-0.003935217 -0.009088912 0.02094193 -0.032692958 0.022326129 -0.007733217 -0.0012641869 0.03578203
-0.015822753 -0.005577759 -0.049033523 0.019929217 -0.015504625 -0.06680505 0.015165666 -0.004276753
0.0034632147 0.048330348 0.010802325 -0.029580265 0.034823544 0.067913264 0.02793305 0.031342424
0.021229394 0.028996177 0.08163401 0.02092346 0.009357494 -0.047430873 -0.014137444 -0.0077114915
-0.0031659582 -0.021055823 0.058056284 0.024829304 -0.0063271597 0.03820469 -0.03489611 0.0016158117
0.020370355 0.00045787083 0.024737848 -0.040634274 0.04935788 -0.028828798 0.035435468 -0.023170892
0.016224377 -0.010083292 -0.018112924 0.041529667 -0.0019690786 -0.01975369 0.07540006 -0.003997993
-0.031907327 -0.0069363145 0.038444888 -0.0021407036 0.08528402 0.0024141872 -0.00672445 0.021628125
-0.00017985332 0.037994813 0.020029826 0.017003054 -0.017513702 0.017096754 0.0005156864 0.00048075974
0.04984555 0.018084934 0.020621562 -0.023213461 -0.04947088 0.0056974688 -0.024515871 0.018935915
-0.016032502 -0.030982766 0.053789742 -0.0016182244 0.060744952 -0.059556305 -0.045169376 0.00901311
-0.025629876 0.004602867 0.06659642 0.033873994 0.0050787213 0.036140867 0.005702464 0.050206564
0.0039680554 0.06154949 -0.03365822 0.0102872 0.08861867 0.040298503 0.020051839 -0.007995382
-0.046918403 0.014994097 0.06564376 -0.002447349 -0.018465735 -0.021659408 0.036534138 0.045319047
0.0019889837 -0.019093247 -0.023675237 0.015155811 0.022398353 -0.067090236 0.048860695 0.031699907
0.017699976 0.055961106 0.002233538 0.0071016806 0.009315029 -0.05274815 0.051689163 0.049595248
-0.034302555 0.016935518 0.018624404 -0.022324575 -0.007789702 -0.016209463 0.071402654 0.07754412
00000000: b774 6abd 34d9 273d a4c7 ea3b f35d 5c3c
00000010: 20dc 9b3c 4df7 f73c 9ae9 523c dae2 403d
00000020: e041 31bc 3b89 a9bc d8b3 6c3c aca4 45bd
00000030: 460f 513c 473e c139 d7ce dc3c 327f 4e3b
00000040: 9803 783c 9ced e8bb 30d0 1b3d 7658 2bbb
00000050: 5953 4d3c 9b41 903c f907 b13c 9a70 c3bb
00000060: 94e2 993b 2686 c83c 5dd5 f43d 6cef 84bc
00000070: 9007 04bb 0afb 21bc 76ec 7e3d c6c1 26bd
00000080: 3997 9d3b 4f37 073d 4e65 0e3d 5576 043d
00000090: 32e1 45bc f2a1 83bb 84b6 c63b 258c 1ebb
000000a0: 2be2 9e3c c65a 34bc 1302 34bc ebe6 0b3d
000000b0: 8387 30bc d3dc 81bc e6a3 dc3c ee80 e6bb
000000c0: b774 65bd e2f5 563d d63c 4ebc 03a3 babb
000000d0: 112f b1bc f27e 10bd 6f90 853b 38ef 00bd
000000e0: da4b cfbc 885f 0d3c 1a27 a9ba b82c 97bd
000000f0: f867 ed3c 25da 60ba 95ee 0abd 1fc5 6dbc
00000100: 23d8 0e3d 992e 8e3a 3cc5 b73c 317f a23c
00000110: 9424 32bd 4f52 313d 04f9 683d 48cf a93c
00000120: e562 31bd 25af bebc d57c e63c e0cf 043b
00000130: 5d74 5cbc 865e ad3c 3e5e 063d 45e6 1d3d
00000140: 6090 f23c e37f 3b3d 5768 08bd ef66 703c
00000150: eac6 8f3c 0610 d03b a26f 8bbc 2f63 a13c
00000160: f6fb 843d 3209 39bd bf8e 093d f816 1f3d
00000170: 2ba1 b83c d517 32bc 8d72 2ebd d8b0 433d
00000180: 9341 343c ae63 b23c df4b da3c f160 663c
00000190: ad24 2dbd 4a45 e03b 3216 803d d952 633d
000001a0: 3ee5 953c 9e76 543d e281 19bc 8ad9 553d
000001b0: c015 6b3c f447 c7bc 90ee 39bc b8d9 2e3d
000001c0: 1adf 69bc 1c24 9dba 8a1f 1dbb 5377 573d
000001d0: 2b89 323d 4af8 843c c561 883d e46f 1d3c
000001e0: fef2 80bb a9e9 14bc 698e ab3c 0de9 05bd
000001f0: 49e5 b63c ed66 fdbb 13b3 a5ba 2e90 123d
00000200: b89e 81bc a2c5 b6bb 60d7 48bd 9942 a33c
00000210: 1c07 7ebc 16d1 88bd 6a79 783c 0124 8cbb
00000220: 1af7 623b 0bf6 453d 3cfc 303c 5052 f2bc
00000230: 22a3 0e3d 1c16 8b3d dad3 e43c ea60 003d
00000240: 44e9 ad3c 6489 ed3c bb2f a73d ad67 ab3c
00000250: 2d50 193c e046 42bd bda0 67bc aeb0 fcbb
00000260: f77b 4fbb 437d acbc 6dcc 6d3d d366 cb3c
00000270: 1054 cfbb 857c 1c3d 39ef 0ebd a5c9 d33a
00000280: bbdf a63c 620e f039 07a7 ca3c 2070 26bd
00000290: 7d2b 4a3d 5f2a ecbc c824 113d e2d0 bdbc
000002a0: fce8 843c 6434 25bc 8e61 94bc 031b 2a3d
000002b0: a80b 01bb 7ed2 a1bc 596b 9a3d 9901 83bb
000002c0: 42b1 02bd 064a e3bb 6378 1d3d 0c4b 0cbb
000002d0: 63a9 ae3d 5737 1e3b c658 dcbb 772d b13c
000002e0: 0297 3cb9 73a0 1b3d 9715 a43c fd49 8b3c
000002f0: e578 8fbc 7e0e 8c3c 212f 073a 7b0e fc39
00000300: d92a 4c3d db26 943c 8dee a83c 282a bebc
00000310: faa1 4abd d5b1 ba3b 82d5 c8bc 7e1f 9b3c
00000320: 9856 83bc 92cf fdbc a252 5c3d 9a1a d4ba
00000330: b3cf 783d 50f1 73bd 8603 39bd b9ab 133c
00000340: bff5 d1bc a6d3 963b b463 883d 75bf 0a3d
00000350: 676b a63b 7208 143d bcdb ba3b 66a5 4d3d
00000360: 7606 823b 511b 7c3d 34dd 09bd a58b 283c
00000370: b57d b53d 0b10 253d c143 a43c 10ff 02bc
00000380: 832d 40bd cda9 753c 3c70 863d b463 20bb
00000390: 7445 97bc 126f b1bc d2a4 153d 77a0 393d
000003a0: 9c59 023b 7169 9cbc 92f2 c1bc 1450 783c
000003b0: c07c b73c 9b66 89bd 2722 483d c3d7 013d
000003c0: 8aff 903c 7937 653d 8d60 123b 37b5 e83b
000003d0: 109e 183c 720e 58bd 04b8 533d 6324 4b3d
000003e0: d680 0cbd 5bbc 8a3c 3592 983c 07e2 b6bc
000003f0: c240 ffbb b5c9 84bc 8e3b 923d 74cf 9e3d

action_model._discrete_distribution.branches.1.bias f4 [3]
-0.027163379 0.010968652 0.017069658
00000000: bc85 debc dcb5 333c abd5 8b3c

action_model._discrete_distribution.branches.1.weight f4 [3, 256]
0.013378395 -0.03780183 -0.03552915 -0.014112424 0.0070619667 -0.042308126 -0.021078419 -0.01873683
0.007544899 0.0042499444 0.0010214302 0.0004802058 -0.0160329 0.0005400734 0.021164488 0.0037002582
0.00629892 0.004072896 -0.058346625 0.018987855 -0.0054588085 -0.00667697 0.001722186 -0.0027869714
0.016621634 -0.010588179 -0.066753656 -0.004736866 -0.0077470653 0.037296303 -0.038742196 0.06271714
0.038165275 -0.0042094816 -0.0145033905 0.0019071386 0.008427576 0.027262611 0.011406616 0.030198233
-0.020207528 0.0004851179 0.001992424 0.023194872 0.01909581 0.012577175 0.04093364 0.0252316
0.0402844 -0.035579324 0.025056235 0.028766226 0.0052705957 0.024624543 0.013267467 -0.013828289
0.0084449295 0.025849285 -0.00028071372 0.03234774 0.039184682 0.039286133 0.010190412 0.011882255
-0.038796693 0.0187859 0.03787876 0.007394168 0.048226226 0.006157193 -0.02852681 0.006769131
-0.07592291 -0.024823373 -0.04310598 -0.058920946 0.006074121 -0.012878968 0.011213075 0.07231683
-0.013048459 -0.012159414 0.023788124 0.046509 -0.0085513 0.057044733 0.053140163 -0.015616639
0.012933153 0.034985274 0.045994297 0.018028313 -0.0009517148 0.009422355 0.008258922 -0.0446285
0.0143222185 -0.040300608 -0.00059476553 0.03193589 -0.010719167 0.022683417 -0.011733754 -0.014109694
-6.8696463e-06 -0.009122478 0.04060769 -0.028267749 -0.05134381 0.027281195 0.01986666 -0.01657497
0.026092313 0.05761566 0.024356721 -0.031140095 -0.0024402537 0.015809236 -0.051554345 0.0057455027
0.0015328913 -0.000711106 -0.015950602 -0.0047621615 -0.021299915 -0.0037624573 0.029889325 -0.043341078
-0.0051824166 0.005249617 -0.018674465 -0.013128682 -0.023803776 0.045204382 0.0142781455 -0.03323742
-0.009423088 0.0024841824 0.051262356 -0.032905176 0.012300414 0.0025540607 -0.025144612 -0.008853949
-0.015687654 0.008087584 -0.038531967 0.010742574 0.049860135 -0.0072237565 -0.015772637 0.0013645135
0.022528997 0.021336926 -0.01442758 -0.015211699 -0.063704714 -0.0035993804 -0.042593345 0.024768833
0.037968036 0.012211286 0.028185675 0.034901857 -0.027769238 -0.0132312495 -0.018013526 0.0005149077
-0.009433552 0.04253171 0.016425302 -0.0037678946 -0.05267747 -0.005404013 -0.047539752 -0.038901422
-0.02398003 0.015689038 -0.011495734 -0.020052103 0.0031221209 -0.041097224 0.022362784 -0.02298098
0.002108009 -0.021649286 -0.001948872 0.044856068 0.015325255 -0.008924591 -0.03684152 -0.06355855
-0.02047674 -0.01826181 0.0071114004 0.0140629755 0.01921569 -0.027034173 -0.01401036 -0.0540788
0.031718902 -0.0028187153 -0.0022682792 -0.038071223 -0.00027501918 0.026983472 0.045095198 0.012628572
0.007207869 0.019406518 -0.006190116 0.032870613 0.021935385 -0.010006713 0.011946126 -0.015958928
0.029373612 0.023465194 -0.026207633 -0.035874296 0.040516824 0.023164304 -0.004657937 0.022871867
0.04482094 -0.039870895 -0.050204102 -0.013258389 -0.001297449 0.053341713 -0.003988261 0.015632188
0.01708021 0.048233446 0.03135928 -0.03988429 0.0020483055 0.00033615774 0.021322494 0.0044171666
0.033989545 -0.04236121 -0.012028003 -0.04146706 0.0014367248 0.014915307 0.008906028 -0.010411333
0.0223304 0.001403129 0.020712307 0.0003105904 0.0076481807 -0.010122207 0.025783204 0.004244827
00000000: 0e31 5b3c 17d6 1abd 0487 11bd cc37 67bc
00000010: 1268 e73b 494b 2dbd a6ac acbc fb7d 99bc
00000020: 333b f73b 1e43 8b3b 83e1 853a 22c4 fb39
00000030: 6e57 83bc b693 0d3a 2661 ad3c 0880 723b
00000040: 2c67 ce3b ee75 853b dffc 6ebd 6b8c 9b3c
00000050: cedf b2bb 7cca dabb f9ba e13a 9fa5 36bb
00000060: 182a 883c 0b7a 2dbc 24b6 88bd b637 9bbb
00000070: 18db fdbb 02c4 183d 23b0 1ebd d871 803d
00000080: 3153 1c3d b1ef 89bb a19f 6dbc f4f8 f93a
00000090: d113 0a3c d755 df3c d1e2 3a3c 4962 f73c
000000a0: 428a a5bc 6c57 fe39 5493 023b 2c03 be3c
000000b0: d16e 9c3c 7f10 4e3c 08aa 273d 80b2 ce3c
000000c0: 4101 253d a0bb 11bd bc42 cd3c 26a7 eb3c
000000d0: f6b4 ac3b 69b9 c93c ca5f 593c 0c90 62bc
000000e0: 9a5c 0a3c e1c1 d33c c22c 93b9 107f 043d
000000f0: 1e80 203d 7fea 203d b0f5 263c caad 423c
00000100: 48e9 1ebd e3e4 993c c226 1b3d c74a f23b
00000110: dd88 453d 47c2 c93b 0fb1 e9bc 96cf dd3b
00000120: 787d 9bbd 635a cbbc e58f 30bd 1757 71bd
00000130: 6c09 c73b 4f02 53bc 0cb7 373c d91a 943d
00000140: 34c9 55bc 4738 47bc 50df c23c 3980 3e3d
00000150: c01a 0cbc bda7 693d 80a9 593d eedc 7fbc
00000160: 93e5 533c b84c 0f3d 8464 3c3d 1db0 933c
00000170: 807c 79ba 3960 1a3c 6e50 073c 60cc 36bd
00000180: bda7 6a3c 4012 25bd 0aea 1bba 35cf 023d
00000190: 729f 2fbc 93d2 b93c ee3e 40bc 592c 67bc
000001a0: d081 e6b6 7276 15bc 4054 263d c491 e7bc
000001b0: e34d 52bd d07c df3c 68bf a23c 3bc8 87bc
000001c0: 8cbf d53c 66fe 6b3d bf87 c73c 8319 ffbc
000001d0: aaec 1fbb 5f82 813c a62a 53bd c544 bc3b
000001e0: 4ceb c83a 8469 3aba d6aa 82bc e80b 9cbb
000001f0: 297d aebc 8f93 76bb 75da f43c 6a86 31bd
00000200: 43d1 a9bb fb04 ac3b 31fb 98bc af19 57bc
00000210: 2300 c3bc 3b28 393d e2ee 693c f623 08bd
00000220: 4c63 1abc aacd 223b 7af8 513d 94c7 06bd
00000230: ad87 493c 0762 273b 13fc cdbc 2710 11bc
00000240: 6583 80bc c981 043c b2d3 1dbd 9f01 303c
00000250: 243a 4c3d 43b5 ecbb 9e35 81bc 7ad9 b23a
00000260: bb8e b83c c7ca ae3c a861 6cbc 7d3a 79bc
00000270: 9e77 82bd 95e3 6bbb 5c76 2ebd 02e8 ca3c
00000280: 5f84 1b3d d911 483c a5e5 e63c 40f5 0e3d
00000290: 507c e3bc e2c7 58bc 1a91 93bc dffa 063a
000002a0: 2f8f 1abc bb35 2e3d 5b8e 863c c8ee 76bb
000002b0: 55c4 57bd 2614 b1bb 0bb9 42bd 1957 1fbd
000002c0: c571 c4bc 4c86 803c 9a58 3cbc 4f44 a4bc
000002d0: 7f9c 4c3b 9055 28bd 2832 b73c 9c42 bcbc
000002e0: 8626 0a3b d859 b1bc 4b71 ffba ffba 373d
000002f0: c716 7b3c 7338 12bc 22e7 16bd fc2a 82bd
00000300: d6be a7bc cb99 95bc c006 e93b 6568 663c
00000310: 396a 9d3c c576 ddbc b68b 65bc bb81 5dbd
00000320: aeeb 013d 32ba 38bb 69a7 14bb 92f0 1bbd
00000330: 7330 90b9 710c dd3c beb5 383d 12e8 4e3c
00000340: fd2f ec3b 6bfa 9e3c 75d6 cabb 56a3 063d
00000350: d6b1 b33c 32f3 23bc afb9 433c 4cbc 82bc
00000360: eea0 f03c 143a c03c 64b1 d6bc edf0 12bd
00000370: f8f4 253d 11c3 bd3c 9ca1 98bb c85d bb3c
00000380: 2996 373d aa4f 23bd d1a2 4dbd b739 59bc
00000390: 2a0f aaba d77c 5a3d f5af 82bb 130f 803c
000003a0: cceb 8b3c 6f90 453d 9772 003d b65d 23bd
000003b0: dd3c 063b 543e b039 83ac ae3c e1bd 903b
000003c0: 9f38 0b3d f382 2dbd 1a11 45bc 5dd9 29bd
000003d0: 7c50 bc3a 555f 743c 97ea 113c 4c94 2abc
000003e0: 3eee b63c 32e9 b73a dbac a93c bdd6 a239
000003f0: 979d fa3b 9dd7 25bc 4c37 d33c 3118 8b3b

action_model._discrete_distribution.branches.2.bias f4 [2]
0.003242345 -0.003242352
00000000: 867d 543b a47d 54bb

action_model._discrete_distribution.branches.2.weight f4 [2, 256]
0.07203849 -0.016209573 0.00095644954 0.016348097 -0.001941436 0.030344903 0.04049729 -0.019845273
-0.001786049 0.017893633 0.018030126 0.02982996 -0.06459224 0.029054344 0.0026940606 -0.0071891607
0.051356122 0.003122842 0.047013823 0.00024872643 0.0158441 0.003919248 0.0114011215 -0.019276325
0.0052735796 -0.0131456405 0.054541208 -0.033148535 -0.08667576 0.035397355 -0.011132661 -0.026369138
-0.024845436 -0.010735678 -0.004011025 0.040783547 0.020939488 -0.0645469 -0.040187664 0.017456949
0.015609809 0.012375486 -0.07424262 0.0061598164 0.087494455 -0.031141095 -0.08580952 -0.014455304
0.013579337 0.031529065 -0.04759968 0.015606812 0.013537276 -0.019744864 0.045560107 -0.012689552
0.012668418 -0.028363364 -0.036179654 0.03117777 -0.015872633 -0.024957016 0.037710167 0.0015658282
-0.019176815 0.020305216 -0.029157007 -0.027752649 0.025682643 -0.01226117 0.030043004 0.010598725
0.012560666 -0.010834794 0.02159222 0.029011818 0.029813886 -0.025372049 -0.023738429 -0.003979238
0.008158758 -0.03792046 -0.022564659 -0.032027885 0.008190109 -0.027051035 -0.011656671 0.0026510751
0.010611853 -0.026672434 -0.03183984 -0.021991666 0.025745664 0.02056226 -0.017957142 0.053068385
-0.028469179 -0.014048463 0.007683028 0.035373814 -0.032741647 0.05450822 -0.014493462 0.03236355
0.056196224 0.0043265955 0.04891116 -0.019616853 0.031381156 0.03172254 0.010713521 -0.042428967
-0.042319298 0.017908106 -0.02193932 0.004781369 0.04618094 -0.0516555 0.038424358 -0.047353443
-0.021017535 -0.010484263 0.0055960063 0.025391642 0.016377995 0.0021073844 -0.016531494 -0.011972897
0.046617683 -0.013720342 -0.00092703267 0.011760813 -0.023614425 0.024339002 0.0021757085 -0.00873756
-0.03389679 -0.04448675 0.03517901 -0.011536503 0.023518262 -0.0020884557 0.006466451 -0.0074594556
-0.014760149 0.022969685 0.024488766 -0.063454755 0.004424147 -0.035548527 -0.026844509 0.06322674
0.011236159 -0.031150468 0.008143435 -0.038659323 0.016930558 0.09559777 -0.03566024 -0.016246188
0.00845588 -0.02209001 -0.09395157 0.011874434 0.03059104 0.019121053 0.0023265576 -0.026679447
0.07154224 -0.08773127 0.017869292 0.023221688 0.029969588 -0.02429338 -0.025231348 0.02277695
0.05465756 -0.040519394 -0.0532021 0.008009885 -0.0046657086 0.031119918 -0.075514704 0.008006665
0.012689981 -0.02235112 -0.022725582 0.052503645 0.026540987 -0.041164782 -0.021856697 0.06720817
0.0664606 -0.0042744665 0.010927931 0.0277317 0.0010923 0.016077643 0.0540467 0.011950943
0.00874518 0.01913598 0.0064874226 0.020060284 -0.042160682 0.041084588 0.007807504 -0.005100171
0.033710185 0.01487122 0.08504362 0.0058032135 0.0346903 -0.037696604 -0.030870983 0.04033422
-0.02055298 0.14185101 -0.013093743 -0.022543319 0.00795268 -0.019219298 -0.029069142 0.059973035
0.0042863823 0.038661227 0.009818835 -0.013701455 -0.0134878075 0.09475464 -0.05504315 0.008050819
-0.047255732 -0.028885823 -0.01869727 0.03297321 -0.059201036 0.009443403 0.0031963785 0.019922594
-0.01645533 0.028119849 -0.021505635 0.036587626 -0.003104394 -0.034982074 0.024408212 -0.016795658
0.009860388 -0.017887589 0.0042118635 -0.026384823 -0.032183405 0.039669465 -0.03297582 0.0064326646
00000000: ea88 933d f0c9 84bc 3eba 7a3a 72ec 853c
00000010: c877 feba e095 f83c 7de0 253d 8e92 a2bc
00000020: dc19 eaba ab95 923c eab3 933c f65d f43c
00000030: f048 84bd 6003 ee3c d68e 303b 0d93 ebbb
00000040: cc5a 523d 98a8 4c3b 9191 403d 7f67 8239
00000050: 7ccb 813c 096d 803b c5cb 3a3c 62e9 9dbc
00000060: fecd ac3b d060 57bc 9a66 5f3d c2c6 07bd
00000070: 1083 b1bd d1fc 103d c465 36bc 1704 d8bc
00000080: a888 cbbc b2e4 2fbc eb6e 83bb a60c 273d
00000090: 4a89 ab3c 2a31 84bd d29b 24bd e001 8f3c
000000a0: 49c0 7f3c 8dc2 4a3c 840c 98bd 49d8 c93b
000000b0: 4b30 b33d 9c1b ffbc e7bc afbd f0d5 6cbc
000000c0: de7b 5e3c 9f24 013d e2f7 42bd b7b3 7f3c
000000d0: 73cb 5d3c fbbf a1bc 3c9d 3a3d d7e7 4fbc
000000e0: 328f 4f3c 495a e8bc 1e31 14bd 8668 ff3c
000000f0: 5307 82bc a872 ccbc fa75 1a3d 7a3c cd3a
00000100: b218 9dbc 2057 a63c adda eebc 8659 e3bc
00000110: 6864 d23c 13e3 48bc bf1c f63c 46a6 2d3c
00000120: 40cb 4d3c 6b84 31bc 2be2 b03c 31aa ed3c
00000130: 403c f43c 0bd9 cfbc 1877 c2bc 4564 82bb
00000140: 50ac 053c 7c52 1bbd 85d9 b8bc ac2f 03bd
00000150: cf2f 063c 229a ddbc 9ffb 3ebc a9bd 2d3b
00000160: 56dd 2d3c 2680 dabc 7e6a 02bd de27 b4bc
00000170: 92e8 d23c 2f72 a83c db1a 93bc 3c5e 593d
00000180: 3238 e9bc 862b 66bc e9c1 fb3b 22e4 103d
00000190: 1b1c 06bd 0344 5f3d fc75 6dbc a48f 043d
000001a0: 032e 663d 1dc6 8d3b 1257 483d 86b3 a0bc
000001b0: 8789 003d 7eef 013d c487 2f3c ffc9 2dbd
000001c0: 0057 2dbd 05b4 923c 17ba b3bc 08ad 9c3b
000001d0: 3a28 3d3d b894 53bd dc62 1d3d aff5 41bd
000001e0: f72c acbc 30c6 2bbc b45e b73b 2202 d03c
000001f0: 252b 863c 0b1c 0a3b 0e6d 87bc f829 44bc
00000200: 2ff2 3e3d 49cb 60bc 1c04 73ba 6db0 403c
00000210: 0a73 c1bc 9662 c73c 5596 0e3b fc27 0fbc
00000220: 5cd7 0abd bd37 36bd de17 103d 9a03 3dbc
00000230: 5fa9 c03c 79de 08bb 86e4 d33b 736e f4bb
00000240: 8dd4 71bc ec2a bc3c aa9c c83c 91f4 81bd
00000250: 6ff8 903b 559b 11bd 04e9 dbbc 057d 813d
00000260: de17 383c 442f ffbc 0b6c 053c 3d59 1ebd
00000270: f4b1 8a3c c3c8 c33d 7910 12bd ba16 85bc
00000280: 888a 0a3c 1cf6 b4bc ae69 c0bd fc8c 423c
00000290: 109a fa3c c1a3 9c3c 2979 183b db8e dabc
000002a0: bd84 923d 74ac b3bd 9f62 923c 693b be3c
000002b0: c882 f53c e902 c7bc f9b1 cebc ba96 ba3c
000002c0: 9be0 5f3d aaf7 25bd 72ea 59bd e53b 033c
000002d0: cde2 98bb 33ef fe3c 74a7 9abd 632e 033c
000002e0: a3e9 4f3c b219 b7bc 002b babc 100e 573d
000002f0: 7c6c d93c 679c 28bd d10c b3bc 70a4 893d
00000300: 7f1c 883d d310 8cbb 110b 333c 972d e33c
00000310: 822b 8f3a 43b5 833c 1360 5d3d e3cd 433c
00000320: f247 0f3c 0fc3 9c3c 7294 d43b 7755 a43c
00000330: aeb0 2cbd 5048 283d 17d6 ff3b 561f a7bb
00000340: b113 0a3d 6ba6 733c 592b ae3d e228 be3b
00000350: 6a17 0e3d c167 1abd 25e5 fcbc 7f35 253d
00000360: b95e a8bc 6441 113e 2387 56bc c4ac b8bc
00000370: f54b 023c ca71 9dbc 6922 eebc 49a6 753d
00000380: c874 8c3b 3c5b 1e3d 2edf 203c 117c 60bc
00000390: f7fb 5cbc b80e c23d ed74 61bd 95e7 033c
000003a0: 3a8f 41bd f6a1 ecbc 042b 99bc eb0e 073d
000003b0: c97c 72bd 81b8 1a3c 557a 513b b534 a33c
000003c0: 54cd 86bc 995b e63c 962c b0bc e8dc 153d
000003d0: 1773 4bbb 5d49 0fbd bbf3 c73c 0c97 89bc
000003e0: 778d 213c fe88 92bc ac03 8a3b fc24 d8bc
000003f0: bfd2 03bd 737c 223d a711 07bd 1ac9 d23b

action_model._discrete_distribution.branches.3.bias f4 [2]
-0.0061235717 0.006123572
00000000: 3ea8 c8bb 3fa8 c83b

action_model._discrete_distribution.branches.3.weight f4 [2, 256]
0.00425649 -0.017129676 0.024423437 0.0065410193 0.077896446 -0.023060597 0.057395294 0.12481013
-0.034142382 -0.0074550794 0.05387029 -0.008833834 0.0016505945 -0.019844174 0.047617745 -0.0036140438
-0.034279954 -0.0322748 0.037122723 0.017837135 0.07739195 -0.010640999 0.0066269985 -0.019165013
0.009235699 0.008655244 -0.05938985 -0.009111503 -0.026068106 0.03163758 -0.03700901 0.023250375
0.06960726 0.00551147 0.042819764 -0.09600204 0.05393989 -0.021201592 -0.0134919705 0.0683896
0.038006023 0.044231825 0.0062230458 -0.024497723 -0.09663471 -0.035284895 -0.0015382703 -0.027709205
-0.042596415 0.011588497 -0.0026005462 0.14665784 0.037911188 -0.025545362 -0.018821193 -0.01818581
-0.046597607 0.030848736 0.039880943 -0.016511498 -0.052136112 0.00015033354 0.006037048 -0.054005053
-0.04346209 -0.009454704 -0.0287834 0.0040916204 -0.038449306 -0.01151513 -0.09121476 0.13870408
0.021823548 0.051415842 0.011358723 0.048022054 -0.033515994 -0.03242337 0.05490599 0.0026078888
0.040523108 -0.003522345 0.03524288 0.008976752 0.0058610556 -0.008279109 -0.09916234 -0.025939671
0.006191264 0.009607159 -0.038967445 -0.008895568 0.06621681 0.0035594078 0.051600087 -0.06714295
0.069387466 0.003356342 -0.09188925 0.013735398 0.0761448 -0.07493904 0.007441586 -0.02208194
-0.057958152 0.013768252 0.01561209 0.012686045 -0.033604022 0.0012510318 0.030625347 -0.008004467
0.08526534 -0.027723873 0.017225258 0.015012099 0.012750377 -0.031766243 -0.015470048 -0.004024729
0.07690679 0.0071421894 0.023984851 0.044645946 0.05415315 -0.0069608935 0.028932352 0.0035752787
0.035370927 0.02809482 0.018243438 0.08888156 0.020519743 0.04494452 -0.05755491 -0.008031499
0.024184432 0.01619315 0.0023143745 -0.01673711 0.005754879 -0.09446356 0.007560527 0.042263485
0.03664213 0.03049954 -0.062250923 0.016808638 -0.017087629 -0.059366483 0.026684847 0.038165346
-0.014051893 0.029504538 0.0995958 0.055413697 0.0047847433 0.0023861222 -0.032418877 0.06929601
0.006258993 0.012150169 0.024421293 0.025306663 -0.049066644 -0.016126135 0.033562865 -0.017104948
-0.034116764 0.008005733 0.07077744 -0.022826418 0.010084488 0.026372585 -0.011113041 -0.014551722
-0.0073922966 -0.049711443 0.015228087 0.06271447 -0.027105903 -0.0030786612 -0.02810275 -0.011846323
0.046151187 0.020184064 0.102455735 -0.0063640946 -0.040000398 0.011982964 0.0117921345 -0.047087368
0.044586994 0.019382734 0.08299318 0.02679807 0.032645017 -0.06016644 -0.113940604 -4.0341565e-05
0.024204845 0.0064274436 -0.0714799 -0.046861213 -0.06850979 0.019862197 0.009819969 -0.04238294
0.0007100417 0.056810867 -0.07493854 -0.0034235253 -0.029241804 -0.036371168 0.068813324 0.0033534497
-0.007464017 -0.081600346 -0.0023169674 -0.03683659 -0.08095155 -0.0055544525 -0.005958113 -0.017143656
0.037505638 0.056296017 -0.00035812904 0.013757011 0.08317756 -0.03444284 -0.039432853 0.07756317
-0.08209989 0.028671455 0.012561412 0.002223788 0.011227851 -0.030036395 -0.008224691 -0.07220391
0.046457555 -0.010769163 -0.024293324 0.013805483 -0.052595414 -0.0042030546 -0.026575584 0.03897267
0.006928802 -0.009583935 0.041723825 0.014903276 0.045172617 0.059863172 -0.018331716 -0.0057254373
00000000: 077a 8b3b 8953 8cbc a913 c83c 0c56 d63b
00000010: 2c88 9f3d 94e9 bcbc 5417 6b3d 749c ff3d
00000020: e2d8 0bbd bd49 f4bb 18a7 5c3d c9bb 10bc
00000030: c358 d83a 4090 a2bc d30a 433d 98d9 6cbb
00000040: 2369 0cbd 9532 04bd ff0d 183d 2f1f 923c
00000050: ac7f 9e3d 9657 2ebc 4b27 d93b f2ff 9cbc
00000060: 5451 173c b9ce 0d3c c542 73bd 6a48 15bc
00000070: c88c d5bc 6896 013d c296 17bd 9277 be3c
00000080: 408e 8e3d 9099 b43b c763 2f3d b89c c4bd
00000090: 13f0 5c3d f6ae adbc 6d0d 5dbc d90f 8c3d
000000a0: 34ac 1b3d 6e2c 353d b1ea cb3b 73af c8bc
000000b0: 6be8 c5bd e586 10bd c99f c9ba 6afe e2bc
000000c0: 9479 2ebd aedd 3d3c ed6d 2abb 792d 163e
000000d0: c348 1b3d 8244 d1bc e72e 9abc 68fa 94bc
000000e0: 22dd 3ebd 7db6 fc3c 335a 233d 1f43 87bc
000000f0: ad8c 55bd daa2 1d39 6ed2 c53b 6734 5dbd
00000100: 4e05 32bd e7e7 1abc 2acb ebbc 0013 863b
00000110: 057d 1dbd f5a9 3cbc cece babd 7108 0e3e
00000120: 4cc7 b23c 6b99 523d f019 3a3c c6b2 443d
00000130: 1148 09bd 5ece 04bd 1ae5 603d 1de9 2a3b
00000140: 8ffb 253d 25d7 66bb d75a 103d 3a13 133c
00000150: 190e c03b 1aa5 07bc a015 cbbd 6f7f d4bc
00000160: 16e0 ca3b 5867 1d3c 549c 1fbd b7be 11bc
00000170: ae9c 873d f444 693b 9d5a 533d 3e82 89bd
00000180: 041b 8e3d 13f6 5b3b 6e30 bcbd 6f0a 613c
00000190: cef1 9b3d a479 99bd 8cd8 f33b 2fe5 b4bc
000001a0: 8765 6dbd 3c94 613c dac9 7f3c 21d9 4f3c
000001b0: 5fa4 09bd a9f9 a33a 02e2 fa3c 2b25 03bc
000001c0: 989f ae3d 2d1d e3bc fc1b 8d3c 4ff5 753c
000001d0: f5e6 503c 521d 02bd 1676 7dbc e0e1 83bb
000001e0: 4f81 9d3d 0709 ea3b e17b c43c abde 363d
000001f0: b2cf 5d3d 3518 e4bb 8a03 ed3c 394f 6a3b
00000200: 1be1 103d 1c27 e63c 4373 953c 8907 b63d
00000210: 0519 a83c bf17 383d b3be 6bbd 8c96 03bc
00000220: 6e1e c63c 7fa7 843c c3ac 173b 441c 89bc
00000230: 6d93 bc3b 1c76 c1bd 4cbe f73b 7a1c 2d3d
00000240: 0f16 163d 2cda f93c d3fa 7ebd 45b2 893c
00000250: 5bfb 8bbc 452a 73bd 2e9a da3c 4453 1c3d
00000260: e939 66bc 80b3 f13c e2f8 cb3d 79f9 623d
00000270: 56c9 9c3b 7d60 1c3b a8c9 04bd 11eb 8d3d
00000280: 3d18 cd3b 8111 473c 2a0f c83c eb4f cf3c
00000290: 1bfa 48bd f51a 84bc 3779 093d ad1f 8cbc
000002a0: 05be 0bbd 7a2a 033c c3f3 903d 78fe babc
000002b0: 6939 253c 520b d83c 7913 36bc 596a 6ebc
000002c0: 143b f2bb 3a9e 4bbd 3a7f 793c 7270 803d
000002d0: 330d debc 5dc3 49bb bd37 e6bc 1417 42bc
000002e0: 0709 3d3d 0d59 a53c 50d4 d13d e589 d0bb
000002f0: 75d7 23bd 3254 443c cc33 413c afde 40bd
00000300: daa0 363d 8ac8 9e3c 54f8 a93d a087 db3c
00000310: c8b6 053d 1671 76bd b159 e9bd 6d34 29b8
00000320: 3d49 c63c 4e9d d23b 0e64 92bd 8bf1 3fbd
00000330: dc4e 8cbd 0cb6 a23c efe3 203c bc99 2dbd
00000340: 1822 3a3a 83b2 683d 6179 99bd 395d 60bb
00000350: 828c efbc eff9 14bd 00ee 8c3d 8dc5 5b3b
00000360: b694 f4bb 151e a7bd 43d8 17bb f7e1 16bd
00000370: edc9 a5bd 2002 b6bb 463c c3bb da70 8cbc
00000380: 839f 193d a796 663d 44c3 bbb9 1665 613c
00000390: ff58 aa3d ef13 0dbd 5884 21bd 70d9 9e3d
000003a0: fd23 a8bd 66e0 ea3c 61ce 4d3c f9bc 113b
000003b0: 05f5 373c e30e f6bc dbc0 06bc a5df 93bd
000003c0: 474a 3e3d 2571 30bc cb02 c7bc 6430 623c
000003d0: 4a6e 57bd c7b9 89bb 0ab5 d9bc cea1 1f3d
000003e0: 010b e33b f005 1dbc 9ae6 2a3d df2c 743c
000003f0: ec06 393d 1633 753d 652c 96bc 739c bbbb

network_body.linear_encoder.seq_layers.0.bias f4 [256]
-0.011482192 0.0022464201 -0.0011380606 0.042005695 -0.018609757 -0.015318025 0.044099502 0.011632962
0.0018282789 0.09076991 0.0016633738 0.01942945 -0.0056940774 0.017921489 0.026397716 0.049707707
-0.0074640703 0.022210399 0.014366853 0.0042686188 0.011408485 0.015136194 -0.01377167 2.7668384e-06
0.011822393 0.052124646 -0.030751169 0.03199833 0.025150025 0.036521792 -0.019933574 0.011502733
0.03109289 0.016913686 0.016648496 0.010186586 0.0020850957 0.025477912 0.054173216 4.8215523e-05
0.034861792 -0.007851107 -0.009692474 -0.006746266 0.050511114 0.027882263 0.003369508 -0.024476714
-0.028149355 0.0007064282 0.03758983 0.009134216 0.008073156 0.029801222 0.0465907 0.007933308
0.003883177 0.019557975 -0.000606281 0.0047049513 -0.020903528 0.009454172 -0.03635128 -0.027009862
0.0075507313 -0.0113409255 0.03600801 0.0076664044 -0.005708477 0.013755145 0.04309713 0.0029647753
0.00011968259 0.061299734 0.037552126 0.020529898 0.004343026 0.04215619 0.015487698 -0.009468138
-0.0020090898 0.054456934 -0.014428715 -0.011066161 0.015014311 -0.010786129 0.014747376 0.05268208
-0.0023228591 0.004822287 0.025678381 -0.02298666 0.04376018 0.033937998 0.014060614 -0.010889875
0.044624213 -0.04379789 0.0723991 -0.009485326 0.014519721 0.04166246 -0.026990492 -0.013171702
0.055028293 0.059295118 0.014073457 0.019745408 -0.01582191 0.0075326324 -0.034004744 0.011035593
-0.009446577 -0.013592281 -0.015023815 0.007677946 0.03952427 -0.0069363974 -0.01923304 -0.021999985
-0.024584882 -0.0073920717 0.011939231 -0.018412096 0.023262534 -0.0072576716 0.039849572 -0.031870104
0.0037173454 0.01647508 -0.012828971 -0.004879121 -0.016868982 0.018083634 0.038106956 0.010233409
-0.028073994 0.039417524 0.08555131 0.02096355 0.016826166 0.009419076 0.016508766 0.04060349
0.0038173606 -0.0022119004 0.034737427 -0.015883712 -0.008259212 -0.043104798 0.042040408 0.02136436
0.0064756703 -0.001740848 0.0313132 0.023196168 0.035187945 0.0678112 0.013531118 0.005152497
-0.005868645 0.023330232 -0.0014639188 -0.01896693 0.0025948985 0.03678493 0.015922787 -0.007748206
0.007487422 0.027541094 -0.03770981 -0.018838521 0.014791503 -0.04236343 0.08672632 0.009214434
-0.017865302 -0.01928732 0.027779512 0.081166446 0.054504856 0.014122919 0.043207377 0.018626878
0.058611244 -0.038839262 0.015121537 0.052405015 0.04394446 -0.0052756337 0.079583146 -0.005595816
0.006917334 -0.04337965 0.02097571 0.038557205 0.025500324 0.008877355 -0.033166565 0.029972343
-0.03491712 0.030710245 0.032184288 -0.0129479235 0.017693233 0.03299091 -0.007425166 -0.006975538
0.00849696 0.018256389 -0.0013480232 -0.013137687 0.00671133 0.015049782 -0.0017226412 0.011950276
-0.061842117 0.024054658 0.033930734 0.038429007 0.01993314 0.020596696 0.030009435 0.009149972
0.047207706 0.026541026 0.0044289567 -0.020301977 0.014044028 0.01633366 0.08095927 -0.007894132
-0.03001574 0.020750497 0.0992555 0.005121338 0.01278745 -0.0067580636 0.010094278 -0.012645483
0.050264984 0.0012765035 0.029869294 0.016990323 0.025460187 0.02706984 -0.00991405 0.029939286
-0.029729009 0.011332409 -0.010206081 -0.00065194804 -0.0105085885 0.023525573 -0.015408913 0.0034116749
00000000: ce1f 3cbc ad38 133b fa2a 95ba 2a0e 2c3d
00000010: 7d73 98bc 74f8 7abc aea1 343d 2e98 3e3c
00000020: dca2 ef3a 93e5 b93d 9005 da3a 832a 9f3c
00000030: 6295 babb 16d0 923c 0640 d83c 4f9a 4b3d
00000040: 2995 f4bb 95f2 b53c f362 6b3c c5df 8b3b
00000050: a7ea 3a3c cdfd 773c 92a2 61bc ecad 3936
00000060: b6b2 413c a780 553d e0e9 fbbc ae10 033d
00000070: 6d07 ce3c e097 153d bc4b a3bc f675 3c3c
00000080: 84b6 fe3c 928e 8a3c 6d62 883c a3e5 263c
00000090: 1aa6 083b 0eb7 d03c bce4 5d3d 063b 4a38
000000a0: 3dcb 0e3d eea1 00bc 2fcd 1ebc c80f ddbb
000000b0: bee4 4e3d 5869 e43c f7d2 5c3b 6483 c8bc
000000c0: 7a99 e6bc 982f 393a cbf7 193d aea7 153c
000000d0: 4545 043c b121 f43c e4d5 3e3d b5fa 013c
000000e0: e67c 7e3b 0c38 a03c d4ee 1eba fe2b 9a3b
000000f0: e03d abbc ace5 1a3c 14e5 14bd c943 ddbc
00000100: 206c f73b 4acf 39bc 237d 133d 7636 fb3b
00000110: 2d0e bbbb 425d 613c 9e86 303d ad4c 423b
00000120: 1afe fa38 6e15 7b3d 42d0 193d 512e a83c
00000130: f14f 8e3b f8ab 2c3d 1dc0 7d3c 4020 1bbc
00000140: efaa 03bb 3c0e 5f3d 6b66 6cbc d84e 35bc
00000150: 96fe 753c 4eb8 30bc fa9e 713c 2ac9 573d
00000160: 1c3b 18bb 4604 9e3b 785b d23c 854e bcbc
00000170: e03d 333d 9202 0b3d 7d5e 663c 726b 32bc
00000180: e1c7 363d 6b65 33bd fb45 943d 5768 1bbc
00000190: 20e4 6d3c 41a6 2a3d 2a1b ddbc 1fce 57bc
000001a0: 5965 613d 70df 723d 5b94 663c 1fc1 a13c
000001b0: f39c 81bc 4dd4 f63b 8f48 0bbd a2ce 343c
000001c0: d1c5 1abc 29b2 5ebc 7326 76bc 4797 fb3b
000001d0: 33e4 213d b84a e3bb 9c8e 9dbc 5039 b4bc
000001e0: 3c66 c9bc 3139 f2bb c49c 433c f7d4 96bc
000001f0: 1291 be3c c3d1 edbb 4e39 233d 3a8a 02bd
00000200: b59e 733b bff6 863c 9b30 52bc 09e1 9fbb
00000210: d230 8abc 2124 943c 0a16 1c3d 07aa 273c
00000220: 6ffb e5bc 4574 213d 8635 af3d c0bb ab3c
00000230: 07d7 893c 7852 1a3c 643d 873c d84f 263d
00000240: af2c 7a3b 88f5 10bb d548 0e3d 8f1e 82bc
00000250: a551 07bc a88e 30bd 9032 2c3d 4f04 af3c
00000260: dc31 d43b 2a2d e4ba 4542 003d e405 be3c
00000270: 3c21 103d 99e0 8a3d 9fb1 5d3c 47d6 a83b
00000280: c34d c0bb 0b1f bf3c f7e0 bfba 8960 9bbc
00000290: 2c0f 2a3b cbab 163d 8170 823c aae4 fdbb
000002a0: 0c59 f53b dc9d e13c 9a75 1abd 3e53 9abc
000002b0: 0f58 723c 4785 2dbd 929d b13d 23f8 163c
000002c0: 415a 92bc 7100 9ebc dc91 e33c 983a a63d
000002d0: 7c40 5f3d d163 673c 38fa 303d 6597 983c
000002e0: 5812 703d eb15 1fbd 53c0 773c a4a6 563d
000002f0: 1bff 333d 39df acbb 7dfc a23d 1b5d b7bb
00000300: ceaa e23b dcae 31bd 41d5 ab3c 29ee 1d3d
00000310: 0ee6 d03c 5372 113c aad9 07bd 8f88 f53c
00000320: 4105 0fbd 0d94 fb3c acd3 033d 8723 54bc
00000330: 66f1 903c 7a21 073d cf4e f3bb 0e93 e4bb
00000340: d536 0b3c 6c8e 953c 27b0 b0ba 743f 57bc
00000350: b7ea db3b 5c93 763c 3fca e1ba 17cb 433c
00000360: 294e 7dbd 460e c53c f4fa 0a3d bc67 1d3d
00000370: d34a a33c 67ba a83c 59d6 f53c c4e9 153c
00000380: de5c 413d 916c d93c c820 913b 5550 a6bc
00000390: ec18 663c 2bce 853c f9cd a53d 6456 01bc
000003a0: 92e3 f5bc f2fc a93c 7846 cb3d e6d0 a73b
000003b0: 7482 513c bf72 ddbb 7862 253c 002f 4fbc
000003c0: a8e2 4d3d 5a50 a73a 73b0 f43c 4a2f 8b3c
000003d0: e291 d03c 92c1 dd3c 8a6e 22bc 3c43 f53c
000003e0: 408a f3bc 92ab 393c 6837 27bc 7ee7 2aba
000003f0: 372c 2cbc b4b8 c03c aa75 7cbc 6896 5f3b

network_body.linear_encoder.seq_layers.0.weight f4 [256, 70]
-0.056684352 -0.014200092 -0.0009845266 -0.23378849 -0.08445264 -0.20009632 0.19426069 -0.033456787
0.10190744 0.07457272 0.10973844 -0.10102114 0.015573417 0.010529782 -0.30054274 0.07313456
-0.25025523 0.040682375 -0.007557509 0.09998445 -0.14186203 0.09953597 0.043540295 0.12532386
-0.060667492 0.10395921 -0.16154002 0.08292483 0.00910223 0.144579 0.22455643 -0.040173855
0.07263314 0.087487824 -0.120216005 -0.247524 0.11569914 0.019012233 0.19327247 0.05011808
-0.18724795 -0.050913956 -0.18601891 0.011145225 0.08489071 -0.20126666 -0.05284927 0.04059176
0.16393648 -0.3497053 0.18145745 -0.1040443 -0.06508326 -0.13264813 -0.04273479 -0.0027680064
0.15169574 -0.049376637 -0.027223721 0.00870201 0.110944204 0.07388327 0.030231614 -0.025860563
0.026256165 -0.017557079 0.13768898 -0.04624333 0.0647227 -0.037226267 -0.28558686 -0.07471626
-0.20360585 0.19446692 -0.07742277 0.15474465 0.0019835876 -0.14917193 0.029563788 -0.13196656
-0.057042368 0.102165826 0.13369866 0.00402518 -0.14024575 -0.16095376 -0.12948006 0.0593085
-0.14162356 -0.17350031 0.13764034 -0.029808009 0.07036999 -0.06271634 0.13172507 -0.045790907
-0.26704994 -0.057556782 0.09081086 0.015755221 -0.044747755 0.1633586 -0.09407048 -0.039633933
-0.10470126 0.02594921 -0.06277982 0.3033155 -0.009365551 0.13826582 -0.075909786 0.10711876
0.063264675 0.25763854 0.0076477043 -0.22966368 -0.115000784 -0.07583203 0.013164564 -0.13334279
-0.0756155 -0.039174754 0.08559684 -0.048695732 0.15808874 0.1015075 0.15102462 -0.07598921
-0.082794264 0.034494642 0.0048723095 0.12945348 0.0877279 0.1544557 0.12164553 0.0701432
0.17630629 -0.15407036 -0.08678102 0.009743604 -0.05752587 -0.13203384 0.15933393 -0.1111966
0.17428921 0.0072479956 0.053082164 -0.07052929 -0.17072897 -0.037416782 0.14784445 0.016978327
-0.19955565 -0.022652237 0.14431024 0.21150826 -0.12238167 0.09573902 -0.06497145 0.060034055
-0.07412265 -0.11571526 -0.025212754 -0.06838093 -0.14206699 0.1245407 -0.07176226 -0.0946999
0.09777329 0.3299979 -0.009204963 -0.048462335 0.16489647 0.15677916 0.08580771 0.15939601
0.13232538 0.14595665 -0.006001223 -0.24505886 0.1919771 0.10459708 0.1745701 0.20661725
0.1972027 0.15435223 -0.018571032 -0.17338067 -0.042176403 0.22832094 0.053235415 -0.16629569
0.11874753 0.08318567 0.07967325 -0.12294386 0.15398002 0.31806695 0.17372596 -0.03554244
-0.09725322 -0.015429131 -0.010278235 0.12120905 0.1493197 -0.11746517 -0.037761685 -0.110384256
0.06740701 0.032888338 0.33638325 -0.25339225 -0.07627695 -0.016258068 0.054225776 0.2251992
0.22644085 0.052027136 0.108492516 0.095899716 -0.21435243 0.077870086 -0.03468274 0.12996453
0.056893654 -0.019208452 0.024754174 0.31984833 -0.07024416 -0.08031002 0.04475373 -0.031145591
0.052409682 -0.000116898 0.13577238 0.2577603 -0.03779644 -0.06249531 0.2836281 0.09233475
-0.12091202 -0.2378744 -0.07105589 -0.13052852 -0.0609644 -0.08818751 0.04534757 -0.18358614
0.010692213 0.17498523 0.0073082433 -0.11548134 -0.003731956 0.010164568 -0.005669056 -0.029818267
00000000: da2d 68bd 81a7 68bc 3b0b 81ba 4066 6fbe
00000010: 81f5 acbd 0de6 4cbe 46ec 463e fc09 09bd
00000020: d9b4 d03d 95b9 983d 8cbe e03d 2ce4 cebd
00000030: a527 7f3c 1b85 2c3c bde0 99be 92c7 953d
00000040: 7421 80be 90a2 263d fba4 f7bb a6c4 cc3d
00000050: 4844 11be 84d9 cb3d 4f57 323d e654 003e
00000060: 7a7e 78bd 91e8 d43d bf6a 25be 7ed4 a93d
00000070: 8521 153c 840c 143e 1ff2 653e 578d 24bd
00000080: afc0 943d d12c b33d cf33 f6bd ee76 7dbe
00000090: acf3 ec3d 8bbf 9b3c 38e9 453e 9e48 4d3d
000000a0: edbd 3fbe 278b 50bd be7b 3ebe 769a 363c
000000b0: 2edb ad3d d918 4ebe 7a78 58bd 8c43 263d
000000c0: f7de 273e 930c b3be fbcf 393e 2e15 d5bd
000000d0: 5f4a 85bd e9d4 07be ad0a 2fbd 7167 35bb
000000e0: 2156 1b3e 283f 4abd 4804 dfbc e092 0e3c
000000f0: b736 e33d 1d50 973d 4aa8 f73c 88d9 d3bc
00000100: 2b17 d73c ddd3 8fbc 57fe 0c3e a569 3dbd
00000110: 568d 843d 927a 18bd 7138 92be d704 99bd
00000120: 0d7e 50be 5622 473e d48f 9ebd 6275 1e3e
00000130: 14ff 013b 87c0 18be c22f f23c 3e22 07be
00000140: 42a5 69bd 513c d13d 4de8 083e a8e5 833b
00000150: 959c 0fbe 10d1 24be 6c96 04be 78ed 723d
00000160: c405 11be 11aa 31be 97f1 0c3e ed2f f4bc
00000170: 241e 903d 6d71 80bd f0e2 063e 3f8f 3bbd
00000180: c5ba 88be a9c0 6bbd 0bfb b93d 1811 813c
00000190: 6c49 37bd 7a47 273e 06a8 c0bd 3157 22bd
000001a0: 9d6d d6bd 7093 d43c b592 80bd 2b4c 9b3e
000001b0: f871 19bc 8e95 0d3e 9776 9bbd 1561 db3d
000001c0: e990 813d 33e9 833e 9899 fa3b f52c 6bbe
000001d0: 8885 ebbd d34d 9bbd 2fb0 573c 038b 08be
000001e0: 4ddc 9abd b575 20bd 654d af3d 2d75 47bd
000001f0: 04e2 213e 2ae3 cf3d 33a6 1a3e 3ba0 9bbd
00000200: 0a90 a9bd 414a 0d3d e5a7 9f3b 748f 043e
00000210: afaa b33d a329 1e3e 4b21 f93d 3da7 8f3d
00000220: a389 343e 9fc4 1dbe 3fba b1bd a3a3 1f3c
00000230: 3fa0 6bbd e133 07be 6f28 233e 0bbb e3bd
00000240: df78 323e 9880 ed3b af6c 593d a971 90bd
00000250: 93d3 2ebe 5742 19bd 8964 173e 2216 8b3c
00000260: 5158 4cbe 2f91 b9bc 10c6 133e 9f95 583e
00000270: 3ea3 fabd d212 c43d c00f 85bd 45e6 753d
00000280: 9ecd 97bd 1ffc ecbd fa8a cebc 4d0b 8cbd
00000290: 027a 11be 320f ff3d 17f8 92bd 05f2 c1bd
000002a0: 5d3d c83d 7cf5 a83e 6ad0 16bc 7180 46bd
000002b0: 9fda 283e b78a 203e f4bb af3d b538 233e
000002c0: 4e80 073e a975 153e e8a5 c4bb b6f0 7abe
000002d0: a595 443e fe36 d63d 81c2 323e 7993 533e
000002e0: 81ef 493e 830e 1e3e 4722 98bc b48a 31be
000002f0: 2ac1 2cbd f7cc 693e 610d 5a3d 6b49 2abe
00000300: e831 f33d 405d aa3d bb2b a33d fec9 fbbd
00000310: f0ac 1d3e acd9 a23e 38e5 313e f394 11bd
00000320: b22c c7bd 77ca 7cbc 0b66 28bc 733c f83d
00000330: 43e7 183e 9491 f0bd ffab 1abd 2411 e2bd
00000340: b00c 8a3d ecb5 063d 6d3a ac3e a1bc 81be
00000350: 1737 9cbd a42f 85bc d91b 5e3d 9e9a 663e
00000360: 1ce0 673e 681a 553d 5331 de3d 1267 c43d
00000370: 347f 5bbe 5a7a 9f3d 7d0f 0ebd 6c15 053e
00000380: 5209 693d 0b5b 9dbc 44c9 ca3c 29c3 a33e
00000390: 2cdc 8fbd 9479 a4bd b04f 373d 0a25 ffbc
000003a0: 89ab 563d 2327 f5b8 ea07 0b3e 28f9 833e
000003b0: 71d0 1abd 15fb 7fbd b437 913e 001a bd3d
000003c0: b9a0 f7bd 5995 73be c085 91bd 45a9 05be
000003d0: cfb5 79bd a79b b4bd 60be 393d 01fe 3bbe
000003e0: 642e 2f3c 542f 333e fd79 ef3b 7b81 ecbd
000003f0: d593 74bb 4a89 263c 7dc3 b9bb 7045 f4bc

network_body.linear_encoder.seq_layers.2.bias f4 [256]
-0.001426801 -0.011463109 0.019909319 -0.0012575507 -0.02315433 -0.013301904 -0.012829939 -0.017560638
-0.017647408 -0.03677315 -0.053415943 -0.039272085 -0.0042707957 -0.006103986 -0.019972393 0.0043741874
0.017514851 0.002863009 -0.0023352066 -0.0028087965 -0.039931316 0.02503529 -0.020356307 -0.011334727
-0.04714538 0.010958564 -0.015021735 -0.031919528 0.002350851 -0.004356877 0.00948072 -0.029213965
-0.0199356 -0.0135267535 -0.00012200693 0.009695577 -0.011211759 -0.014820795 -0.048042312 0.01006324
0.022714395 -0.047089122 -0.007216019 0.00082754594 -0.002395187 -0.016249541 -0.043075535 -0.037330803
-0.022304803 -0.026715603 -0.03340857 -0.024989353 -0.010143296 0.0061079655 -0.036495794 0.016929312
-0.020110954 -0.026018951 -0.012585756 -0.003708999 -0.021818815 -0.018909536 -0.012335273 0.020902975
0.014351276 -0.02534142 -0.037766747 -0.045456436 -0.017005369 -0.049721643 0.027182035 -0.010040215
0.06400359 -0.05703964 0.005703923 0.009291072 -0.03539698 0.030383907 -0.03848895 -0.024699828
-0.031033508 -0.012422692 -0.034713574 -0.021235341 0.017544005 -0.017418073 0.0093255285 -0.0015195003
-0.0061336835 0.00590391 -0.023642715 -0.008849903 -0.020613603 -0.015435618 -0.042606786 -0.005442707
-0.028316017 0.011517389 -0.002354207 -0.035712816 -0.049488768 -0.00091215066 -0.02265265 0.022803219
0.00047045696 -0.002777877 -0.021496398 -0.028298153 -0.009698355 -0.022513727 -0.037521053 -0.0029834912
-0.021995993 -0.014916609 -0.020608272 -0.020884434 0.0025368845 -0.039548382 0.0035671399 0.010478547
0.016816098 -0.017532712 0.002569899 0.024203602 -0.0071252096 0.0010609666 -0.03287775 0.013145869
-0.0018133796 -0.012234019 -0.034879606 -0.004723375 -0.011690285 -0.00043136266 0.017688747 0.041964058
-0.038210183 -0.01314142 -0.03423515 -0.006922004 -0.056973867 0.008195117 -0.036812678 -0.018401267
-0.027681494 -0.033047613 -0.024636308 0.0013894496 -0.05846448 0.026080865 -0.0077665704 -0.03737954
-0.02001251 -0.0144830225 -0.019601135 0.00062284764 0.004969537 -0.0027238026 0.039480533 -0.030825313
-0.0015809083 -0.029830242 0.008323866 -0.036071036 0.037474122 -0.05474969 -0.023456275 -0.010970789
-0.019270858 -0.01933354 -0.009870679 -0.02556836 0.024176255 -0.035460174 0.007200087 -0.005561007
0.021028448 0.055006474 0.0073762354 -0.022047924 -0.017221939 -0.019693417 0.007893495 0.03193868
-0.025614122 -0.0035781006 -0.03076685 -0.014884901 0.00085323415 -0.029403375 0.029012648 0.02297492
-0.0013389997 -0.027775023 -0.012881807 -0.011735879 -0.034094963 -0.014388819 0.020895857 0.009744113
0.0040167617 -0.035514664 -0.0036555603 -0.0044226893 -0.01676248 -0.013089623 -0.00032650068 -0.010478424
0.0009998102 0.034589373 -0.022711596 -0.020989079 -0.015667519 -0.027904224 -0.0007523622 -0.033740636
-0.048694015 -0.011416626 -0.0117893955 0.0027699627 0.0073850956 -0.017179593 0.018897574 0.0174869
-0.0092564635 -0.007011203 -0.0060479543 0.0069691637 -0.012927037 0.014433455 0.025991457 -0.025064053
0.001962801 -0.011583225 -0.007120254 0.005719984 -0.016670434 0.017755084 -0.032826457 0.0043409592
-0.02118543 0.017730432 0.012609276 -0.0039777705 -0.013352877 -0.03595763 -0.03502523 -0.004565097
-0.021510659 -0.0076217824 -0.044479042 -0.024738496 -0.010468479 0.017690405 -0.010122207 -0.029090403
00000000: 7f03 bbba c4cf 3bbc de18 a33c 66d4 a4ba
00000010: 26ae bdbc 3bf0 59bc aa34 52bc 54db 8fbc
00000020: 4c91 90bc 719f 16bd adca 5abd c4db 20bd
00000030: 08f2 8bbb f203 c8bb 259d a3bc 5855 8f3b
00000040: 4e7b 8f3c 52a1 3b3b 440a 19bb c913 38bb
00000050: 058f 23bd cf16 cd3c 45c2 a6bc 4ab5 39bc
00000060: 841b 41bd 8c8b 333c b91d 76bc 0dbe 02bd
00000070: bc10 1a3b 22c4 8ebb 0655 1b3c 2052 efbc
00000080: fc4f a3bc 519f 5dbc f9dd ffb8 33da 1e3c
00000090: 87b1 37bc ebd2 72bc 04c8 44bd 4ae0 243c
000000a0: 8a13 ba3c 86e0 40bd 5b74 ecbb abef 583a
000000b0: 92f8 1cbb c21d 85bc f96f 30bd 2fe8 18bd
000000c0: 90b8 b6bc aeda dabc 6dd7 08bd 79b6 ccbc
000000d0: 1130 26bc 5425 c83b 9d7c 15bd 57af 8a3c
000000e0: babf a4bc b225 d5bc 7d34 4ebc ad12 73bb
000000f0: 5fbd b2bc 2ce8 9abc e319 4abc b73c ab3c
00000100: 9d21 6b3c cf98 cfbc 4eb1 1abd 8730 3abd
00000110: d84e 8bbc eca8 4bbd dcac de3c b77f 24bc
00000120: 5014 833d 66a2 69bd f9e7 ba3b 9539 183c
00000130: 6cfc 10bd ace7 f83c 97a6 1dbd 4b57 cabc
00000140: fc39 febc 8c88 4bbc d22f 0ebd bdf5 adbc
00000150: 72b8 8f3c 59b0 8ebc 1aca 183c f829 c7ba
00000160: 11fd c8bb 9675 c13b 5eae c1bc 2fff 10bc
00000170: dcdd a8bc ade5 7cbc 7484 2ebd bc58 b2bb
00000180: fef6 e7bc 6eb3 3c3c 0a49 1abb 9a47 12bd
00000190: bcb4 4abd 651d 6fba 0d92 b9bc d1cd ba3c
000001a0: aaa7 f639 0b0d 36bb 3719 b0bc 87d1 e7bc
000001b0: d9e5 1ebc b56e b8bc adaf 19bd ad86 43bb
000001c0: f130 b4bc cb64 74bc aed2 a8bc d515 abbc
000001d0: dc41 263b 7cfd 21bd adc6 693b 36ae 2b3c
000001e0: eac1 893c c3a0 8fbc c06b 283b a246 c63c
000001f0: 977a e9bb 2210 8b3a d2aa 06bd c561 573c
00000200: ecae edba 3271 48bc ebdd 0ebd 8bc6 9abb
00000210: 9c88 3fbc 8428 e2b9 fee7 903c 81e2 2b3d
00000220: 4882 1cbd 1c4f 57bc 283a 0cbd fad1 e2bb
00000230: 6e5d 69bd d044 063c e4c8 16bd 41be 96bc
00000240: 4dc4 e2bc ef5c 07bd 15d2 c9bc 311e b63a
00000250: 7378 6fbd 8aa7 d53c b77e febb 4a1b 19bd
00000260: 46f1 a3bc 334a 6dbc 8f92 a0bc 9946 233a
00000270: 7fd7 a23b d381 32bb 57b6 213d 5e85 fcbc
00000280: 7b36 cfba 8d5e f4bc d360 083c 39bf 13bd
00000290: 777e 193d 3641 60bd 6027 c0bc d3be 33bc
000002a0: ebdd 9dbc 5f61 9ebc a1b8 21bc bd74 d1bc
000002b0: 480d c63c b03e 11bd b5ee eb3b 1c39 b6bb
000002c0: da43 ac3c 784e 613d 59b4 f13b d99d b4bc
000002d0: 0615 8dbc 1754 a1bc b853 013c 22d2 023d
000002e0: b5d4 d1bc 917e 6abb c30a fcbc cddf 73bc
000002f0: 93ab 5f3a 59df f0bc efab ed3c e635 bc3c
00000300: 6081 afba 7288 e3bc 370e 53bc d847 40bc
00000310: 29a7 0bbd 15bf 6bbc ca2d ab3c c6a5 1f3c
00000320: 0a9f 833b d377 11bd 2092 6fbb 35ec 90bb
00000330: 7851 89bc dc75 56bc 2e2e abb9 b2ad 2bbc
00000340: 100c 833a 96ad 0d3d ab0d babc 4af1 abbc
00000350: 2b59 80bc 6697 e4bc 2c3a 45ba 9f33 0abd
00000360: 6073 47bd cd0c 3bbc 4f28 41bc 4388 353b
00000370: acfe f13b 38bc 8cbc 16cf 9a3c b040 8f3c
00000380: 6ca8 17bc 3cbe e5bb eb2d c6bb 955d e43b
00000390: eccb 53bc 4c7a 6c3c 09ec d43c 2153 cdbc
000003a0: 56a2 003b 91c7 3dbc 0551 e9bb b46e bb3b
000003b0: 6f90 88bc 1c73 913c 0975 06bd 9b3e 8e3b
000003c0: 118d adbc 693f 913c 2397 4e3c f557 82bb
000003d0: 07c6 5abc 4f48 13bd 9e76 0fbd cf96 95bb
000003e0: 1f37 b0bc 25c0 f9bb a82f 36bd 63a8 cabc
000003f0: fc83 2bbc 78eb 903c 9dd7 25bc ff4e eebc
