Assets/Models/Good Models/28feb.onnx (onnx, 351666 bytes, 14 tensors)

106 f4 [70]
00000000: 4053 9e3e a6ee 143e 68b0 be3e 9a0e de3e
00000010: 34f9 fc3e 34aa 9e3e 3e8e 143e e821 bf3e
00000020: 2905 de3e 4202 fd3e f654 143f 5e63 3f3e
00000030: fa1d e43e 1005 d33e cfdf 9b3e b7dc 133e
00000040: 315c c03e 6bf1 df3e 9c66 fc3e 5f48 9c3e
00000050: 3374 133e 49da c03e 6ee4 df3e de6e fc3e
00000060: b473 153f 9db1 363e 9c3e e73e 2459 d63e
00000070: e649 993e 1a87 123e 7b0b c23e 01da e13e
00000080: f2c4 fb3e 5bc3 993e 4819 123e 6c90 c23e
00000090: 37c9 e13e 7acc fb3e 6a9d 163f 2eab 2e3e
000000a0: 1e2e ea3e bc89 da3e 7693 963e 00e9 103e
000000b0: d0c2 c33e aed1 e33e 9716 fb3e 581c 973e
000000c0: 9978 103e 7f4a c43e acbd e33e da1b fb3e
000000d0: 36cf 173f a62d 283e 18e6 ec3e a0a9 df3e
000000e0: 8bcd 933e 5102 0f3e 972c c53e 7d70 e53e
000000f0: fa29 fa3e 8f63 943e 8891 0e3e 08b8 c53e
00000100: ad5b e53e fc2f fa3e 2e1c 193f 7c85 223e
00000110: 34e8 ee3e 1e6b e43e
0.3092289 0.14544162 0.37243962 0.43370515 0.49408877 0.3098923 0.14507386 0.37330556
0.43363312 0.49415785 0.5794214 0.1869025 0.4455412 0.412148 0.3044419 0.14439665
0.37570336 0.43738875 0.49297035 0.30523965 0.14399795 0.37666538 0.43728966 0.49303335
0.58379674 0.17841192 0.45164955 0.41864884 0.29939193 0.1430935 0.37899384 0.44111636
0.49173695 0.30031857 0.14267457 0.3800081 0.44098827 0.4917944 0.58833945 0.17057487
0.4573831 0.42683208 0.2940938 0.14151382 0.38234568 0.4449591 0.49040672 0.29513812
0.14108504 0.38338086 0.44480646 0.49044687 0.59300554 0.16423663 0.46269298 0.436841
0.28867754 0.13965727 0.38510582 0.44812384 0.4886015 0.28982207 0.13922703 0.38616967
0.44796506 0.48864734 0.59808624 0.15871233 0.46661532 0.44612974

action_model._discrete_distribution.branches.0.bias f4 [3]
00000000: f27b c43c a1ff c83d 8494 12be
0.023984883 0.09814382 -0.14314467

action_model._discrete_distribution.branches.0.weight f4 [3, 256]
00000000: e979 3cbd 1eac 843d 0f2d 24bd e66f 91bd
00000010: bbd4 493d 9687 30bd 4dce 06bc 86ef 40bd
00000020: b94a 193d dd90 9d3d 239d 13bc 8b57 003c
00000030: 8a82 303b adc9 08bd e395 c33c 52d9 893a
00000040: 3cd8 98bc faf3 243d f515 883c 304b 0bbd
00000050: 9a21 4e3d 55fc 203d d1de 403d 2ef6 cabc
00000060: eeb0 eb3d 47f1 863b 317a 33bd b68a 0cbc
00000070: 867a 9dbd 0fe7 863d 7b72 4c3c 43e2 bc3b
00000080: 619f abbc 378c 333d cd8b 203c 8f76 aabc
00000090: 3c73 453d 344a 183d ab4a 6fbd 97c7 9fbc
000000a0: aec9 c5bc a95c 873b 446b bb3b 9fa3 51ba
000000b0: 9a9b 413d 7db9 32bc 9b62 483d 5453 04bc
000000c0: 48b2 853b 700e 1bbc 0f06 85ba 5154 79bb
000000d0: d1ab 1b3c 2360 243d 9617 d8bc 5fa2 2ebc
000000e0: b8d5 ae3c effb 9a3a 003a 74bc 1373 203d
000000f0: 849a 9bbd 2b8d 1d3d 6472 303c 0657 bd3d
00000100: 4df2 973b 5544 7fbd 007f 91bd 7f39 643d
00000110: b4ba c1bc 8588 24bd a854 f6bd 08d7 173d
00000120: bb72 163d c597 f63c 8e34 afbc 64b2 c4bc
00000130: c5da 51bc 1705 733d 8039 683c 2b34 6cbd
00000140: aef0 abbc e560 573a 5615 f33c 94e2 66bc
00000150: 88e6 2bbc 0c46 05bd 8c4c e43a 28f9 90bd
00000160: 5a95 4b3d b54c c0bc 22bc 4abc f97f 1b3d
00000170: 89ab 09bc 834b f7bc 1f2a 913b 2912 efbc
00000180: 9398 1dbd 63e3 7dbd 1a74 25bd 3e38 eebc
00000190: b040 763b ccb5 b43c 7ac5 a6bd f981 64bd
000001a0: 9ad6 113c 3fee 03bd 6bc9 633c 72cd bcbb
000001b0: e949 3a3d e3d1 b73c 2404 f63b 10b5 dabc
000001c0: d0b4 77bb 27b9 7dbd a45a 0e3c 8418 c53b
000001d0: f327 e23b e96e bf3c 3a00 29bc 0ccc ad3b
000001e0: ff68 15bd 0f88 3abd 2390 82bc b92e bb3c
000001f0: c948 92bc 56d2 5bbd 994b 183d 27a0 18bd
00000200: ed26 133c d71c 253d 32b4 31bd 0b29 28bd
00000210: c2a6 343d aee1 d4bc 42d5 52bc 9901 8f3b
00000220: ff2a 213d 2f51 a3bc 4224 c13c 21bc df3d
00000230: 22b5 133d 92d9 06bd c9cb 68bd 2cbf 153d
00000240: 18e5 a2bb 23f1 233c 7140 273c 1602 aabc
00000250: 0348 11be df77 85bc 9900 ed3c 0f7a b9bc
00000260: 28e4 443c 7ff8 623d a719 d1bc 083a 94bd
00000270: 7a72 8d3c c60e 2ebd 3079 9b3d f934 81bd
00000280: fefa 64bc 182b 04bd 4d9c 0b3c f46c b9bc
00000290: 3a62 e43d e284 993c 650b c2bc 4593 0c3b
000002a0: 869e 73bd 2c6c dfbb 9ed9 b4ba 2c62 40bd
000002b0: 8cb8 30bc 58e7 d03b 933b b13d b047 54bd
000002c0: 975b f1bc 2790 1dbd 1a4b 173c b9b4 95bc
000002d0: f459 13bd 7f6b 5fbd 602e f7bb d2fd fcbb
000002e0: 227d d2bb 4740 6a3d 5649 543d 309d 933c
000002f0: 197f 92bd 990a 52bd f70f b53c cf65 96bc
00000300: c284 493b c408 803c e962 6f3d 6df5 39bd
00000310: 2050 3abc dd7f c53c 0ea8 c2bb 97bb 1abd
00000320: 2a02 923c 80fa 0e3d 6608 883c 03d7 bdbd
00000330: adc3 57bc eb61 16bd 54b8 6fbc d2ff 3a3d
00000340: 1f2c 653b 53e9 c2bc b572 21bd 2136 71bc
00000350: 756e 2dbd fefd 683c 919b 143d ac57 d6bc
00000360: f16a 4f3a 73ce a73d 5dbb 4bbd 0bf2 a1bd
00000370: c332 ad3c 8947 bc3c 1418 d8bb e436 a23d
00000380: 01b1 0cbd 7335 c8bc 39d1 83bd d6a6 babc
00000390: 1f48 303c 97c3 613d 30cf 15bd e6b0 f13b
000003a0: 6643 113c 578c bc3b ed4f 81bd ca5b e93c
000003b0: 6112 273d 733f 2dbd c684 d7bc 92c4 7e3c
000003c0: d486 f4bb a2cc b4bc 476a 20bd 0302 4e3b
000003d0: f50c 693c 4d30 ac3c 6338 11bb f823 09ba
000003e0: f5e3 a23c 696c 9fbc 340e 863c ddb4 40bd
000003f0: 9895 4b3d 2872 833d 7055 9abc aaee 2fbd
-0.0460147 0.06478141 -0.040082034 -0.07101421 0.04927514 -0.043098055 -0.008227897 -0.047103427
0.037424777 0.07693646 -0.009009632 0.007833372 0.0026933276 -0.033395458 0.023875182 0.0010517037
-0.018657796 0.040271737 0.016612032 -0.03400725 0.050325014 0.039303143 0.047087494 -0.02477559
0.11508356 0.004118118 -0.043817703 -0.008577993 -0.07689385 0.0658704 0.012478466 0.005764277
-0.020950021 0.04383489 0.009798956 -0.020808486 0.0482056 0.03718014 -0.05842082 -0.019504352
-0.02414402 0.004130919 0.005719574 -0.0007997099 0.047267534 -0.010908482 0.048922163 -0.008076508
0.0040800907 -0.009463891 -0.00101489 -0.0038044641 0.009501413 0.040130746 -0.026378434 -0.0106588295
0.021342143 0.001182435 -0.014906406 0.039172243 -0.07597831 0.038464706 0.01076946 0.09245114
0.004637039 -0.062321026 -0.071043015 0.055718895 -0.023648597 -0.040169258 -0.12027866 0.037070304
0.03673051 0.030101666 -0.021387365 -0.024010845 -0.012808506 0.059331026 0.014173865 -0.05766694
-0.020988788 0.00082160375 0.02967326 -0.014092106 -0.010491975 -0.032537505 0.0017417832 -0.07078773
0.04970298 -0.023474077 -0.012373956 0.03796384 -0.008402714 -0.030187374 0.00443007 -0.029183464
-0.038475584 -0.06198443 -0.040393926 -0.029079553 0.0037575178 0.022059344 -0.081431344 -0.055788014
0.008901263 -0.03220963 0.013903002 -0.0057617957 0.045480642 0.022438949 0.007507818 -0.026697665
-0.0037796982 -0.061944153 0.008688603 0.0060148854 0.006901735 0.023368316 -0.010314995 0.0053038653
-0.036477085 -0.04553991 -0.01593787 0.022849428 -0.017856972 -0.05366739 0.03718147 -0.03726211
0.008981449 0.040310707 -0.04338474 -0.041054767 0.044104345 -0.025986519 -0.012868227 0.004364204
0.039347645 -0.019936172 0.02357686 0.109245546 0.036061414 -0.032922335 -0.05683497 0.03655927
-0.0049711578 0.010006222 0.010208235 -0.020752948 -0.14187627 -0.01629251 0.028930949 -0.02264121
0.012017287 0.055412766 -0.025524927 -0.07237631 0.0172665 -0.042494558 0.07591474 -0.06308932
-0.013975857 -0.03226766 0.008521152 -0.02263496 0.11151548 0.018740121 -0.023687074 0.0021450084
-0.05947735 -0.006818315 -0.0013797765 -0.046968624 -0.010786187 0.0063752346 0.08653941 -0.05182618
-0.029462619 -0.038467553 0.009234214 -0.018274652 -0.035974458 -0.054545876 -0.00754337 -0.0077206874
-0.0064236084 0.057190206 0.05182775 0.018019289 -0.07153148 -0.051279638 0.02210234 -0.018359093
0.0030749296 0.01562918 0.058443937 -0.045400072 -0.011371642 0.024108822 -0.005940444 -0.037776556
0.017823298 0.034906864 0.016605567 -0.09269526 -0.013169211 -0.036714476 -0.01463135 0.045654126
0.0034968925 -0.023792898 -0.039416034 -0.014722378 -0.04234167 0.014220713 0.036281172 -0.026164852
0.0007912359 0.08193674 -0.04973923 -0.07907494 0.02114237 0.02298333 -0.006594667 0.07920626
-0.03434849 -0.02443955 -0.064363904 -0.022784632 0.0107593825 0.05511817 -0.036574543 0.0073758243
0.008866167 0.0057540345 -0.06314073 0.028486151 0.040789012 -0.042296838 -0.026308428 0.015549796
-0.007462362 -0.022070233 -0.039163854 0.0031434305 0.014224281 0.021019125 -0.0022158853 -0.0005231495
0.019884089 -0.019460874 0.016364194 -0.047047485 0.04970321 0.06418258 -0.018839568 -0.042952217

action_model._discrete_distribution.branches.1.bias f4 [3]
00000000: 42d7 3ebd 518f debb a425 5a3d
-0.046592005 -0.006791987 0.053258553

action_model._discrete_distribution.branches.1.weight f4 [3, 256]
00000000: ab0b 083d eb3f 82bd 1c07 2fbc 47ed 18bd
00000010: 0dc0 bab8 dc3a ea3b 09f6 39bb 5050 633d
00000020: 496b fbbc 9852 3abd 90eb 813b 4b7a f0ba
00000030: 91a8 cabc c97f 0fbc f1ee 00bc 020d 1d3c
00000040: 6d05 a43c 38e3 173c 9282 093d a6ea b5bb
00000050: 107e 9f3d 1c1c 113c 5155 febb 8fec b73b
00000060: 2f19 e0bc 2963 7cbd b5fd b4bb 2486 053b
00000070: 363c 013e 5802 31bd 5c77 433d 4f2d debc
00000080: 9e8f 85bc 282a 01bd 0f0c fcbc eae8 d73c
00000090: 5509 6ebd fa9d 6ebd 85dc 013d 1512 33bb
000000a0: d662 fe3a 02cf f13c 2d85 4bbd b468 c2bb
000000b0: cd91 283d fb62 93bb e078 b83b 1160 553d
000000c0: 0d7d 2e3d bc37 0c3b 77fb 6a3c 36b5 03bd
000000d0: f2e9 1fbc 5854 603c 50dd 41bd 2ae4 b6bc
000000e0: e66f f13b aa48 d0bb 6020 55bd 624c f23c
000000f0: 52e6 863c 7b13 853c a826 47bb b6f7 1cbe
00000100: c489 3d3d be29 cbbb 4179 4d3c 80f2 42bd
00000110: feb6 31bb 5d0b 2dbc 97ea 883d 97fe 7cbd
00000120: 7833 b83c d4d4 ac39 b27d 41bd b702 76bc
00000130: 6349 803d 4309 eabd e85f ddbc 1aac 1d3d
00000140: 5517 94bc c036 24ba d738 9a3d 2545 e3bb
00000150: 7cfe 3d3a d8f2 a6bc 25cf 18bd d93e c33d
00000160: bbdf dcbc 88f5 b53c 0a2d 3dbd 5545 99bc
00000170: 4aa3 513d 1055 9a3c ce5f 88bc 2b28 cdba
00000180: c5f2 383c 0921 d8bc daac fcbc 73f9 133b
00000190: 60f6 b33c 5db9 063d e99a ccbc 3eba 103d
000001a0: 2a09 263d 6f88 773c 0f5d 6a3d 7db1 edbb
000001b0: 17f4 ccbc 5fa6 35bc ab8f 353d 68a1 0c3a
000001c0: bea5 d83c ae28 033e 33a3 c5bc 416a bebc
000001d0: 824f 483b b0ff a2bb a333 8ebc d2f3 99bb
000001e0: d4d6 80bd e1b8 993c 54c9 e3bc 81ac 853d
000001f0: eb23 f13b 6d46 58bd d326 55bc 987c 013b
00000200: 4854 5ebd fb04 4cbd c2e3 1a3c 9497 c03d
00000210: 9dac 203c d8e7 933d 0cd1 07bd 5420 af3c
00000220: 5b7b 0d3d 876c c73c fcf0 7cbc 24b8 b0bc
00000230: 9586 76bd dc1b 5c3c 2b06 85bc 8721 753d
00000240: b1a4 18bd 6cfa 66bd 7f1a b13a cdbf 8fbc
00000250: ca2c 2dbc d4f3 8c3d beed d83b 4b85 983c
00000260: 1b71 96bd 52f2 9dbc edda d23c b62d 33bb
00000270: 4435 0f3c 1765 84bc 2684 97bd 3493 6d3c
00000280: 47c4 293c 8e6e 5fbd 3ae9 e5b9 de20 39bd
00000290: 4169 1abe c802 1a3c df8f 6abc 4bf3 fcbb
000002a0: 6709 323d 89b9 003c 488e 0a3c e39d c4bc
000002b0: 0333 38bd 95ec 693c 2316 a23d 091c 7f3c
000002c0: d4b6 03bd d326 823c 4f95 14bd 8731 a3bd
000002d0: bcf2 a93d 69b5 cf39 4ff9 db3c 9bd7 a03d
000002e0: deae b53c 6f81 71bb ecfe 003c cad0 353d
000002f0: 3f80 a63d 84bf 12bd fa3e 423c 8520 bc3c
00000300: 8cfb 693c 0916 3f3d 74e2 f2bc e42f c33a
00000310: 1104 70bc b4d0 ddbb 2a34 283c 4748 803d
00000320: 91de 583c 9852 113d edb5 783d 953d d43c
00000330: c666 4abc ef1d 20bc 3d07 c8bc fd19 193d
00000340: 589b 063d 9bc6 65bb 3cda 79bd 7a0c 13bd
00000350: 43bb b5bc fe72 ca3c bbde 003d 070b 023b
00000360: e3e1 0ebd 9a9c 3cbe 04f6 97bc 3a77 9abc
00000370: a5a2 903c 89ea 41bb 1b70 a73d a485 12bc
00000380: 2e9e 38bc ef82 4f3d 9ab3 27bb 454c 88bc
00000390: 7d6a 06bc 06f7 81bd fa7f 97bd e5b7 403d
000003a0: 4218 92bc 75a7 9b3d 8d09 803d d333 4abc
000003b0: 54f1 daba c301 453d c016 7a3c 6977 563c
000003c0: e5a0 6e3c 8d05 593c 87d4 80bd ae55 54bc
000003d0: fa20 fc3c 5b05 f4bd 40d0 d63c b81f 16bb
000003e0: 6b17 d53c 7d59 813d 4db1 463d 77e7 79bd
000003f0: bb0f 9ebd 9454 983c 2437 1dbd 1047 e5bc
0.033214252 -0.06359848 -0.010682847 -0.03733566 -8.9049434e-05 0.00714813 -0.0028375408 0.055496514
-0.030690806 -0.045488924 0.003964849 -0.0018346993 -0.024738582 -0.008758494 -0.007869468 0.009585621
0.020022118 0.009270482 0.033571787 -0.005551654 0.077877164 0.008856799 -0.0077616354 0.005612917
-0.027355758 -0.061618004 -0.0055234083 0.0020374143 0.12620625 -0.043215126 0.04772125 -0.027121214
-0.016303834 -0.031534344 -0.030767469 0.02635618 -0.05811437 -0.058256127 0.031704444 -0.002732401
0.0019408118 0.029517654 -0.049687553 -0.0059328917 0.04115467 -0.0044978834 0.005629644 0.05209357
0.042599726 0.0021395525 0.01434218 -0.032155238 -0.009760367 0.013691984 -0.0473302 -0.022325594
0.0073680757 -0.0063563185 -0.05203283 0.029577438 0.016467247 0.01624464 -0.003038803 -0.15328869
0.04627396 -0.0062000444 0.012541116 -0.047594547 -0.0027117128 -0.010561791 0.066853695 -0.061766233
0.02248548 0.00032964966 -0.047239013 -0.015015296 0.062639974 -0.11427548 -0.02702327 0.038494207
-0.018077532 -0.0006264262 0.075303726 -0.006935733 0.0007247699 -0.020379469 -0.037306923 0.095334716
-0.026962152 0.022211805 -0.04618553 -0.018709818 0.051181115 0.01883939 -0.016647246 -0.001565223
0.0112883495 -0.02638294 -0.03084414 0.0022579103 0.021968067 0.03289162 -0.02497621 0.035333864
0.040536083 0.015108212 0.057217654 -0.0072538243 -0.025018735 -0.011087029 0.044326466 0.00053646276
0.02644622 0.12808487 -0.024125671 -0.023244025 0.0030564968 -0.004974328 -0.017358607 -0.004698255
-0.06290975 0.018764915 -0.027805962 0.06527043 0.007359018 -0.05280154 -0.013009745 0.0019758102
-0.054279596 -0.049809437 0.009453716 0.09403911 0.009806779 0.07221955 -0.033158347 0.02137772
0.03454147 0.024343742 -0.0154383145 -0.02157218 -0.06018694 0.013434377 -0.016238293 0.059846427
-0.037266437 -0.056391165 0.0013511925 -0.017547512 -0.010569761 0.06882444 0.006620138 0.018618247
-0.07345792 -0.019280586 0.025739158 -0.0027340478 0.008740727 -0.016161485 -0.07398252 0.014500428
0.010361738 -0.054548793 -0.0004385205 -0.04519736 -0.15079214 0.009400077 -0.014316528 -0.0077194325
0.043465998 0.007856735 0.008456774 -0.024001068 -0.044970524 0.014277597 0.079143785 0.015570649
-0.03215678 0.015887653 -0.036275204 -0.07968431 0.08298251 0.00039617278 0.026852278 0.078536235
0.02217811 -0.003685083 0.007873278 0.04438857 0.0812993 -0.035827175 0.011855835 0.022964725
0.014281165 0.046651874 -0.029648997 0.0014891592 -0.014649407 -0.006769264 0.010266343 0.06263786
0.013236658 0.03547916 0.060720373 0.02590827 -0.012353605 -0.009772762 -0.024417514 0.0373783
0.03286299 -0.0035061005 -0.06099914 -0.03590057 -0.02218402 0.024713036 0.031462412 0.0019842999
-0.03488339 -0.18419114 -0.018549927 -0.01885568 0.01765568 -0.0029589257 0.08175679 -0.008942995
-0.011268182 0.050661977 -0.0025589229 -0.01663793 -0.0082041 -0.06345944 -0.073974565 0.047050375
-0.017833833 0.07600299 0.06251822 -0.012341457 -0.0016704001 0.048097383 0.015264213 0.013089993
0.014564727 0.013245952 -0.062905364 -0.012959881 0.030777443 -0.11915084 0.026222348 -0.002290709
0.026012143 0.06315897 0.04850893 -0.061011758 -0.07717844 0.018595017 -0.038382664 -0.027987987

action_model._discrete_distribution.branches.2.bias f4 [2]
00000000: 4162 e63c 4f62 e6bc
0.028123023 -0.028123049

action_model._discrete_distribution.branches.2.weight f4 [2, 256]
00000000: 3a5a 093e 33fc eb3a 7fb2 b6bd c01b 793b
00000010: 4b83 203d 1b04 e03b 5c15 55bc 63da cb3c
00000020: a199 efbc 8715 64bd ae35 a53c 6196 253c
00000030: be28 19bd 3e12 3c3d a1e8 52bd fcaa 81bb
00000040: b4fb ec3c a10a 83bc 5d85 b53b da78 fbbd
00000050: d563 1c3c a829 193d 13db ab3b 8282 0e3e
00000060: 0ad6 133d dd3d 91bc 93c0 053c e9d1 30bd
00000070: 7cfb 953c fdb0 d63d aea1 12bd b73a 893d
00000080: b8c0 663b 97df 98bd 8fae 51bd fbf6 253e
00000090: ae07 0a3d acda 7dbc 16fa a7bd 6b58 4dbd
000000a0: 05f5 4d3d 079d 233e 3042 f4b9 9e13 bd3b
000000b0: 165f 56bd abcb 6f3d 7ad7 9a3b 2311 8f3d
000000c0: 1e73 143d 9dea 323d b952 d03d c555 3abc
000000d0: c5f5 8bbd 2ac7 02bc 21ff a4bd 1594 d2bd
000000e0: fcb6 0cbd 3e1d a03d 9eee 72bc 3c5e afbd
000000f0: 35e5 1abc 17cc e53c a8c9 8c3c bbc4 4dbd
00000100: 3a7d 53bd 08c8 e4ba 87c8 bf3c c010 d3bb
00000110: f294 953b e413 d3bc f45b 923d 54cf f8bc
00000120: b371 fa3d a027 923c 2b54 dc3c d7cf 023d
00000130: 5ef1 fa3b ab11 153d c644 04bd 488f 0dbd
00000140: fc44 4a3d 1316 b93a 1082 89bb 9069 293d
00000150: 10cc 8a3c 2465 e2bc d93d 12bd d556 7b3d
00000160: baa8 36bd 18db 8e3d ec66 413c 73c9 0d3d
00000170: 8e47 2dbd 3dad 26be 6c1a 263d 1621 183d
00000180: b458 df3b 39c7 bfbc 3cb2 893c 0cc4 ba3c
00000190: 3bfb 6f3c 95c0 683d f8e5 263c 5461 f73c
000001a0: d66f 2b3c 7770 dcbc 345d 163d 7f1e 5cbd
000001b0: ca6f 993d 8f5b d13b f15a cf3c 4dd2 743c
000001c0: bfc1 463c 366d a6bd 6b88 023d febe ae3d
000001d0: ad2a 62bc 09f0 97bc 4992 5b3c a673 083b
000001e0: 981f af3c 2e59 c13d e510 5bbd 5746 c4bd
000001f0: 5657 80bd a5d0 8f3d 01ce 8cbb 9f7d d5bc
00000200: a3e9 46bc 97c1 be3b 79ba ebb9 2de8 3c3d
00000210: be0c 8f3c 40f0 53bd 03b9 b8bb 9dc6 963c
00000220: 5419 363d fb1e aebd 907d 0fbd d5e2 5fbc
00000230: 9ae8 afbc 9e6d 96bc eac7 cb3c 7ca8 22bc
00000240: 1e4c 14bd 097f 30bc 558b 8e3d 6f3a a93c
00000250: 04d9 32bd 078f ae3c 05fd 363a 932b 143d
00000260: be87 c0bd 9df9 2f3d dedf 4f3d e66c 0dbd
00000270: 450e a83d 88b5 46bd 613c b53d a8db 9d3c
00000280: 8de8 b73d 415c 0ebd 34a8 d03b 93bd 06bd
00000290: bf80 893d 6d3e bd3d bf47 54bd 6fe0 11bd
000002a0: fc34 a93d 0ed2 273d 232d 123c 9b6b a83c
000002b0: 3a95 373a d737 30bd f8a5 c93b 408f 4b3d
000002c0: 0d41 4fba 67a3 81bd 78b0 a8bd 4f10 04bd
000002d0: cd72 363c f8bb 783d 8169 683d e8b6 eeb9
000002e0: 5bc7 b43c 3415 8dbb ec40 0a3d 9465 a93c
000002f0: 7284 263d 40e1 b1bd 935d 113d 1ef3 a4bd
00000300: b1cc 2cbb 4e31 ef3c 39f0 b7bd 46d7 b13b
00000310: 80d1 76bd b18b 9d3d bb4f 0bbc e9fd 9dbd
00000320: 55b1 313c cfd5 893c 77c4 fc3c 6f7f bfb9
00000330: fc4b 8a3c 2358 5b3d 77ea a6bb 98c8 b2bc
00000340: 1207 19bd 5fc3 3cbd 2d52 9cbb e6a0 7ebc
00000350: e99f 25bd 489c a8bd 52a7 f5bc 456b 543d
00000360: dff0 043c 2dec 3ebd 00fe 673d 57d7 543a
00000370: 5dda f33d 68b9 073d 1855 eebc 563a 4ebc
00000380: 6da2 e4bc 50a2 02bd d4cd b0bc 9e08 6bbd
00000390: 9eb5 663c 0b11 233e ff2e cd3d 710f f33c
000003a0: f2a4 8dbc 5c85 143d ac7a b23d b5d2 9dbc
000003b0: e796 043b cb3d 013e 529d 38bd a902 643c
000003c0: 257b 083d 2210 54bc 0ffb 053b ca2a d8bc
000003d0: e217 65bd 3dbc 013d 7ed2 0cbd a005 363d
000003e0: 1498 313d 8a99 98bc f0dd ec3b c7c5 503c
000003f0: 57a3 71bd c92e 75bd e6f0 9bbb 1395 1c3d
0.13413325 0.0018004238 -0.08920764 0.0038010925 0.03918771 0.006836427 -0.013005581 0.024884408
-0.02924806 -0.055684593 0.020167198 0.010106654 -0.03739237 0.045915835 -0.051491383 -0.0039571505
0.028928615 -0.01599628 0.00553958 -0.1227891 0.009545286 0.037393242 0.0052446215 0.13916972
0.036092795 -0.017729694 0.008163589 -0.043168936 0.018308394 0.104829766 -0.03579872 0.06700652
0.0035210084 -0.074645214 -0.051191863 0.16207497 0.03369873 -0.01549403 -0.08201997 -0.05013315
0.050282497 0.1597787 -0.0004658862 0.005770161 -0.052336775 0.058543842 0.004725394 0.069856904
0.036242597 0.043680776 0.10172028 -0.011372988 -0.06833986 -0.007982055 -0.080564745 -0.10282151
-0.034354195 0.078180775 -0.014827399 -0.08562896 -0.009454061 0.02805142 0.017186001 -0.050236445
-0.051633097 -0.0017454633 0.023411049 -0.0064412057 0.004564875 -0.02576632 0.07146445 -0.0303723
0.12228718 0.01784116 0.026895603 0.031936493 0.0076581677 0.036393803 -0.03229215 -0.03456047
0.049382195 0.0014120959 -0.004196413 0.041360438 0.016943008 -0.027636118 -0.035703514 0.061362106
-0.044594504 0.069753826 0.011804324 0.034615945 -0.042304568 -0.16277023 0.04055254 0.03714093
0.006815994 -0.023410426 0.016808622 0.02279856 0.0146473 0.056824286 0.010186665 0.030197777
0.0104636755 -0.026909096 0.03670998 -0.05374002 0.07492025 0.0063890885 0.025311919 0.014942718
0.012131154 -0.08126299 0.03186838 0.085325226 -0.01380412 -0.018547075 0.013401576 0.0020820885
0.02137737 0.09440838 -0.05348291 -0.09583729 -0.06266658 0.07022218 -0.0042970185 -0.026060877
-0.012140664 0.0058214176 -0.00044961626 0.046119858 0.01746213 -0.051742792 -0.0056372895 0.018405253
0.04445775 -0.08502003 -0.035031855 -0.013664921 -0.021473218 -0.018362816 0.0248756 -0.009927865
-0.036205404 -0.010772475 0.06960169 0.020657746 -0.043663993 0.021308435 0.0006980452 0.036174368
-0.09400891 0.04296266 0.050750606 -0.03452768 0.08205847 -0.048512965 0.08849407 0.01926978
0.089799024 -0.03475595 0.0063677076 -0.032895636 0.067140095 0.092404224 -0.051826235 -0.035614427
0.08262059 0.040971808 0.008921894 0.020559123 0.00070031325 -0.043022003 0.006153818 0.04969716
-0.00079061167 -0.06329995 -0.08236784 -0.032242116 0.011135769 0.060726136 0.05674124 -0.00045531173
0.022067716 -0.004305506 0.03375332 0.020678319 0.040653653 -0.08685541 0.03548963 -0.080541834
-0.0026367123 0.029198315 -0.08981366 0.005427274 -0.06025839 0.0769266 -0.008502896 -0.07714445
0.010845502 0.016825585 0.0308554 -0.00036525304 0.016881935 0.05355085 -0.0050938684 -0.021824166
-0.03736026 -0.046084758 -0.0047705383 -0.015541291 -0.040435705 -0.08232933 -0.029987011 0.051860113
0.008114069 -0.046611954 0.056638718 0.00081192463 0.11906884 0.0331358 -0.02909331 -0.012587151
-0.027909482 -0.031893075 -0.021582521 -0.057381265 0.014081387 0.1592447 0.100187294 0.029670449
-0.017290566 0.036259994 0.08714804 -0.019265512 0.0020231546 0.12621228 -0.045071907 0.01391665
0.033320565 -0.0129432995 0.0020443832 -0.02638759 -0.05593098 0.03167366 -0.03438043 0.04443896
0.043357924 -0.0186279 0.0072286054 0.012742466 -0.058993664 -0.05985907 -0.004758942 0.038228106

action_model._discrete_distribution.branches.3.bias f4 [2]
00000000: b524 66bd c924 663d
-0.05618735 0.056187425

action_model._discrete_distribution.branches.3.weight f4 [2, 256]
00000000: 7e15 c93c 3efd 043d 13f9 653d 8b20 a23c
00000010: 0860 0cbe b8e3 b2bd 3a7e 4a3d 95b8 3f3d
00000020: 0210 3dbc 2067 b53c 6972 53bd 3136 51bd
00000030: 4d90 86bd ee1f 1fbd fe50 e6bc 309c 66bd
00000040: 864e 1a3d c7c0 3dbd 2079 a0bd e78b db3c
00000050: 34a4 113c b4ae 833d 4a4d 97bc 8e61 e1bc
00000060: ec7f b23c 8e5d 00bd 8c7f 973d 921c 973c
00000070: 1fd9 2c3c 7642 abbb fe36 cc3d 1ba7 60bd
00000080: e8d8 0dbd 1a69 193d f29f af3b e0ab aa3c
00000090: 5a52 453d 237c 19be 47b0 7ebb ef37 c73c
000000a0: 76f7 1bbb ead1 3dbd f0cd 9ebb baf1 90be
000000b0: 4744 cfbd 7a37 82bc b242 17bd 0d1c 493e
000000c0: 16a8 6a3b 443a bd3d 161c 93bd aa36 b6bd
000000d0: 656f 3fbc 4d59 29bd 5c2f 0abd 7673 1b3d
000000e0: 6b56 6d3d 82ca 303e 80c8 463b a0e2 1d3d
000000f0: 6bed 10bd 4ce8 b6bd d602 363d 131b a9bc
00000100: 9c48 353d 60d6 72bc 4710 d0bc e3fe 8abd
00000110: b7a7 e2bc 9aad 04bd 127a df3d 7b25 8d3c
00000120: 93e0 7cbc f280 573c e531 073e 25bf ad3d
00000130: f060 a93d 3ec0 a1bd cbeb 06bd 690f 2f3c
00000140: 5db7 0d3e 6986 e03d 5c2d b5bc 1545 a6bc
00000150: db4d 97bd e4ed 9b3d 5367 46bd ebf9 303b
00000160: 52f2 4c3d db6c 87bc ed52 a0bd 2870 483d
00000170: 2640 37bc 66e8 89bc bd71 91bd 5f33 84bd
00000180: 96f5 873d a2d2 003e d861 94bd 11d7 503d
00000190: c74d c0bd 0e74 bf3d adf0 26bc 7c4c 47bd
000001a0: c02b 453b 899d 7abd fc55 ef3d 7673 123d
000001b0: 90ef 1cbe eff5 80be 8bcc 40bd d44f a3bd
000001c0: 6df0 60bc 8116 853d ee5b 073d 0035 8d3d
000001d0: 0526 84bc a89b 71bd a031 c6bd 75c0 aabc
000001e0: 46c1 afbb aca9 4abc cf6b 0fba 2c97 143d
000001f0: 6ca3 753d ad93 5e3d 7977 ae3d 4e35 113b
00000200: af1c cfbc 9268 ee3c c390 80bc 36ce 953c
00000210: 6cd9 4b3c a871 ab3c 8906 a7bc ee79 debb
00000220: 95b4 c6ba 9bf3 0dbd 1ff4 cb3b 1223 c2bb
00000230: c370 48bc 52b3 66bc baec 92bc da6d dd3c
00000240: f3c5 883d 5862 bcba 144b 4c3d ce02 ae3d
00000250: a53d 943d e855 d63d 6f62 3f3d c137 e13a
00000260: 9148 1ebc 943e 823b 7bb2 fcbb b4eb 183e
00000270: a65f 18bd c6eb 323d b71e 453d 3644 1a3e
00000280: 5706 a9bd 5098 333d 9785 a63c dba2 cbbc
00000290: 1d08 debb ffd2 22be 0ee6 a0bb 3684 1c3d
000002a0: 8d33 363d fed5 4139 72df 47bd 6d10 e73d
000002b0: 7bb8 52bd bcf7 493d e4d0 3f3d 2ada 173e
000002c0: fc0d d83c 4a90 84bc 0667 903d 50b8 fcbc
000002d0: d8c6 53bc 72de e53a b419 78bd 9a7e 60bd
000002e0: ea37 32be 0aab 3fbb 7897 ad3d 7739 21bd
000002f0: 0754 cc3d 4dcd 4ebd 7965 9fbd ba38 973c
00000300: 29cb 31bd dd53 4ebd 449c 73bd 8573 e93d
00000310: da2d d33c 5df9 24bd 496d cebd 3d49 143d
00000320: 5d75 9f3c 8017 d03a b6b1 c73b a6fd 0f3e
00000330: 0cef 46bc d434 7a3d 924f b8bd b245 083c
00000340: ae65 21bd 0565 113d 336a 01bd 12ae 82bd
00000350: 2b3e 5c3c 8114 7e3c d44c 5ebd 0fd3 ff3c
00000360: ce91 65bd c0b3 c93a b80b 833c 73ee a83d
00000370: fb1d 14bc a3bc cab9 522b 2abd 5aea 4cbd
00000380: 7c3e c2bc 8205 4f3c 476c 1539 353a e0bc
00000390: ba0f 27be 5ef0 2cbd 9a64 51bd c4f8 82bd
000003a0: 754e 933d b0ed 713d 51a9 92bc 28e7 893d
000003b0: 4859 453b 899d 6b3c f16d 073b 3bca 9abc
000003c0: 37d8 b33b 2430 cabb 1904 483b 776f 07bd
000003d0: bdea 49bc fcd1 393d d878 823c 1015 953d
000003e0: f215 803d e75a 1bbd 5bc5 eebb da12 033c
000003f0: d24f a53c 16a2 c9bd 3253 633d 80ef 633d
0.024546381 0.032468073 0.05614574 0.019790908 -0.13708508 -0.0873484 0.049436785 0.04680689
-0.011539461 0.0221439 -0.051622782 -0.05107707 -0.06570492 -0.03884881 -0.028114792 -0.056301296
0.037672542 -0.046326425 -0.07835603 0.02680011 0.008889247 0.06429806 -0.018469471 -0.027512338
0.021789514 -0.03133922 0.073973745 0.01844624 0.010549813 -0.0052264286 0.099714264 -0.054846864
-0.034630686 0.03745375 0.005359643 0.02083391 0.04817424 -0.1498876 -0.0038862394 0.024318663
-0.0023798621 -0.046342768 -0.004846327 -0.28309423 -0.10120445 -0.015895594 -0.03692884 0.19639607
0.0035805753 0.09239629 -0.07183091 -0.08897145 -0.011684273 -0.04134493 -0.03373657 0.03795191
0.057943743 0.1726475 0.003033191 0.038546205 -0.03538267 -0.08931026 0.0444363 -0.020642793
0.0442587 -0.014821619 -0.025398387 -0.06786897 -0.027667863 -0.03239212 0.10911955 0.017229786
-0.015434402 0.013153302 0.13202627 0.084837236 0.082704425 -0.078979954 -0.032939713 0.010684826
0.13839479 0.10963137 -0.022116356 -0.020296613 -0.073878966 0.076137334 -0.04843838 0.0027004431
0.050035782 -0.016531399 -0.07828317 0.048935086 -0.011184728 -0.016834449 -0.07101772 -0.06455111
0.06638639 0.1258035 -0.07245225 0.050986353 -0.09389835 0.093483075 -0.0101892175 -0.048656926
0.0030085891 -0.061185393 0.11686322 0.035754643 -0.15325761 -0.25187632 -0.047070067 -0.079742104
-0.013729197 0.06498433 0.033046655 0.068948746 -0.01613141 -0.058986336 -0.09677434 -0.020843724
-0.005363616 -0.0123695545 -0.0005471082 0.03627698 0.059970304 0.054340053 0.08518881 0.0022157016
-0.025282232 0.029102597 -0.015694028 0.018286806 0.012441974 0.020928219 -0.020388858 -0.0067894375
-0.0015160019 -0.03465615 0.00622417 -0.005924591 -0.012233916 -0.014080839 -0.017935146 0.02702992
0.06678381 -0.001437257 0.049876288 0.08496629 0.0723832 0.10465604 0.046724733 0.0017182754
-0.009660856 0.003974745 -0.007711706 0.14933664 -0.037200592 0.043681882 0.048124995 0.15065083
-0.08253162 0.04384643 0.020327372 -0.024857929 -0.0067758695 -0.15900801 -0.004910237 0.038212024
0.044482756 0.00018485633 -0.04879708 0.1128243 -0.051445466 0.049308524 0.046830073 0.14829317
0.026373856 -0.016182084 0.070509 -0.030849606 -0.012925826 0.0017537607 -0.060571387 -0.054808237
-0.17404142 -0.0029246234 0.08476156 -0.039361443 0.099769644 -0.05048876 -0.07783026 0.018459667
-0.04340664 -0.050372947 -0.0594752 0.11398987 0.0257787 -0.040276874 -0.10079438 0.036202658
0.019465143 0.0015876144 0.006094183 0.14061603 -0.012141954 0.061085537 -0.08999552 0.008317398
-0.03940361 0.03549673 -0.03159542 -0.063808575 0.013442556 0.015507818 -0.054272488 0.03122857
-0.056047253 0.0015388653 0.015996799 0.082486056 -0.009040351 -0.00038668988 -0.04154522 -0.050028183
-0.023711435 0.0126355905 0.00014250084 -0.027371505 -0.16314593 -0.04222142 -0.05112133 -0.063951045
0.07192699 0.059064567 -0.017903002 0.06733543 0.003011303 0.014380821 0.0020664895 -0.01889526
0.0054884213 -0.0061702896 0.003052002 -0.033065286 -0.012324032 0.045366272 0.015926763 0.07279408
0.06254186 -0.037928488 -0.00728671 0.0080001 0.020179663 -0.098453686 0.055499263 0.055648327

network_body.linear_encoder.seq_layers.0.bias f4 [256]
00000000: c5f5 603d b950 513d 496f 183d cd56 da3d
00000010: fe47 9cbc d3b6 ad3d c7fd 113d 8861 bd3d
00000020: 0ab1 6fbd f060 563d 8ef2 8cbc 7db1 01bd
00000030: c39c 63bc 5789 2dbd 3d93 f63d b698 d0bd
00000040: 66e3 e43d 1679 8c3c ac1b 0ebd 9d4c 1f3d
00000050: de65 b5bd d234 163e 5925 023d 379b 4b3d
00000060: 08f1 1d3d 59a5 be3d 6e9f 363d 9b73 4f3e
00000070: a06f 103d a829 94bd 7f64 443e a947 40bd
00000080: cd93 083e d814 3dbc 37b3 dcbb 3c54 7e3d
00000090: 1f75 3b3e a27b 8b3d 904b 043e 0606 21bd
000000a0: b0da 19bd c4ac e9bd 25c3 733d 0c99 f8bc
000000b0: 5a37 803d 5ce9 fc3d 1cbb 193e d18c 113d
000000c0: 503b aabd 421a c13d db2c 86bd ea68 6f3d
000000d0: 6edd febc c8bd d5bd 88b3 debd 127d f3bc
000000e0: db4e 3bbd 4a6a ee3d a62c dabc 6030 f5bc
000000f0: a2e2 2b3d 29bc 693c 8d0e 1c3d 651c 4f3d
00000100: c282 623d 135f 5d3c 9fc5 233b cfab e93d
00000110: 88fa 48bd 7286 c3bc 6c62 d93d 6bfa c83d
00000120: 0fdc 95bd bbcd 933d 8dcb cb3c 1fd1 543d
00000130: aebf fc3c 2881 39bd a737 223d ec31 f13d
00000140: 0dc9 a3bb f5c6 403d acbb c0bc 07ac 12bd
00000150: 3db5 7f3c f422 5fbd cbc0 033e 80ea d53d
00000160: 650d 9b3d d255 29bd 9990 df3d ee2a 453d
00000170: 6e25 c13b 3086 bc3b 9ef4 31bd 0331 0e3e
00000180: cc39 293e b62d d73d eda3 873d 34b8 01be
00000190: 519f 293e ea01 d13d d710 9c3d 75ae 93bd
000001a0: 21fb 0f3d db04 63bd 55fb bdbc a464 a33d
000001b0: c176 98bd 9f18 e23c bd2d 17bd 80ac e5bc
000001c0: 4857 533d a720 393d e43b 29bc 07ef 073c
000001d0: 9883 c2bd e8b3 b43d b1c6 b43d f109 84bd
000001e0: 1462 74bd 0491 2bbd 9bf5 933d 39d2 2dbc
000001f0: 47d7 0b3e dd7b 9b3d 4678 c83d edcb 633c
00000200: 68e7 853d e31d 2a3e 3d33 99bc ffdd 99bc
00000210: 04f2 cd3d 1117 7dbc 38da a43d d938 4dbd
00000220: 51a8 53bd c85d ca3c d1cc d03c 68ee be3d
00000230: da97 83bd 1da7 b4bc dd55 8ebc 9255 ec3c
00000240: 36da aabd cd5e 243d b66e 983d d0e0 af3c
00000250: 35e0 e63c a0a8 213e 1c9b ce3d cfa1 f03d
00000260: c59f 073e 5877 933d 69f9 5f3d 1fcc e7bd
00000270: df80 943d 3040 56bd f7fd 823d ff3c 333d
00000280: 773c 253c ead7 3f3d 577f 903d 30df a2bc
00000290: 28bd 8fbd cc8f 433d 1ee9 ea3c 711d af3c
000002a0: 697c 203e 2574 123d 6d22 40bc 4405 f93d
000002b0: 9204 44bd 54d6 393e d62e 853d d494 b03d
000002c0: 16e6 fb3d c67e 36bc a90e ce3d 8aee 223e
000002d0: 08fc d43c bc40 933d b671 bd3c 4798 89bd
000002e0: 2758 87bc de84 e53d 9721 ad3d b84a 193d
000002f0: cafc fa3c 5186 9d3d 8bc3 5bbd 1956 3c3c
00000300: b5ae f7bc 7062 2e3d 53c2 cd3d 85fc f5bd
00000310: 5079 863d 3c3a a63d 71fe d43d a998 3abc
00000320: 0a8c 8ebd 263e b1bc ed13 6d3d 2676 023e
00000330: 5e1b a43d 6b7c 65bd e2f5 44bd 20fb 3bbd
00000340: 8fae 03be 2b30 973d da8a 15bc b47f cabc
00000350: 050a 6a3d 9eca 073e ce38 fcbc 47f0 cb3d
00000360: 1ca8 7ebc ec00 c13d 14c2 2abc b3cc 363d
00000370: 4e15 b8bc b175 d93b c304 3d3d 11ad 66bd
00000380: b41a b33d 1ffc 133d 485e 683d ec80 b1bd
00000390: e01b 563d 58b8 f93d b0d5 213d 1a27 8f3d
000003a0: dacc 293d f1d6 b43c 4289 a53d 63cd 2b3d
000003b0: 0730 f63d 518e 1a3d 8b3c c23d 2f53 593d
000003c0: af3a ac3d 9189 ebbd 4e35 99bd cf1c d23d
000003d0: 829d de3c cdc4 b13c 1cc0 1d3e 08cb 9c3d
000003e0: 5554 1c3e f663 a33d 366f 583d 647b 42bd
000003f0: 3346 ad3a 3867 b03c de46 87bd 7ba8 363d
0.054921884 0.051102374 0.037215505 0.10661087 -0.019077297 0.084821366 0.03564241 0.09247118
-0.058518447 0.05233854 -0.017205503 -0.031663407 -0.013892355 -0.042367306 0.12039802 -0.10185377
0.11176185 0.017147582 -0.03469436 0.038891423 -0.0885732 0.14668587 0.0317739 0.04970857
0.038559943 0.09308881 0.044585638 0.20258944 0.035262704 -0.07234508 0.19178961 -0.04694334
0.13337632 -0.011540614 -0.0067352313 0.06209205 0.18306397 0.068106905 0.1291945 -0.039312385
-0.037562072 -0.114099056 0.059512276 -0.030346416 0.062605575 0.12349197 0.15012783 0.035534684
-0.08312094 0.094288364 -0.06551524 0.058449663 -0.031111445 -0.104365885 -0.108740866 -0.029722724
-0.0457295 0.11641367 -0.026632618 -0.029930294 0.04196418 0.014266052 0.038099814 0.05056419
0.05530048 0.013511437 0.0024989618 0.11409723 -0.04906705 -0.02386782 0.106144756 0.098133884
-0.073173635 0.07216974 0.024877334 0.051957246 0.030853119 -0.04528919 0.039603855 0.117771
-0.0049983324 0.04706474 -0.023526989 -0.03580859 0.015607175 -0.054476693 0.12866513 0.10445118
0.07570914 -0.04134161 0.10916252 0.048136644 0.0058943545 0.005753301 -0.043446176 0.13885884
0.16525954 0.105067655 0.06623063 -0.12667924 0.1656468 0.10205443 0.076203994 -0.072110094
0.035151605 -0.055424552 -0.023191134 0.0797818 -0.074445255 0.02759963 -0.036908854 -0.028036356
0.05159691 0.045197155 -0.01032922 0.008296735 -0.09497756 0.08823377 0.0882696 -0.06447209
-0.059663847 -0.041886345 0.0722458 -0.010609203 0.1365634 0.075919844 0.09788565 0.0139036
0.06538278 0.16612963 -0.01870119 -0.018782614 0.100559264 -0.015447394 0.080494344 -0.050103042
-0.05167419 0.024702922 0.02548829 0.09322816 -0.06425448 -0.022052342 -0.017374927 0.028849397
-0.08342402 0.04012947 0.074429914 0.021469504 0.028183082 0.15786982 0.100881785 0.117496125
0.13244541 0.072004974 0.054681215 -0.1131823 0.07251143 -0.052307308 0.06396096 0.043759342
0.010085217 0.04683677 0.07055538 -0.019881815 -0.070185006 0.047744557 0.028675612 0.021376343
0.15672459 0.035755295 -0.011726958 0.121592075 -0.04785592 0.18148166 0.06503074 0.08622137
0.12299745 -0.011138624 0.1006139 0.15911308 0.025999084 0.071900815 0.02312551 -0.06718498
-0.016521527 0.11206983 0.084536724 0.037424773 0.030638117 0.076916344 -0.05365328 0.011495137
-0.030234674 0.042574346 0.1004683 -0.12011055 0.06566107 0.08116576 0.10400093 -0.011388936
-0.06960304 -0.02163608 0.05788033 0.12740383 0.080130324 -0.056026857 -0.048086055 -0.04589379
-0.12859558 0.07382234 -0.009127343 -0.024719097 0.05713846 0.13260886 -0.030788805 0.09957939
-0.01554301 0.09424004 -0.010422248 0.04462881 -0.022471096 0.0066363444 0.04614712 -0.056317393
0.087453276 0.036129113 0.05673054 -0.08667168 0.052272677 0.12193364 0.03951043 0.0698988
0.041455127 0.022075148 0.080828205 0.04194392 0.12020879 0.03773338 0.09484204 0.053057846
0.084096305 -0.11500848 -0.0748087 0.10259401 0.027174715 0.021700287 0.15405315 0.07655913
0.15266545 0.079780504 0.052840434 -0.047480956 0.0013219774 0.021533594 -0.06605314 0.04459427

network_body.linear_encoder.seq_layers.0.weight f4 [256, 70]
00000000: 09f1 f3bc e2a6 21be 1d14 a63c 51c2 0ebe
00000010: e71d 92bc cdae 223e 4b4c 5c3e 631c 193e
00000020: c405 8fbd 09d5 82bc bd52 1ebe ce4f 1dbd
00000030: 92b3 eebd 4020 86be bf1f 9d3d 4283 233d
00000040: 9af5 65bc 97ce 0b3e 14f0 1ebe 70c2 883c
00000050: 22e0 a8be b74f 35be deb3 083e ac3f 223e
00000060: 1024 543d b110 b1bd 4a2a 993d 4712 f93d
00000070: a6f8 78bc 86ac 78bd 6235 95bd a3b0 253e
00000080: 97ed c4bd 5e6e f13d 543b cbbd 8b9d 883d
00000090: ef26 33bd d5d0 a83d d972 3a3e d969 6b3e
000000a0: f67b 623e ece5 143e f04a b93d 4470 acbd
000000b0: a485 fdbd 5f76 07bc 22d8 91bd 9b3d af3d
000000c0: f4cd 643e 1d51 21bb cb84 1dbe e2e0 dcbd
000000d0: faa0 14be f823 41be 174f d23d dfce c13d
000000e0: c443 e43d 6d15 22be f1b3 2fbe c92d f43d
000000f0: 4a14 79be d357 953d d99a 14bd 7479 d93c
00000100: 051f 11be cfbc b8bc fd8b 9e3d ef8b 233d
00000110: 9e99 7e3d c57e bf3d ce5a 04bd c37a e03d
00000120: b51f 773d c779 50bd 7205 c5bd 9985 35bd
00000130: dea2 2d3d eb54 17be 6810 e5bd 5a7d eb3c
00000140: 6df2 59be db02 55be 6cee 603e ef6f a0be
00000150: b321 d9bd eeea 22bd 32c8 0a3c 8c45 dcbd
00000160: 6994 9c3e 1f2e 1e3d fdff 633e 3ee3 033e
00000170: 6151 0cbe e103 593e af2b d23d 32d2 48be
00000180: 2534 a03e 3070 253d b48a a23d f6c9 04bd
00000190: 2cac 74be 71c4 3a3e 3938 6fbe a399 f83d
000001a0: 1e70 aebc 43bd 92bd bdaf 223d a0fd 923d
000001b0: 9e92 03be cfb1 ba3d b4ac 21be 5116 d13d
000001c0: 4a3e 1b3c 7f4e 2d3d ec02 18be 166d 1a3d
000001d0: 4bdb 843d f17d 26bd bd35 07be 1412 203e
000001e0: 7ffb 2abd 35e3 793c 85a7 d63c 9bd6 1f3e
000001f0: 9c0f e7bd 8137 dc3c 7aed 2e3d 319e f03d
00000200: cb99 c03d 92b1 f53d 3fb4 373c e4cc 9abd
00000210: 3dd6 c6bc 7b90 ffbb 799b 883d e276 a3bc
00000220: 840d 82bd 174d a03d 1bd6 90be c0a3 de3c
00000230: c6ad 243e 6410 05be 3fde 53bc e6f8 393e
00000240: ad24 c4bd 5502 5f3d efd7 57be 9f56 2d3d
00000250: ba95 66be 9c46 b9bd 440c e43c 17d2 92bd
00000260: 26d4 133e e32d a4be a41f 20be 3572 8b3e
00000270: b072 5dbd 4726 263d 4a8d 043e c1b9 003e
00000280: a4e7 9cbe 2d45 ae3c ee75 973d 3762 59be
00000290: 7eda 27be c78f d4bb 7136 453d 51c9 3cbb
000002a0: 81e4 73be 059c 90be 946d 98bd efcd f83d
000002b0: 76cd 01bd 4136 79be 464f 44be 8e62 4c3e
000002c0: 99e6 033e 7d3e 1abe 2a76 2bbe 02ec 1d3e
000002d0: 4ebc 87bd 368f 5cbc f31e 2abd e27c 34bc
000002e0: 1242 92bd 0f5b ae3e 6166 a1be a4cb 3e3d
000002f0: bc86 023e 4b12 4b3d af3a 95ba ffee cabd
00000300: 0f01 a2be 1a6e de3c 8b07 03be 662c 633e
00000310: b56f 8abe f325 683d 8672 27be 43c6 3e3e
00000320: cf15 f1bd a1e9 973c 073a c7bb 6c85 0bbd
00000330: 479c 2ebe ccda 203e 06bc cdbe 43b0 8e3d
00000340: 2753 e7bd 2b41 423e 5d4a 683e 6aef 1a3e
00000350: 8ab7 723d fd2e 983d be66 273c e82c c9bc
00000360: a493 0bbe e1f4 cf3d f6cb 7bbe d603 f7bd
00000370: eb5a c5bc 0d9b 7e3b 913f 1a3a 5e2c fa3d
00000380: 5285 1f3e 9fe4 db3d b408 713e 1c17 2dbe
00000390: 8e56 ab3d 4d6c 343d e122 873c 9cb3 e7bd
000003a0: 34c4 2e3d 4ae6 1a3e 1e0c 483e 319c 513e
000003b0: da3f b1bd 02e8 fbbc b094 d63d a7b8 cbbd
000003c0: 4e16 1c3e c77c 00bd 93dd 483c b289 2c3e
000003d0: 7159 cb3d 9adc bb3c 61e3 113e 8c82 10be
000003e0: fd82 fbbd 658a cb3d 6998 843e 3d02 c53d
000003f0: 9e83 0cbe 9eff 07bd 4cd7 803e 770c 68be
-0.02977802 -0.15786317 0.020273263 -0.13941313 -0.017836524 0.15886994 0.21513478 0.14952235
-0.069835216 -0.015970724 -0.1546125 -0.038406186 -0.11655344 -0.2619648 0.07672071 0.0399201
-0.014035607 0.13653027 -0.1552127 0.016694278 -0.329835 -0.1770619 0.13349864 0.15844601
0.051792204 -0.08645762 0.07478769 0.12161689 -0.015196001 -0.060711406 -0.072855726 0.16180663
-0.09615629 0.11788629 -0.09923425 0.06670674 -0.0437383 0.082429565 0.18207873 0.22989596
0.221176 0.14540833 0.09047496 -0.084198505 -0.123790056 -0.008267968 -0.07121302 0.08556672
0.2234419 -0.0024614998 -0.15382688 -0.107850805 -0.14514533 -0.18861377 0.102689914 0.09463286
0.11145738 -0.15828486 -0.17158486 0.11922795 -0.24324146 0.07292142 -0.036280487 0.026547171
-0.1417199 -0.022550968 0.077415444 0.039928373 0.06215822 0.09350351 -0.03231316 0.10960915
0.060332973 -0.050897386 -0.09620179 -0.04431686 0.04239165 -0.14778487 -0.1118477 0.028746296
-0.21283884 -0.2080187 0.2196595 -0.313354 -0.10602131 -0.039774828 0.008470582 -0.107554525
0.30581978 0.038618203 0.2226562 0.12879655 -0.13702919 0.21192886 0.10262238 -0.19611433
0.31289783 0.040390193 0.07936612 -0.032419167 -0.23893803 0.18238999 -0.23361291 0.12138679
-0.021293696 -0.07165005 0.03971838 0.071772814 -0.12848899 0.091159455 -0.15788537 0.10209335
0.0094753 0.042311188 -0.14844865 0.03770169 0.06487139 -0.04064745 -0.13204093 0.15631896
-0.04174375 0.015251924 0.026202926 0.15609209 -0.11282274 0.026881935 0.042706944 0.117489226
0.09404334 0.119967595 0.011212408 -0.07558611 -0.024272079 -0.007799206 0.06670279 -0.019954149
-0.06350234 0.07827204 -0.2828835 0.027177691 0.16081914 -0.12994534 -0.012931406 0.18161353
-0.09577308 0.054445583 -0.21078466 0.042318936 -0.22518054 -0.09046671 0.02783788 -0.07168978
0.14436397 -0.3206626 -0.1563707 0.2723557 -0.054064453 0.040563848 0.12944523 0.1257086
-0.30645478 0.02127322 0.0739554 -0.21228872 -0.16391942 -0.006486866 0.048147622 -0.0028806517
-0.23817636 -0.28244033 -0.07442775 0.12148654 -0.031690083 -0.24337102 -0.19170865 0.1995947
0.12880935 -0.150629 -0.16744295 0.15422061 -0.06627713 -0.0134618785 -0.04153342 -0.0110161025
-0.07141508 0.34053847 -0.3152342 0.046580926 0.1274671 0.049577992 -0.0011385287 -0.09908866
-0.31641433 0.02715211 -0.12795846 0.22184905 -0.2703835 0.056676816 -0.16352281 0.18630318
-0.11771738 0.01854402 -0.0060799154 -0.034062788 -0.17051803 0.15708464 -0.40182513 0.06967213
-0.11295157 0.18970172 0.22684617 0.15130392 0.059257068 0.07430837 0.010217367 -0.024557546
-0.13630539 0.10154129 -0.24589524 -0.120612785 -0.024091205 0.0038849742 0.0005884106 0.122154936
0.15578201 0.107369654 0.23538476 -0.16903347 0.08366118 0.044048596 0.016496124 -0.11313555
0.042667583 0.15126911 0.19535872 0.20469739 -0.08654757 -0.030750278 0.10477579 -0.09947329
0.15242884 -0.031368997 0.012259859 0.16849402 0.09929169 0.02293234 0.14246894 -0.141123
-0.122808434 0.09938506 0.2589753 0.096195675 -0.13722083 -0.03320276 0.25164258 -0.22661005

network_body.linear_encoder.seq_layers.2.bias f4 [256]
00000000: 35f2 a8bd c824 0ebd 2a19 c8bc 4aef 36bd
00000010: a0f4 173e 956e 063d 5d36 31be 0030 8f3d
00000020: 0dc8 a43d 8571 483c ed8e fd3d 20db 16bd
00000030: e6a3 a13c 6fa0 533c 452a acbd b7c8 fd3d
00000040: 63a0 f0bd 5eff f03c 1734 563c ea0e 81bd
00000050: b995 4dbc 7df4 313d 7e95 263d c5ce 0fbc
00000060: 1fe4 80bd bf27 943d 0508 a13b f603 cb3b
00000070: c894 9fbc 5704 edbd b6ef 47bd b96c 853d
00000080: 341b a73d 66ca 2abd 25b4 e0bd 8b83 413c
00000090: 2442 74bd 05f1 e63c e046 8b3b de71 cdbd
000000a0: 857e 88bc a96e bf3c 9a51 033d f8db aa3d
000000b0: c6b3 c23b fdb1 df3d 4d90 4f3d d9a5 7bbd
000000c0: 4383 01bd 5fc6 37bd 64c6 f43c 6c14 2dbd
000000d0: 3d70 313d 2666 c53d 2561 98bd a09c 5e3b
000000e0: 4f9c aabd 2487 40bd 7f3c 093c af8b 81bd
000000f0: f3b2 8d3c 6196 3d3d f0d1 d2bd 4e03 763d
00000100: 475d e9bb 7663 573d f665 193d 8499 4e3c
00000110: 8fed f03c 224a bdbc 79a2 d3bd dd6a 38bd
00000120: 7610 b2bd e1ce 34bc 68d0 ca3c 0858 fc3c
00000130: 97e2 ba3c 195a bbbb 3b29 e93d d3a3 34bd
00000140: 5271 25bd 1dd4 afbd 4d46 723b 5378 253e
00000150: 447b 123e d8d5 8dbd 03dc 163e 717d f3bd
00000160: 3c57 f73c aad7 08be 85da 063e f261 0dbe
00000170: d4ad 08be 255a 95bc 6eaa 6d3d 96aa 363e
00000180: 8845 27bd e3fd 12bd 9dc6 acbb 4cc5 183c
00000190: 3d90 023e 3161 14bd ec6a 20bd 9d99 1fbd
000001a0: 60ff af3d 39e6 003e 48e5 5ebd b91b af3d
000001b0: 1563 70bb b389 7b3d 1317 0bbd 0a01 703d
000001c0: 0a08 243d 1b0e 8fbd af63 34bd 4d07 5a3d
000001d0: 8f18 e83c 2c07 ab3d fec8 fe3d f329 843d
000001e0: 65c5 b33d c073 f73d d53c 65bc 8bfb cb3c
000001f0: 8932 28bd 1391 10bd 0981 67bc a148 1d3c
00000200: ba60 0abd f5d3 eebc 641c 4a3d 3211 f7bd
00000210: 4e2d 5b3d deef 75bd 6b7f 0e3d 439a df3d
00000220: fae7 963c cb7a 02bd 8d00 05be 5fad 0cbd
00000230: 0a90 0e3e 4652 60bc 6489 d13c 8b5c abbd
00000240: 81e1 f5bd b12b 8b3d 6c15 533d e326 0cbd
00000250: 5be1 3bbd 28d6 b5bd fdff edbb 5134 133e
00000260: 1605 37bd 4e7b 90bd e0a8 df3d dd37 91bc
00000270: ba3a 7a3d a3e7 0b3d 6c43 343c 45c6 74bd
00000280: 13c5 833d 7684 d2bc ca41 953d 8cff fcba
00000290: 32e0 eabc d57c dc3d 4b7d b23c 71a9 cebd
000002a0: 9a41 213b 95fb adbb 3a45 553d 34c6 76bd
000002b0: a551 d33b 652a 8e3c 4036 e1bc 8eae 3fbd
000002c0: 22f4 7e3d 873b 9dbd 315f d7bd 26d5 ef3d
000002d0: bf9c 70bd 03b9 ec3d 4ad4 503d 8d5e a0bd
000002e0: d37c 0e3d 9163 573c e082 a73b a7fc 9c3d
000002f0: 1231 b9bd 35f9 ebba a89b e23d a8ee fd3c
00000300: 2b6b 0f3e d158 05bd 8d5f 14bd 83d0 52bc
00000310: 322f a6bc 6a02 853d b493 633d 5089 2fbd
00000320: 47af a9bc 03de ac3c 34cb 25bc 4326 5dbd
00000330: df74 bb3d 90a9 9d3c e741 b5bd fc5b de3c
00000340: fc92 9cbd cf53 793d 254d a0bd f981 8c3d
00000350: b94a bf3c 70a8 21be bc24 5fbb 0307 253d
00000360: 53cd d73d 654b ea3b 81a8 b3bd fa3c 85bb
00000370: 1e64 723d 3b59 463c 2843 2bbd d0a2 e9bd
00000380: b01c 1ebd fd0e 6bbd e825 bcbd fb69 87bc
00000390: ab2b dc3d 3404 6ebd e839 cebc 74d4 42b8
000003a0: 5ce9 efbd c226 57bd df3b 393d 3288 bebc
000003b0: 9453 6dbd 9689 863d 84cc 86bd 2430 e03d
000003c0: 4aee b3bd 5000 b33d 89a0 f1bc 146c 59bd
000003d0: e210 c33c 48a6 b3bc e50c cbbc 6452 71bd
000003e0: 0b0b a0bc 575d 06be 39d2 c0bb 20ee 97bd
000003f0: 4a1f 31bd 4b3c d9bd 0dc8 94bd b28e 52bd
-0.08249322 -0.034703046 -0.024426062 -0.044661798 0.14839411 0.032820303 -0.17305894 0.06991577
0.08045969 0.012234096 0.123807766 -0.036830068 0.019731473 0.012916668 -0.084065 0.12391799
-0.11749341 0.029418644 0.013073943 -0.06301673 -0.012547904 0.043446053 0.04066991 -0.008777325
-0.06293511 0.072341435 0.004914286 0.0061955405 -0.019480124 -0.115730934 -0.04881259 0.06514878
0.081594855 -0.04169693 -0.1097186 0.011811147 -0.05963339 0.028191099 0.0042503923 -0.10031484
-0.016661892 0.023368197 0.032060243 0.08342737 0.005941841 0.109226204 0.050674725 -0.06143746
-0.03161932 -0.044866916 0.029879756 -0.042255804 0.04331993 0.09638624 -0.07440404 0.0033967867
-0.08330595 -0.04700388 0.00837624 -0.06325471 0.017297244 0.04628599 -0.10293949 0.060061745
-0.007121715 0.052585088 0.037450753 0.012609843 0.029410152 -0.023106638 -0.103337236 -0.045023788
-0.08694546 -0.011035652 0.024757579 0.030803695 0.022813125 -0.0057175276 0.11384817 -0.044101547
-0.040391274 -0.08585379 0.0036968172 0.16159181 0.14304835 -0.06925553 0.14732365 -0.118891604
0.030192964 -0.1336352 0.13169296 -0.13806894 -0.1334756 -0.01823146 0.058023863 0.17838511
-0.040837795 -0.035886656 -0.0052727 0.009324383 0.12750335 -0.0362255 -0.03916447 -0.038964856
0.08593631 0.12587823 -0.05441788 0.085502096 -0.0036680151 0.061410617 -0.033957552 0.05859474
0.04004673 -0.06985112 -0.04404038 0.05322962 0.028332023 0.08350977 0.1244068 0.06453314
0.087778844 0.120826244 -0.013991554 0.024900218 -0.04106382 -0.035294604 -0.0141298855 0.009599836
-0.033783652 -0.029153803 0.04934348 -0.120638266 0.053510003 -0.06004321 0.034789484 0.10918095
0.018421162 -0.031855386 -0.12988491 -0.034345027 0.13922134 -0.0136914905 0.025578208 -0.083672605
-0.12005902 0.06795443 0.0515341 -0.034216773 -0.045869213 -0.08878738 -0.007263182 0.14375426
-0.044682585 -0.070547685 0.10920882 -0.017726833 0.061091162 0.034156453 0.011002403 -0.059759397
0.06434073 -0.025697928 0.07287939 -0.0019302233 -0.028671358 0.10765997 0.02178826 -0.10090912
0.0024605752 -0.005309532 0.052067973 -0.060247615 0.006448942 0.0173542 -0.027491689 -0.046797328
0.062244542 -0.076773696 -0.10516203 0.11710577 -0.058743235 0.11558726 0.050983705 -0.07830534
0.03478701 0.013146297 0.005112037 0.07665377 -0.090425625 -0.0018003347 0.11064845 0.03099759
0.14005725 -0.032555405 -0.036223937 -0.012867096 -0.020286176 0.06494601 0.055560783 -0.04285556
-0.020713462 0.021101957 -0.010119248 -0.053991567 0.09153151 0.019245893 -0.088504605 0.027143471
-0.076452225 0.06087094 -0.07827214 0.06860728 0.02335106 -0.1578691 -0.0034048995 0.04028989
0.10537209 0.007150101 -0.08772374 -0.004066107 0.05917751 0.012106235 -0.041812092 -0.11408007
-0.038601577 -0.05738734 -0.091869175 -0.016530028 0.107505165 -0.058109477 -0.025174096 -4.6451067e-05
-0.11714432 -0.052527197 0.045223113 -0.023258302 -0.057941034 0.06569211 -0.06581977 0.10946682
-0.087856844 0.08740294 -0.029495494 -0.053081587 0.023811761 -0.021929875 -0.024786422 -0.058916464
-0.019536516 -0.13121544 -0.0058844355 -0.074184656 -0.04324273 -0.10607203 -0.07264719 -0.051405616
