Assets/Models/Good Models/control.onnx (onnx, 356826 bytes, 14 tensors)

106 f4 [75]
0.27806246 0.1597485 0.3628239 0.4823516 0.49996814 0.99021953 0.2786678 0.15955997
0.36378878 0.48207432 0.4999686 0.50058305 0.2064923 0.58064955 0.46900368 0.27447265
0.15770341 0.36648402 0.48589826 0.49982175 0.9559382 0.27509913 0.15752237 0.36746743
0.48563096 0.49982086 0.5055296 0.19710313 0.5861669 0.47517785 0.27064064 0.15541027
0.37020513 0.48951218 0.49958408 0.9188355 0.27128077 0.15523754 0.37119788 0.48925686
0.49958 0.5106264 0.1885506 0.5912531 0.48289683 0.26657775 0.15286662 0.3739423
0.49324858 0.4992118 0.87865096 0.26722795 0.15270294 0.3749518 0.49299297 0.49920583
0.5159105 0.18173139 0.59588236 0.49215248 0.2628741 0.1501909 0.37692407 0.49628916
0.49860212 0.83407444 0.2635135 0.15003526 0.37793228 0.4960375 0.49859253 0.52178395
0.17551957 0.59930813 0.5006615
00000000: 345e 8e3e 1c95 233e 0ec4 b93e caf6 f63e
00000010: d3fb ff3e 077f 7d3f 8cad 8e3e b063 233e
00000020: 8642 ba3e 72d2 f63e e2fb ff3e 3626 003f
00000030: b872 533e 73a5 143f 4021 f03e ae87 8c3e
00000040: 017d 213e cba3 bb3e a8c7 f83e a3e8 ff3e
00000050: 5eb8 743f cbd9 8c3e 8b4d 213e b124 bc3e
00000060: 9fa4 f83e 85e8 ff3e 636a 013f 67d5 493e
00000070: 090f 163f 834a f33e 6991 8a3e df23 1f3e
00000080: 878b bd3e 57a1 fa3e 7cc9 ff3e ce38 6b3f
00000090: 50e5 8a3e 97f6 1e3e a60d be3e e07f fa3e
000000a0: f3c8 ff3e 69b8 023f 6913 413e 5d5c 173f
000000b0: 413e f73e e17c 883e 1189 1c3e 5d75 bf3e
000000c0: 148b fc3e b098 ff3e 45ef 603f 1ad2 883e
000000d0: 295e 1c3e aff9 bf3e 9369 fc3e e897 ff3e
000000e0: b612 043f cb17 3a3e bf8b 183f 69fb fb3e
000000f0: 6f97 863e a5cb 193e 31fc c03e 9d19 fe3e
00000100: c748 ff3e e785 553f 3eeb 863e d8a2 193e
00000110: 5780 c13e a1f8 fd3e 8547 ff3e a293 053f
00000120: 67bb 333e 426c 193f 5a2b 003f

action_model._discrete_distribution.branches.0.bias f4 [3]
0.042941924 0.11198676 -0.19047223
00000000: dfe3 2f3d 5059 e53d 270b 43be

action_model._discrete_distribution.branches.0.weight f4 [3, 256]
0.014185939 -0.07126041 0.0761873 0.014384828 0.080546 0.09081099 -0.011589201 0.055145413
0.00351458 -0.026913919 0.04984819 -0.05555538 -0.042916007 0.032622185 -0.004443897 -0.036602475
0.04927618 -0.00017047621 -0.026089597 0.1869859 0.016570736 0.08696838 0.011433044 0.035222232
-0.03282458 -0.03710639 0.039132435 -0.04886773 0.004675988 -0.013553147 -0.06487274 0.025438612
-0.136095 0.03513988 -0.042821825 -0.03214188 -0.00015124166 -0.0076001273 0.0774292 0.025794916
0.044325154 0.052829586 0.006924581 -0.060244206 -0.0034284822 -0.08094507 -0.070175834 -0.040381845
-0.07796346 -0.018127676 -0.06389219 -0.009457431 -0.034230176 0.019972451 -0.0138248885 0.019692376
-0.017940704 -0.05341512 -0.02564245 -0.0016769228 -0.060281802 0.02911862 0.04739193 -0.04540014
0.05669215 -0.0029030677 -0.037759643 -0.087952994 0.012615504 -0.076444544 -0.014134409 -0.011686971
-0.009086709 0.038535412 0.017765367 -0.024086278 -0.044674125 -0.006099296 0.012591085 -0.010037868
-0.04270811 -0.0070252 0.08556117 0.0014016633 0.0019424419 0.024441164 -0.0016142146 -0.017726494
-0.063279375 -0.07379725 0.023537967 -0.009374341 -0.025352566 0.039914705 0.03626706 0.06497666
0.0481798 0.030750131 0.012579201 0.013949993 -0.027652603 -0.112827 0.048648458 0.049226817
-0.018365692 -0.055288963 0.03850175 -0.067882285 -0.01159614 -0.0070564966 -0.045743704 -0.049106576
-0.0040919166 0.002089122 -0.02269411 0.037101187 -0.058469497 0.019716995 -0.07580549 -0.06928155
0.019238815 -0.02524471 0.08550516 -0.023955798 -0.018378263 -0.016407534 -0.030620841 -0.0023770216
-0.020619888 0.003165207 0.027721936 0.07438874 -0.043362822 -0.031553254 0.018975953 -0.047830187
0.12002966 0.021005409 0.007961992 -0.086550236 -0.059275225 0.000320702 -0.032105964 0.020366887
0.04362396 0.0014689508 0.024257071 -0.012262365 0.0015698952 -0.07941186 0.059148517 0.061127473
0.044797964 0.031137707 0.061482083 0.13085677 0.020643184 -0.028325116 -0.0047430797 0.0889563
-0.011214584 -0.028518988 0.02801357 -0.010862535 0.01646445 0.089366734 -0.05111111 0.03847182
-0.01809397 0.016714644 -0.01513129 0.032814417 0.07165491 0.031948302 0.012613692 -0.010049088
0.046173178 -0.06391054 0.059471663 0.06311598 -0.052159056 -0.0032993085 -0.013939074 -0.019025998
-0.046580393 -0.06049651 -0.034333974 0.027888 -0.018415732 0.026262859 -0.017309804 0.009066695
0.035827365 0.00019767991 -0.015134998 0.05943167 0.021260327 0.046614096 0.077953674 0.01982976
0.07591896 -0.03576135 -0.042887263 0.0516293 0.06235731 0.029539146 -0.00512629 -0.023531897
-0.00084333326 -0.051306143 -0.035801686 -0.0059103197 0.08287132 0.06875614 -0.06332126 0.019794483
0.048794586 0.018980598 0.04229265 0.009192253 0.016613396 0.0013118319 0.03104117 0.032622386
0.0135384835 -0.0008257748 0.007613505 -0.02676357 0.026192851 -0.035364784 -0.0075616827 0.10165074
0.020450192 0.0045365216 0.02433586 -0.036011197 0.03801942 -0.033324957 -0.08119623 0.001078443
0.03519441 0.003798068 0.043214653 0.012934899 -0.06427385 0.0469997 0.019837085 0.0302631
0.070700325 -0.008551015 -0.0797765 -0.036679365 -0.026529575 0.16987152 -0.0076370416 0.0009973916
00000000: 246c 683c faf0 91bd 1608 9c3d 57ae 6b3c
00000010: 4df5 a43d 1dfb b93d a2e0 3dbc 28e0 613d
00000020: de54 663b 947a dcbc 9e2d 4c3d 0a8e 63bd
00000030: b2c8 2fbd d79e 053d 1c9e 91bb 7aec 15bd
00000040: d2d5 493d dcc1 32b9 dab9 d5bc 3b79 3f3e
00000050: 5abf 873c 7a1c b23d aa51 3b3c 3045 103d
00000060: 1173 06bd dffc 17bd 5549 203d 8729 48bd
00000070: 0839 993b 050e 5ebc 00dc 84bd a364 d03c
00000080: 7d5c 0bbe d6ee 0f3d f065 2fbd 34a7 03bd
00000090: a096 1eb9 7d0a f9bb 3393 9e3d dc4f d33c
000000a0: 4b8e 353d d663 583d 98e7 e23b a1c2 76bd
000000b0: 63b0 60bb 87c6 a5bd 59b8 8fbd 6f67 25bd
000000c0: 4eab 9fbd 7e80 94bc e9d9 82bd 57f3 1abc
000000d0: f134 0cbd 449d a33c c981 62bc e851 a13c
000000e0: 62f8 92bc d0c9 5abd 1e10 d2bc 31cc dbba
000000f0: 0dea 76bd 2c8a ee3c 0a1e 423d 7ff5 39bd
00000100: 0736 683d 6541 3ebb dba9 1abd b320 b4bd
00000110: 42b1 4e3c f58e 9cbd 0294 67bc b67a 3fbc
00000120: 6be0 14bc 4fd7 1d3d ad88 913c 9650 c5bc
00000130: 37fc 36bd 9adc c7bb d74a 4e3c df75 24bc
00000140: b3ee 2ebd a633 e6bb b23a af3d 04b8 b73a
00000150: 8999 fe3a d638 c83c 0e94 d3ba 2737 91bc
00000160: 9e98 81bd 0323 97bd b2d2 c03c d696 19bc
00000170: 2fb0 cfbc 9a7d 233d c58c 143d 7c12 853d
00000180: 2f58 453d b3e7 fb3c fe18 4e3c 838e 643c
00000190: b687 e2bc d811 e7bd 9b43 473d 0fa2 493d
000001a0: a673 96bc ae76 62bd 03b4 1d3d de05 8bbd
000001b0: bdfd 3dbc 2f3a e7bb c05d 3bbd fa23 49bd
000001c0: 7c15 86bb a7e9 083b 00e9 b9bc 6af7 173d
000001d0: b67d 6fbd 8985 a13c e93f 9bbd 7ce3 8dbd
000001e0: b89a 9d3c fecd cebc 541d af3d f33e c4bc
000001f0: 038e 96bc 1869 86bc 8fd8 fabc cec7 1bbb
00000200: 0aeb a8bc 5d6f 4f3b 1d19 e33c 2059 983d
00000210: 379d 31bd fc3d 01bd 7573 9b3c 96e9 43bd
00000220: 1cd2 f53d 8913 ac3c 0473 023c 4041 b1bd
00000230: 94ca 72bd e523 a839 8b81 03bd 75d8 a63c
00000240: 0aaf 323d cf89 c03a c4b6 c63c 16e8 48bc
00000250: f1c4 cd3a afa2 a2bd b745 723d cd60 7a3d
00000260: 127e 373d 8114 ff3c a3d4 7b3d 51ff 053e
00000270: e51b a93c 130a e8bc d66b 9bbb b82e b63d
00000280: 60bd 37bc a7a0 e9bc b77c e53c c6f8 31bc
00000290: 74e0 863c e805 b73d e259 51bd a194 1d3d
000002a0: ce39 94bc 26ed 883c 3be9 77bc 6968 063d
000002b0: cfbf 923d 39dc 023d a9a9 4e3c eea4 24bc
000002c0: 1620 3d3d 87e3 82bd 8f98 733d f342 813d
000002d0: bca4 55bd 3639 58bb b760 64bc 69dc 9bbc
000002e0: 15cb 3ebd 30cb 77bd c8a1 0cbd 6075 e43c
000002f0: 97dc 96bc 3525 d73c 4acd 8dbc 7a8c 143c
00000300: b7bf 123d 4c48 4f39 c8f8 77bc 9f6e 733d
00000310: 232a ae3c 6cee 3e3d 2da6 9f3d 0572 a23c
00000320: 667b 9b3d 7e7a 12bd 8eaa 2fbd 3f79 533d
00000330: 616a 7f3d 14fc f13c 70fa a7bb f7c5 c0bc
00000340: 2313 5dba 6426 52bd caa4 12bd 5bab c1bb
00000350: 70b8 a93d 05d0 8c3d 94ae 81bd 0a28 a23c
00000360: d5dc 473d 337d 9b3c 0f3b 2d3d 1b9b 163c
00000370: d118 883c c6f1 ab3a 0d4a fe3c 0d9f 053d
00000380: 84d0 5d3c cf78 58ba b57a f93b 463f dbbc
00000390: 6492 d63c aada 10bd fec7 f7bb 432e d03d
000003a0: 2987 a73c 1aa7 943b ff5b c73c 7a80 13bd
000003b0: 40ba 1b3d c07f 08bd 364a a6bd 8b5a 8d3a
000003c0: 0328 103d 02e9 783b d901 313d e6ec 533c
000003d0: 02a2 83bd c282 403d 6281 a23c 52ea f73c
000003e0: 55cb 903d 8e19 0cbc dd61 a3bd 1a3d 16bd
000003f0: 8d54 d9bc cdf2 2d3e 2640 fabb e9ba 823a

action_model._discrete_distribution.branches.1.bias f4 [3]
-0.021230694 0.0022300114 0.022651648
00000000: feeb adbc 6225 123b f38f b93c

action_model._discrete_distribution.branches.1.weight f4 [3, 256]
-0.020672735 -0.031083982 0.08552368 -0.0058731367 -0.05114644 -0.1940441 -0.045390002 -0.033729617
0.022498319 0.009884367 0.044455085 0.032007188 0.023938812 -0.030430447 -0.019512326 0.0070790774
0.013066559 0.019659258 -0.063000344 -0.09160481 -0.04499227 0.02070848 -0.012797287 -0.010773948
-0.0029182604 0.09952153 -0.002305704 0.04971404 0.030424511 0.03057973 -0.06443154 0.029024169
0.024456162 -0.059277527 -0.005949968 -0.019501885 0.059691407 0.00030008267 -0.056984447 -0.038474333
0.014096314 0.058772873 0.02368006 0.009771296 -0.031356398 -0.033055782 0.06837488 0.015483192
-0.00094732014 -0.008740497 0.02553412 0.003916197 0.03849755 -0.01852398 0.038468327 -0.10522384
-0.011082379 -0.023122739 -0.04715338 0.0033746008 -0.0231513 0.0006301318 -0.028028987 -0.009859785
0.1274697 0.0073083392 -0.042427704 0.09505239 -0.04137169 0.015415325 -0.0027922522 -0.05135911
0.013295113 -0.04397692 0.003517743 0.010089698 0.055447508 -0.019850876 -0.005842375 0.0627511
-0.0037212756 -0.115852155 -0.11674276 -0.044127207 0.018795917 0.03540964 0.14550461 0.043054547
0.0150355855 -0.008141448 0.02497601 -0.034602474 0.022853192 -0.080335714 -0.0072885756 0.013142163
0.006531357 -0.056679975 0.037156854 0.005486582 0.044193696 0.1454499 -0.015324077 -0.039345827
-0.002617861 -0.06366734 -0.046961386 0.05317716 0.02228333 0.07283543 0.038752627 0.04584862
0.020921834 0.030080393 0.03286985 -0.033954702 -0.009833918 -0.01140566 0.061558437 0.044430714
-0.1040818 0.062065843 0.0036415458 0.006052421 0.013030263 -0.051507857 0.041708507 0.03143493
0.025183387 0.019741464 -0.036011066 0.03944068 0.00017834018 -0.009337394 -0.01834974 -0.05005617
-0.2006711 0.0303528 0.008524393 0.05646712 0.027278874 0.04148518 0.004494217 -0.03219874
-0.0083629545 -0.08028839 -0.031567547 0.006853265 0.00923934 0.051793512 -0.12263724 -0.0028629093
-0.04738718 0.05774719 -0.06549398 -0.17117773 0.046269834 -0.039215636 0.03680506 -0.0818488
0.0064308466 0.05312832 0.03024796 -0.017392498 0.032710083 -0.026500419 -0.038147263 0.033794373
-0.0112255905 0.01539883 -0.0070530623 0.02019551 -0.0656992 0.0370729 0.016012909 0.0010727468
0.02611886 0.04822119 0.08619026 -0.12852098 0.0057630865 -0.043952495 -0.017781451 0.01640839
0.07993027 -0.005480226 0.06887133 0.119449705 -0.027007155 -0.02548815 -0.008172942 0.040902156
-0.04489134 0.037087414 0.024275852 0.06109876 -0.050303333 0.015453617 0.018223964 -0.012574012
-0.112641856 -0.014895198 0.007718471 -0.0018901407 -0.015638607 0.011390623 -0.0028178738 0.0060687247
0.0011070617 -0.0152870165 -0.085100636 -0.033238713 -0.076626495 0.006816216 0.04936914 -0.0056764656
0.0043816315 -0.10844889 -0.041012492 -0.016622694 0.01993074 0.020279486 0.033564992 0.026186442
-0.0070016147 -0.025663327 0.029498747 0.016373668 -0.018757196 0.0118337255 0.0025807263 0.009628366
-0.048837747 0.0055348217 -0.067394674 0.011652759 -0.0110672135 -0.010549089 -0.04753747 -0.047350973
0.084252216 0.029194122 -0.018324785 -0.040714283 -0.0010698593 0.011459366 0.05084305 0.014639161
0.012136441 0.0037604016 0.011735709 0.028794553 0.0139815 -0.27211598 -0.008582034 0.017329052
00000000: de59 a9bc d6a3 febc 0a27 af3d 7173 c0bb
00000010: ee7e 51bd 7fb3 46be deea 39bd 1128 0abd
00000020: 654e b83c 0af2 213c 8916 363d f819 033d
00000030: 541b c43c 4649 f9bc 50d8 9fbc 9bf7 e73b
00000040: 1f15 563c 740c a13c 5306 81bd 4d9b bbbd
00000050: d149 38bd d5a4 a93c b6ab 51bc 3785 30bc
00000060: 4940 3fbb f2d1 cb3d 4b1b 17bb f3a0 4b3d
00000070: d33c f93c 5882 fa3c aff4 83bd 18c4 ed3c
00000080: 4a58 c83c fecc 72bd f3f7 c2bb 6bc2 9fbc
00000090: fa7e 743d 6a54 9d39 8668 69bd 4397 1dbd
000000a0: 3af4 663c d3bb 703d affc c13c c917 203c
000000b0: 916f 00bd 8065 07bd 2108 8c3d 37ad 7d3c
000000c0: 9455 78ba 4d34 0fbc ee2c d13c 7153 803b
000000d0: 9baf 1d3d 9abf 97bc f790 1d3d 997f d7bd
000000e0: de92 35bc e66b bdbc e723 41bd 6828 5d3b
000000f0: cca7 bdbc 6e2f 253a 0c9d e5bc f08a 21bc
00000100: 6b87 023e cb7a ef3b acc8 2dbd d4aa c23d
00000110: 5c75 29bd 8f90 7c3c 38fe 36bb ee5d 52bd
00000120: bfd3 593c 2521 34bd ef89 663b 434f 253c
00000130: ed1c 633d 4e9e a2bc 6571 bfbb a683 803d
00000140: a5e0 73bb e543 edbd d416 efbd bbbe 34bd
00000150: e5f9 993c b309 113d 29ff 143e f759 303d
00000160: d157 763c b563 05bc 7d9a cc3c 53bb 0dbd
00000170: 9e36 bb3c 0d87 a4bd 01d5 eebb 3a52 573c
00000180: fe04 d63b 4329 68bd c931 183d c9c8 b33b
00000190: 7304 353d d2f0 143e d611 7bbc 1729 21bd
000001a0: 6b90 2bbb 0664 82bd 955a 40bd 4bd0 593d
000001b0: 888b b63c be2a 953d 13bb 1e3d c3cb 3b3d
000001c0: 4464 ab3c 286b f63c 89a2 063d 1614 0bbd
000001d0: 711e 21bc cede 3abc b324 7c3d fbfc 353d
000001e0: d728 d5bd c138 7e3d 00a7 6e3b 6353 c63b
000001f0: e27c 553c e7f9 52bd 8ad6 2a3d eac1 003d
00000200: 644d ce3c dab8 a13c 5780 13bd 8d8c 213d
00000210: d400 3b39 defb 18bc 3252 96bc b307 4dbd
00000220: ba7c 4dbe 6fa6 f83c e5a9 0b3c 114a 673d
00000230: f277 df3c 5dec 293d 3a44 933b d3e2 03bd
00000240: c604 09bc 3d6e a4bd f94c 01bd 5b91 e03b
00000250: 9a60 173c 6f25 543d 3c29 fbbd a69f 3bbb
00000260: 0f19 42bd 5188 6c3d b521 86bd 3749 2fbe
00000270: 7085 3d3d 93a0 20bd e7c0 163d 58a0 a7bd
00000280: dab9 d23b 159d 593d 92ca f73c b67a 8ebc
00000290: 02fb 053d 6817 d9bc 4e40 1cbd f86b 0a3d
000002a0: 8aeb 37bc 604b 7c3c 601d e7bb 0e71 a53c
000002b0: 4d8d 86bd c1d9 173d 812d 833c 699b 8c3a
000002c0: 38f7 d53c 9583 453d 8584 b03d 019b 03be
000002d0: 46d8 bc3b 8807 34bd 68aa 91bc e36a 863c
000002e0: 7bb2 a33d 7893 b3bb 690c 8d3d 0ca2 f43d
000002f0: 1c3e ddbc 86cc d0bc cee7 05bc 0589 273d
00000300: fbdf 37bd f9e8 173d 27de c63c b242 7a3d
00000310: de0a 4ebd 2b31 7d3c 6c4a 953c 3b03 4ebc
00000320: c6b0 e6bd fd0a 74bc 3aeb fc3b 99be f7ba
00000330: 891c 80bc bc9f 3a3c 14ac 38bb 27dc c63b
00000340: d41a 913a 6576 7abc 3e49 aebd 5125 08bd
00000350: 5aee 9cbd 905a df3b 4c37 4a3d a501 babb
00000360: ca93 8f3b 741a debd b7fc 27bd 512c 88bc
00000370: cb45 a33c 2a21 a63c 727b 093d f384 d63c
00000380: cd6d e5bb e63b d2bc 5ba7 f13c 1222 863c
00000390: b1a8 99bc 3ee2 413c 6721 293b 4bc0 1d3c
000003a0: 170a 48bd 735d b53b 3806 8abd 37eb 3e3c
000003b0: 4253 35bc 16d6 2cbc a6b6 42bd 18f3 41bd
000003c0: 6d8c ac3d 8328 ef3c dc1d 96bc 05c4 26bd
000003d0: 853a 8cba 11c0 3b3c cd40 503d 17d9 6f3c
000003e0: ecd7 463c 1271 763b 2247 403c 8ee2 eb3c
000003f0: a912 653c c952 8bbe a99b 0cbc a8f5 8d3c

action_model._discrete_distribution.branches.2.bias f4 [2]
0.005057495 -0.0050574215
00000000: 58b9 a53b bab8 a5bb

action_model._discrete_distribution.branches.2.weight f4 [2, 256]
0.06330356 -0.035675928 0.031532735 0.106628165 -0.0835187 0.16418281 -0.1708693 -0.07261799
0.12513986 0.06066711 -0.08359588 0.017147535 -0.09567879 -0.021073312 -0.009563261 -0.1448425
-0.0010046205 -0.051382985 -0.028683072 0.19221754 -0.0092605855 0.0056964974 -0.0081336005 0.02730243
0.012218619 0.008369425 0.1424823 0.0019699195 0.010571906 0.024678236 -0.079814166 -0.028058494
0.022177754 -0.102757104 0.002670383 0.005908178 0.05672371 -0.004749582 -0.015855437 0.056468673
-0.071334116 -0.033366542 0.13113192 0.036279522 0.017868752 0.05501261 0.11392427 0.00922784
0.068653464 0.022284238 -0.18598305 0.008024614 -0.04119593 0.0043969164 0.0051169666 -0.0603586
-0.0049726046 0.0017301078 0.02818794 0.004039804 0.0611191 -0.043979224 0.020087607 0.039425373
0.012447033 0.18573721 -0.07557857 0.118738234 0.036470883 -0.07535482 -0.025302788 0.007918985
0.00893991 0.018585421 0.2186755 -0.03830265 4.403795e-06 0.03600045 0.021662066 0.0383832
0.042752907 -0.055294663 0.052090593 0.00200319 0.012026301 0.2072889 0.034940485 0.050846424
0.0013554285 0.0056508807 -0.023125002 0.0027197949 0.04507906 0.03648525 0.20300937 -0.009023098
-0.026497288 -0.09479766 -0.051799756 -0.12053225 0.058311284 0.0075096088 0.0204563 0.26170838
-0.027653418 -0.081473865 -0.10104935 0.015933778 0.0016447079 0.05010472 0.019551987 -0.102979526
-0.102397114 -0.10194679 0.07375297 -0.043548334 0.0029037097 0.0077920393 -0.050636146 -0.01071293
-0.011912017 0.076941274 -0.022808159 -0.029005492 0.019964676 0.06411569 -0.0038210566 0.045287795
0.043086153 -4.4336768e-05 0.032468576 0.02688294 -0.081683405 -0.019967195 -0.17379984 0.028116733
0.1846401 -0.06186457 -0.006665893 0.025717616 0.018640952 0.06034828 -0.0037699756 -0.1059635
0.05036355 -0.18128881 0.020288926 0.033534147 0.068122454 -0.03785155 -0.0087273745 -0.13326688
-0.22138324 -0.033434387 0.09093206 -0.03916577 -0.0013825317 0.043143377 -0.048375033 0.1485565
-0.06700583 0.045010686 -0.02845774 0.016084041 -0.096106425 0.14230372 0.067654185 0.039688427
-0.030952517 -0.012998387 0.028485455 -0.08916069 0.00014022288 0.041308455 0.0020870175 0.008140528
0.052653328 0.18547513 0.0035858983 0.026123257 0.007368996 0.041525736 -0.08668989 0.100016214
-0.09643343 0.021955755 0.081881076 0.05055456 0.05634286 -0.1270278 0.03269069 -0.071259126
0.13381197 -0.0104543995 -0.031618893 -0.075731665 -2.455557e-05 -0.027627217 -0.06225956 0.02962009
-0.01046292 -0.16461968 0.09925359 -0.048621044 0.038115643 0.052010093 0.02412829 0.013230498
-0.12352959 -0.016243046 0.16537593 0.031362183 -0.046599448 0.05522548 -0.0875257 -0.06262634
0.0012347415 0.060397167 -0.045879517 0.09349846 0.050281763 0.026695156 0.016893944 -0.055015907
-0.07308587 0.039811466 0.032932553 0.09428251 -0.008567361 0.02826005 -0.012719903 0.11842486
0.07457552 0.03427218 0.04931635 0.093005665 -0.022239225 -0.113293454 -0.043537542 -0.024324339
-0.07875256 0.001097202 3.800635e-05 -0.01999639 0.045500156 0.01599512 -0.040279143 0.057169728
0.04765885 -0.0076743825 0.111237414 0.029350212 -0.015258612 0.08772891 -0.0037520374 0.017302008
00000000: 4ca5 813d ec20 12bd 7828 013d de5f da3d
00000010: da0b abbd 8a1f 283e 5df8 2ebe beb8 94bd
00000020: aa24 003e 137e 783d 5134 abbd fd78 8c3c
00000030: 3ef3 c3bd f0a1 acbc 39af 1cbc 9851 14be
00000040: 78ad 83ba f776 52bd c3f8 eabc add4 443e
00000050: b6b9 17bc afa9 ba3b cb42 05bc 58a9 df3c
00000060: 9a30 483c ea1f 093c e1e6 113e c419 013b
00000070: ca35 2d3c 032a ca3c 9c75 a3bd edda e5bc
00000080: 1fae b53c 5172 d2bd 9801 2f3b 6499 c13b
00000090: 1f57 683d 62a2 9bbb 43e3 81bc b24b 673d
000000a0: 9f17 92bd 5bab 08bd 7247 063e d699 143d
000000b0: 7d61 923c e754 613d 2151 e93d 5e30 173c
000000c0: 309a 8c3d 6f8d b63c 5772 3ebe ac79 033c
000000d0: 10bd 28bd 0214 903b 3aac a73b 943a 77bd
000000e0: 3bf1 a2bb c9c4 e23a 65ea e63c 5560 843b
000000f0: 0558 7a3d 8f23 34bd c48e a43c 807c 213d
00000100: a4ee 4b3c e531 3e3e f0c8 9abd 082d f33d
00000110: 7e62 153d a153 9abd cb47 cfbc a1be 013c
00000120: b378 123c 7440 983c 78ec 5f3e 3de3 1cbd
00000130: 50c4 9336 3575 133d a574 b13c b437 1d3d
00000140: ac1d 2f3d a87c 62bd f25c 553d f447 033b
00000150: f609 453c 8b43 543e c11d 0f3d 5744 503d
00000160: a2a8 b13a 062b b93b a570 bdbc 963e 323b
00000170: d2a4 383d 8f71 153d b0e1 4f3e 9ed5 13bc
00000180: d710 d9bc 4725 c2bd fb2b 54bd 9dd9 f6bd
00000190: d0d7 6e3d 2a13 f63b f893 a73c a4fe 853e
000001a0: 6c89 e2bc c5db a6bd f6f2 cebd 8e87 823c
000001b0: 3d93 d73a 9b3a 4d3d 7d2b a03c eee6 d2bd
000001c0: 94b5 d1bd 7bc9 d0bd cc0b 973d bd5f 32bd
000001d0: 2a4c 3e3b 5d54 ff3b d967 4fbd 4985 2fbc
000001e0: 9f2a 43bc 6393 9d3d 2dd8 babc ed9c edbc
000001f0: f68c a33c 164f 833d b16a 7abb b27f 393d
00000200: 1b7b 303d 3ef6 39b8 c5fd 043d 9d39 dc3c
00000210: a149 a7bd 3e92 a3bc 96f8 31be 1055 e63c
00000220: 4b12 3d3e b465 7dbd 906d dabb c0ad d23c
00000230: e9b4 983c c22f 773d b211 77bb 6403 d9bd
00000240: 034a 4e3d c6a3 39be f634 a63c 1a5b 093d
00000250: c983 8b3d 3a0a 1bbd 43fd 0ebc 1d77 08be
00000260: 4ab2 62be 7ff2 08bd 963a ba3d 496c 20bd
00000270: 1136 b5ba 1cb7 303d e624 46bd 321f 183e
00000280: 5a3a 89bd 205d 383d 3520 e9bc aec2 833c
00000290: 72d3 c4bd 11b8 113e 478e 8a3d 5590 223d
000002a0: 2290 fdbc 30f7 54bc 545a e93c e199 b6bd
000002b0: cb08 1339 0e33 293d 58c6 083b d95f 053c
000002c0: 04ab 573d 31ed 3d3e 6401 6b3b 7100 d63c
000002d0: 9e77 f13b e416 2a3d 788a b1bd 4dd5 cc3d
000002e0: e47e c5bd 8edc b33c 44b1 a73d 4c12 4f3d
000002f0: c5c7 663d 9313 02be ace6 053d 4ef0 91bd
00000300: 0106 093e ee48 2bbc d082 01bd 3419 9bbd
00000310: affc cdb7 7952 e2bc e103 7fbd d5a5 f23c
00000320: ab6c 2bbc 1092 28be 7745 cb3d dc26 47bd
00000330: 261f 1c3d 8908 553d b1a8 c53c bbc4 583c
00000340: 15fd fcbd 2310 85bc 4f58 293e a275 003d
00000350: 10df 3ebd 1d34 623d ad40 b3bd 3d42 80bd
00000360: 0dd7 a13a 0563 773d 29ec 3bbd 1f7c bf3d
00000370: 40f4 4d3d cdaf da3c 2b65 8a3c 5c58 61bd
00000380: 0bae 95bd 5911 233d 49e4 063d 3017 c13d
00000390: 1e5e 0cbc 9f81 e73c 2467 50bc bc88 f23d
000003a0: 0dbb 983d fc60 0c3d f1ff 493d c179 be3d
000003b0: 092f b6bc 6606 e8bd 6c54 32bd d643 c7bc
000003c0: 0649 a1bd fdcf 8f3a 0269 1f38 78cf a3bc
000003d0: 5f5e 3a3d 3308 833c befb 24bd ce2a 6a3d
000003e0: ed35 433d 6379 fbbb 71d0 e33d db6f f03c
000003f0: 42ff 79bc 37ab b33d bee4 75bb f1bc 8d3c

action_model._discrete_distribution.branches.3.bias f4 [2]
-0.10638768 0.10638787
00000000: c9e1 d9bd e2e1 d93d

action_model._discrete_distribution.branches.3.weight f4 [2, 256]
0.04296671 0.08288515 0.07577508 -0.11975872 -0.05925999 -0.05245674 0.057036154 0.065339215
-0.10697197 -0.00461133 -0.07353036 0.10920127 0.00128832 0.03121875 -0.12783334 0.21271321
0.25329322 -0.28809938 -0.01914559 0.064423375 0.19653793 -0.010460331 -0.015436345 0.1340886
0.2801027 -0.048155036 0.03182627 -0.11611223 -0.20669048 -0.18281029 0.02453099 0.066083185
-0.0067627844 -0.044652786 0.006742554 0.07392262 -0.16136059 -0.15676586 -0.049198236 0.05220604
-0.070841186 0.0018134221 0.10185459 -0.01339956 0.025738144 0.080510706 0.12779008 -0.04913269
0.0012040198 -0.043558873 0.036633804 0.1481083 0.19635905 0.053826146 0.09125301 -0.018588044
0.014786144 0.03167115 -0.038012747 -0.010549205 0.09350222 -0.078804225 -0.08416869 -0.09657451
0.08672724 -0.014155581 0.074419685 -0.041711014 -0.05020084 0.12727365 -0.07040422 -0.008145787
0.020441338 0.07518725 -0.0067614876 -0.2110916 0.10520213 -0.08196008 -0.09689527 0.062005073
0.010674007 0.049493644 -0.013054779 0.06868398 -0.17560902 -0.10248865 0.03898119 0.04026486
0.03716825 0.117739625 -0.09936155 -0.09652812 0.021845032 0.005649405 0.034678083 0.07707541
-0.07031616 -0.07718389 -0.035042148 -0.058475886 0.09923983 0.06284495 -0.3977932 -0.13692294
0.089159034 0.18611114 0.06925603 -0.024267925 0.016610041 0.13634259 0.03834638 0.116351634
0.09751331 0.02330228 -0.13003986 -0.09247232 0.07360906 0.0437104 0.103978224 0.088249676
0.09008671 0.032544065 -0.131225 -0.09657337 -0.10124259 0.00385701 0.05414762 -0.08752093
0.12270315 -0.21161881 -0.030272422 0.19883913 0.08213725 0.10683143 0.04548236 0.009612968
0.058441862 0.1185756 0.010901475 -0.035886098 -0.011852709 -0.03037241 0.06632536 0.28696856
0.021275967 0.0073558027 -0.09800394 -0.061770465 0.13450219 0.16539943 -0.039655164 0.006806809
-0.004508953 0.10268232 0.04060748 0.0054345913 -0.065167844 -0.11897547 0.046054102 0.058260404
-0.10313348 -0.07099331 0.2280879 -0.040389635 -0.11046823 0.07515162 0.038367912 -0.10898715
0.08674412 -0.18699446 -0.03442246 -0.23073627 -0.14918356 0.05199308 -0.26417962 -0.036448043
0.025042284 0.019903768 -0.1471242 0.122351155 -0.1710842 0.0040351073 -0.028479224 0.09045423
0.08725237 -0.039902046 0.07594456 0.06746249 0.14021496 0.05431267 0.00063821505 0.017633284
0.057881404 0.22197941 0.06294765 0.02175735 0.0725198 0.044266485 0.09888464 0.12100645
0.06529314 -0.018855726 0.033999804 -0.07505024 0.015942838 -0.10386696 -0.12176695 -0.16401732
-0.091579884 -0.02994334 -0.015155753 -0.041476544 0.070449285 0.084109925 0.042439494 0.10546541
0.016315944 0.103665136 0.07700879 0.030086935 -0.09180361 -0.020385105 0.25857723 0.0036779179
-0.018892782 -0.12110563 0.0022776998 -0.18047574 -0.06466812 0.034219943 0.1608931 -0.004957016
0.092765555 0.1475439 0.068198584 -0.017445872 -0.04900894 0.13781825 0.06986872 -0.1074692
0.21540314 -0.022817621 0.018635008 -0.080871634 -0.020165797 0.0028239526 0.039876346 -0.12349184
0.07036169 -0.04579481 0.004092538 0.03730741 0.15222028 0.077860996 0.066261865 -0.011729298
00000000: dcfd 2f3d b1bf a93d f72f 9b3d 0f44 f5bd
00000010: 9aba 72bd e1dc 56bd be9e 693d 91d0 853d
00000020: 1f14 dbbd a41a 97bb 1697 96bd eaa4 df3d
00000030: d9dc a83a 77be ff3c bee6 02be 7ed1 593e
00000040: a6af 813e c381 93be 36d7 9cbc 67f0 833d
00000050: 3d41 493e cf61 2bbc b9e8 7cbc 864e 093e
00000060: 9f69 8f3e 373e 45bd 435c 023d 40cc edbd
00000070: aba6 53be 9f32 3bbe 37f5 c83c 9f56 873d
00000080: 599a ddbb d7e5 36bd a4f0 dc3b be64 973d
00000090: b63b 25be 3b87 20be 1784 49bd 00d6 553d
000000a0: 2f15 91bd 59b0 ed3a 2499 d03d d489 5bbc
000000b0: cdd8 d23c cce2 a43d 67db 023e 5c3f 49bd
000000c0: 33d0 9d3a ca6a 32bd 540d 163d b4a9 173e
000000d0: 5912 493e ce78 5c3d dce2 ba3d f445 98bc
000000e0: 9541 723c 9cb9 013d 41b3 1bbd 93d6 2cbc
000000f0: 187e bf3d 1c64 a1bd a260 acbd dbc8 c5bd
00000100: 0d9e b13d cfec 67bc 5969 983d 2bd9 2abd
00000110: 659f 4dbd 0654 023e 1630 90bd e875 05bc
00000120: 9874 a73c c6fb 993d 788f ddbb 6528 58be
00000130: 3774 d73d b0da a7bd 0771 c6bd 08f9 7d3d
00000140: 08e2 2e3c d9b9 4a3d b6e3 55bc 30aa 8c3d
00000150: dad2 33be 92e5 d1bd beaa 1f3d c4ec 243d
00000160: bc3d 183d 7921 f13d 117e cbbd 89b0 c5bd
00000170: 5af4 b23c a51e b93b 9b0a 0e3d b6d9 9d3d
00000180: eb01 90bd 9612 9ebd 5b88 0fbd 6984 6fbd
00000190: 413e cb3d dab4 803d 8dab cbbe 8735 0cbe
000001a0: 0399 b63d eb93 3e3e 1bd6 8d3d 87cd c6bc
000001b0: c811 883c 649d 0b3e 1811 1d3d c449 ee3d
000001c0: 0fb5 c73d 6ce4 be3c 2b29 05be 2162 bdbd
000001d0: 59c0 963d ad09 333d 89f2 d43d 3fbc b43d
000001e0: 627f b83d ed4c 053d d95f 06be 42c8 c5bd
000001f0: 4658 cfbd e4c5 7c3b e5c9 5d3d 2c3e b3bd
00000200: ca4b fb3d 9ab2 58be dffd f7bc 7c9c 4b3e
00000210: 9337 a83d 70ca da3d b64b 3a3d b67f 1d3c
00000220: bc60 6f3d c4d7 f23d 1a9c 323c 4dfd 12bd
00000230: dd31 42bc 8fcf f8bc 97d5 873d 8bed 923e
00000240: f04a ae3c f208 f13b 4ab6 c8bd 0703 7dbd
00000250: f1ba 093e 785e 293e 746d 22bd a70b df3b
00000260: d7bf 93bb 1c4b d23d 0754 263d a814 b23b
00000270: b876 85bd 69a9 f3bd 3aa3 3c3d 76a2 6e3d
00000280: a537 d3bd f164 91bd e08f 693e 9a6f 25bd
00000290: 2b3d e2bd 18e9 993d ac27 1d3d a834 dfbd
000002a0: e7a6 b13d 7a7b 3fbe 91fe 0cbd 2146 6cbe
000002b0: 93c3 18be b2f6 543d 8d42 87be 8b4a 15bd
000002c0: 7a25 cd3c 3a0d a33c baa7 16be 3e93 fa3d
000002d0: b230 2fbe ef38 843b 434d e9bc 1140 b93d
000002e0: 5fb1 b23d 5470 23bd d288 9b3d c629 8a3d
000002f0: 8394 0f3e f676 5e3d e34d 273a ad73 903c
00000300: 0d15 6d3d 924e 633e b3ea 803d 783c b23c
00000310: 4385 943d c650 353d 0884 ca3d 3bd2 f73d
00000320: 69b8 853d 5377 9abc 6143 0b3d f1b3 99bd
00000330: 8e9a 823c 33b8 d4bd f360 f9bd 28f4 27be
00000340: 3c8e bbbd bc4b f5bc d64f 78bc 4fe3 29bd
00000350: b747 903d d341 ac3d 09d5 2d3d 40fe d73d
00000360: 04a9 853c 634e d43d c9b6 9d3d e078 f63c
00000370: 8803 bcbd aafe a6bc 3c64 843e 3909 713b
00000380: 09c5 9abc 3b06 f8bd 7645 153b a2ce 38be
00000390: b870 84bd 362a 0c3d 29c1 243e 776e a2bb
000003a0: defb bd3d c015 173e b3ab 8b3d a5ea 8ebc
000003b0: 99bd 48bd 3a20 0d3e 5517 8f3d d018 dcbd
000003c0: a492 5c3e 05ec babc 72a8 983c 07a0 a5bd
000003d0: be32 a5bc 1012 393b 6155 233d 4ae9 fcbd
000003e0: ca19 903d 5793 3bbd b21a 863b a8cf 183d
000003f0: a2df 1b3e 9675 9f3d 4db4 873d 3e2c 40bc

network_body.linear_encoder.seq_layers.0.bias f4 [256]
0.18778816 0.040068686 0.19887286 0.18652315 -0.07685575 0.012033071 0.006044904 0.105601236
0.121941656 0.016366683 0.103964075 0.009563573 0.032921787 0.20474161 0.011929089 0.16060416
-0.07854803 0.05576013 0.08690856 0.11089791 -0.07996698 -0.10398749 0.15559043 0.13283762
-0.0567481 0.12004405 0.18560761 -0.087333195 0.065148115 -0.08979523 0.18899003 0.10214156
-0.022040963 0.057357103 -0.025563281 0.090605654 0.013259152 -0.113617435 -0.021612594 0.17792559
0.08700229 -0.019340973 0.06658398 -0.036253918 -0.058833133 -0.083066285 -0.053613212 0.1680312
0.07018599 -0.008225367 0.14131741 0.075331174 0.17021713 0.08129105 -0.042592604 0.044672776
0.08128572 -0.041708335 -0.0044780616 0.02453334 0.07614041 0.07226101 0.10662422 0.076143436
-0.044780646 -0.106041946 -0.02031523 0.16670659 0.020991962 0.22471592 0.028358025 0.12333993
0.04946806 0.1034542 -0.089548685 -0.056192283 -0.013149048 0.120753236 0.06592339 0.1596746
-0.13266937 0.13981785 0.12082208 0.05420574 -0.038948543 -0.02561239 -0.009981118 -0.0564362
-0.11695182 0.2446422 0.2228676 -0.0016964909 0.078699626 0.04139949 0.027890667 -0.029183954
0.09382891 0.046624567 0.09558709 0.14927886 0.1500055 -0.16095608 0.21193647 0.11255548
0.13396706 -0.022184925 -0.07399976 0.1592034 0.18160763 -0.08948518 0.0011390438 0.0125984745
-0.037936866 0.03484818 -0.093875565 -0.109476194 0.09620751 0.10116121 0.10757883 0.21398568
0.17016582 0.11283988 0.073576845 0.22013138 0.041748576 0.0059371563 -0.039352834 -0.035461422
0.24536784 0.14593837 0.02285494 -0.056562386 0.17485493 0.064143986 -0.05401771 0.13496411
-0.04865994 0.05889236 0.18243092 0.09718637 -0.02634331 0.07674666 -0.08916746 0.22779654
0.17957352 0.124592975 0.1365879 0.062300626 0.10185024 0.04539164 0.170498 0.13805743
0.1346794 0.054093134 0.03689357 0.058794755 -0.12153142 0.016753217 0.035558783 -0.07775476
0.023896893 -0.019271523 0.007919689 -0.034756172 0.02476076 0.022865856 0.0016985487 0.08265894
-0.05643077 0.118651286 -0.0016018556 0.05166815 0.064474575 -0.00430909 -0.0087129455 -0.033821348
0.089587174 -0.08503703 -0.040620547 0.18557604 -0.1426096 -0.07700455 0.10411454 -0.016417462
0.118486464 0.0025853114 0.083970964 0.08417535 0.026945744 0.16087286 -0.03647056 -0.017276486
0.09097093 0.13828067 -0.09988965 -0.025036488 -0.08496026 0.0469534 -0.036973674 -0.10117595
0.07316224 0.019931091 0.038600773 -0.044268213 -0.04688502 0.043995425 0.27411905 0.11721976
-0.035253476 0.085470155 -0.04595934 -0.07657928 0.121524 -0.05459608 0.076472685 -0.08000906
0.0765381 0.12858348 0.10102886 0.1680573 -0.05079636 -0.063347034 0.02371966 0.12172611
0.093545504 -0.12268224 -0.108162165 -0.004328993 0.06860732 -0.027672851 0.1468834 0.09721162
0.020351559 0.059794772 0.03893745 0.039908644 0.19653507 0.17888576 0.005684831 0.044626903
0.060539916 0.035705443 -0.031764325 0.024067122 0.09091029 0.03429651 0.06754299 0.12851432
-0.05385289 0.07333409 -0.068775475 -0.06607924 -0.04051196 0.043514844 -0.09043878 0.06305928
00000000: 8a4b 403e 101f 243d 54a5 4b3e edff 3e3e
00000010: 8c66 9dbd 5c26 453c 5414 c63b 7645 d83d
00000020: 8cbc f93d 6c13 863c 1eeb d43d 88b0 1c3c
00000030: ffd8 063d c9a7 513e 3a72 433c 6b75 243e
00000040: cadd a0bd bc64 643d 1dfd b13d 721e e33d
00000050: bac5 a3bd 65f7 d4bd 1953 1f3e 9606 083e
00000060: b270 68bd a8d9 f53d ec0f 3e3e bfdb b2bd
00000070: 606c 853d 90e6 b7bd 9a86 413e 982f d13d
00000080: 408f b4bc 48ef 6a3d 166a d1bc 758f b93d
00000090: ea3c 593c 42b0 e8bd e50c b1bc 2032 363e
000000a0: 422e b23d f670 9ebc 2f5d 883d fd7e 14bd
000000b0: 03fb 70bd a81e aabd 8799 5bbd 5f10 2c3e
000000c0: acbd 8f3d b1c3 06bc 83b5 103e 3b47 9a3d
000000d0: 664d 2e3e ec7b a63d 9575 2ebd cdfa 363d
000000e0: 2179 a63d 5cd6 2abd b4bc 92bb 25fa c83c
000000f0: 81ef 9b3d 95fd 933d cd5d da3d 17f1 9b3d
00000100: e96b 37bd 852c d9bd 206c a6bc 22b5 2a3e
00000110: 56f7 ab3c ee1b 663e 174f e83c a599 fc3d
00000120: 059f 4a3d ccdf d33d 4d65 b7bd e129 66bd
00000130: 1b6f 57bc 794d f73d d802 873d bd81 233e
00000140: 7bda 07be 692c 0f3e 9171 f73d d706 5e3d
00000150: 8288 1fbd 13d1 d1bc d887 23bc a529 67bd
00000160: 7084 efbd 7c83 7a3e 6737 643e ca5c deba
00000170: 452d a13d 8392 293d f87a e43c 3013 efbc
00000180: 5f29 c03d 67f9 3e3d 2ac3 c33d 8fdc 183e
00000190: 0b9b 193e acd1 24be e005 593e 7d83 e63d
000001a0: a92e 093e 29bd b5bc 308d 97bd 3706 233e
000001b0: 5af7 393e 0244 b7bd f84b 953a d569 4e3c
000001c0: b063 1bbd f7bc 0e3d d541 c0bd 0e35 e0bd
000001d0: 7108 c53d 9c2d cf3d 4a52 dc3d 101f 5b3e
000001e0: f33f 2e3e 9818 e73d 75af 963d 1f6a 613e
000001f0: 8e00 2b3d 7a8c c23b 7030 21bd ff3f 11bd
00000200: b541 7b3e de70 153e 483a bb3c f6ad 67bd
00000210: 2c0d 333e ec5d 833d ad41 5dbd 0834 0a3e
00000220: a54f 47bd 1e39 713d 2ccf 3a3e a609 c73d
00000230: edcd d7bc 5a2d 9d3d 6e9d b6bd 7f43 693e
00000240: 1fe2 373e 9a2a ff3d b3dd 0b3e f12e 7f3d
00000250: dc96 d03d 96ec 393d 0797 2e3e ed5e 0d3e
00000260: 66e9 093e c390 5d3d b61d 173d c5d2 703d
00000270: 77e5 f8bd 0b3e 893c 16a6 113d e33d 9fbd
00000280: 6bc3 c33c 50df 9dbc 95c1 013c 7d5c 0ebd
00000290: 14d7 ca3c 2d51 bb3c d6a1 de3a 1749 a93d
000002a0: f323 67bd 72ff f23d 5bf5 d1ba fba1 533d
000002b0: 3f0b 843d 4433 8dbb bec0 0ebc 4188 0abd
000002c0: 7b79 b73d e527 aebd bb61 26bd a507 3e3e
000002d0: 4008 12be 90b4 9dbd 013a d53d ea7d 86bc
000002e0: 08a9 f23d 546e 293b f8f8 ab3d 2064 ac3d
000002f0: 52bd dc3c dbbb 243e 2762 15bd 6b87 8dbc
00000300: f84e ba3d 7399 0d3e f292 ccbd 5219 cdbc
00000310: a5ff adbd 3552 403d b571 17bd 5635 cfbd
00000320: 16d6 953d 8746 a33c d81b 1e3d 9652 35bd
00000330: 820a 40bd 8c34 343d 5559 8c3e ea10 f03d
00000340: f365 10bd fa0a af3d dc3f 3cbd 99d5 9cbd
00000350: 93e1 f83d 24a0 5fbd b69d 9c3d cadb a3bd
00000360: 02c0 9c3d 63ab 033e 38e8 ce3d 3617 2c3e
00000370: d80f 50bd 17bc 81bd bb4f c23c 8a4b f93d
00000380: c994 bf3d d440 fbbd 2084 ddbd 3ada 8dbb
00000390: ff81 8c3d 2db2 e2bc 9a68 163e e316 c73d
000003a0: 50b8 a63c 5deb 743d e07c 1f3d 3f77 233d
000003b0: 7d40 493e d42d 373e d247 ba3b b3ca 363d
000003c0: b4f8 773d df3f 123d 4f1b 02bd 6a28 c53c
000003d0: 2d2f ba3d 7f7a 0c3d fb53 8a3d 4299 033e
000003e0: d994 5cbd 2f30 963d 28da 8cbd 8d54 87bd
000003f0: deef 25bd 9f3c 323d f837 b9bd 3925 813d

network_body.linear_encoder.seq_layers.0.weight f4 [256, 75]
-0.0012564261 0.196478 0.12868544 0.33449015 0.16572967 0.026145967 -0.19781832 0.14940469
0.17564008 0.04956503 0.2786374 0.16440603 0.21054891 0.05018877 0.0845748 0.09939663
-0.061923232 -0.15739098 0.14593941 -0.061419208 0.25061998 0.057440493 -0.02466627 -0.17340586
-0.24176219 0.050934285 -0.20706236 0.027585901 0.089598246 0.09349088 0.1419076 -0.08983559
0.19726664 -0.417478 0.1710226 -0.016385313 0.19609435 -0.050501786 -0.20627593 0.005994676
0.107106335 -0.037962068 0.026173256 0.068619855 -0.08462983 -0.005824972 -0.11500095 -0.1113954
0.17561568 -0.002771451 -0.10357327 -0.05551946 -0.06775862 -0.11414365 -0.14016783 0.030453874
-0.17177834 0.15289342 0.061038457 -0.22038485 0.059166364 -0.020537522 -0.042800166 0.07994316
-0.2540706 0.14539382 0.18269272 -0.08196243 0.17522596 -0.044856437 -0.11966687 0.2714044
-0.13274297 0.20642035 0.21510884 -0.1471113 0.20340939 -0.04095611 0.23321383 0.14198591
0.060449712 0.03975907 0.070029646 0.0917351 0.13070396 0.05600582 -0.15746662 -0.013072365
0.03763629 -0.105670966 -0.013171681 -0.123711355 -0.15920985 0.1687674 0.3457543 -0.14874579
0.010982068 -0.011885348 -0.2340507 0.05927596 0.037779067 -0.064176045 -0.1905667 0.110134475
-0.009262439 0.007390291 0.22510536 -0.08753492 0.16170639 0.23181072 -0.028498929 -0.018835885
0.0074235443 0.008683541 -0.02462886 -0.18411373 -0.16725321 0.038409144 -0.27488372 0.1156908
-0.30839613 0.023129586 -0.04558091 0.094931 0.12652689 0.14087287 0.018729767 0.16495308
0.14766741 -0.12192567 -0.06651163 -0.051114116 -0.21627901 -0.126624 -0.012911574 -0.01119411
-0.08383973 -0.24156238 -0.25345805 -0.13567604 -0.083806224 0.1666715 0.06819663 -0.23910195
-0.018633142 0.0807647 -0.08753563 -0.005606063 0.150384 -0.31333962 0.18331437 -0.28949562
-0.076227605 -0.11168343 -0.023735039 -0.04097079 -0.066892795 0.118655026 -0.108209446 0.13865754
-0.15318494 0.054181296 -0.14400972 -0.19244139 0.093771234 0.004618339 -0.31649226 0.078192264
-0.12443856 -0.29402053 -0.04295931 0.07185367 0.10758928 0.20350505 -0.0097730765 0.024960201
-0.013686738 0.18246324 0.10544968 -0.01825589 0.13265209 -0.089643955 -0.12797143 0.07420689
0.27380076 0.06374668 0.2542869 0.09284122 -0.11865935 -0.045771234 0.20792918 -0.17742032
-0.08708305 -0.1407885 -0.024718856 -0.027221957 -0.051199287 0.057175703 -0.25937158 0.2958089
0.103281006 0.010586134 -0.08677539 -0.026870528 0.17139366 0.06970895 -0.3741304 -0.08078782
-0.044286035 0.026489718 0.07060378 -0.04496388 0.33747017 -0.007945719 0.23625289 0.26117072
-0.046817206 -0.0646617 -0.18330441 -0.048536465 0.022348348 -0.4431783 -0.07192485 -0.27143878
-0.2251226 0.06387253 -0.2293636 -0.15126482 -0.06737892 -0.10271482 -0.12356105 0.12431168
0.019863803 0.08253191 0.27421507 0.006903791 -0.16664185 -0.098975606 -0.17064553 -0.18172319
-0.123631455 0.037068512 -0.073028944 -0.16291918 0.035560526 -0.10724282 -0.18120381 -0.09591023
-0.05076764 0.19116916 -0.065556064 -0.14245199 0.05262744 0.05417301 -0.003839777 -0.11385288
00000000: aaae a4ba 8731 493e 1ec6 033e 4b42 ab3e
00000010: 0ab5 293e 1130 d63c e390 4abe 8bfd 183e
00000020: feda 333e b304 4b3d 90a9 8e3e 0e5a 283e
00000030: 229a 573e bd92 4d3d 8e35 ad3d 7690 cb3d
00000040: 37a3 7dbd 1a2b 21be 2471 153e b592 7bbd
00000050: 4351 803e b946 6b3d eb10 cabc 4e91 31be
00000060: 8290 77be 78a0 503d 2808 54be d4fb e13c
00000070: 497f b73d 2678 bf3d 3a50 113e b9fb b7bd
00000080: 4400 4a3e adbf d5be 8c20 2f3e 7e3a 86bc
00000090: f5cc 483e f6da 4ebd ff39 53be fd6e c43b
000000a0: 915a db3d 1d7e 1bbd 4c69 d63c 9188 8c3d
000000b0: 6852 adbd 68df bebb 9e85 ebbd 4523 e4bd
000000c0: 99d4 333e 3ba1 35bb 391e d4bd 6068 63bd
000000d0: 08c5 8abd 25c4 e9bd 2888 0fbe 677a f93c
000000e0: a9e6 2fbe 1890 1c3e 7603 7a3d 91ac 61be
000000f0: 6e58 723d 4e3e a8bc 3a4f 2fbd 3db9 a33d
00000100: 8b15 82be 1ee2 143e cd13 3b3e ebdb a7bd
00000110: 6f6e 333e 62bb 37bd e713 f5bd 84f5 8a3e
00000120: c6ed 07be db5f 533e 7e45 5c3e 58a4 16be
00000130: 8d4a 503e 98c1 27bd 9bcf 6e3e c164 113e
00000140: 1e9a 773d 68da 223d b46b 8f3d 9ddf bb3d
00000150: 42d7 053e 5c66 653d ee3e 21be 792d 56bc
00000160: 8328 1a3d 056a d8bd 09ce 57bc 615c fdbd
00000170: e807 23be 5cd1 2c3e b506 b13e d150 18be
00000180: 22ee 333c c3ba 42bc fdaa 6fbe 59cb 723d
00000190: 39be 1a3d bb6e 83bd eb23 43be 2f8e e13d
000001a0: 7cc1 17bc 412a f23b 0582 663e 8245 b3bd
000001b0: 5c96 253e ca5f 6d3e 9676 e9bc b74d 9abc
000001c0: 3441 f33b 6945 0e3c 77c2 c9bc 4f88 3cbe
000001d0: 6d44 2bbe e852 1d3d 8fbd 8cbe 4cef ec3d
000001e0: 19e6 9dbe 427a bd3c 0cb3 3abd 2f6b c23d
000001f0: 4490 013e fa40 103e 2b6f 993c 76e9 283e
00000200: 2036 173e 2ab4 f9bd 4037 88bd 095d 51bd
00000210: 3f78 5dbe b9a9 01be 118b 53bc 8067 37bc
00000220: 2ab4 abbd 215c 77be 41c5 81be a9ee 0abe
00000230: 99a2 abbd efab 2a3e adaa 8b3d 24d7 74be
00000240: 88a4 98bc f767 a53d e145 b3bd 11b3 b7bb
00000250: 43fe 193e 0d6e a0be c3b6 3b3e c538 94be
00000260: 381d 9cbd 48ba e4bd fc6f c2bc fdd0 27bd
00000270: 17ff 88bd 6801 f33d ea9c ddbd 3efc 0d3e
00000280: 83dc 1cbe 35ed 5d3d 4977 13be 5b0f 45be
00000290: 220b c03d 6f55 973b 460b a2be 4423 a03d
000002a0: a5d9 febd dc89 96be 1af6 2fbd 0428 933d
000002b0: c557 dc3d a163 503e 411f 20bc 5679 cc3c
000002c0: 573e 60bc a5d7 3a3e 00f6 d73d 608d 95bc
000002d0: f3d5 073e 4097 b7bd f10a 03be c8f9 973d
000002e0: 9d2f 8c3e 9f8d 823d e431 823e 8a23 be3d
000002f0: ac03 f3bd 9e7a 3bbd 63eb 543e acad 35be
00000300: 9958 b2bd dc2a 10be 337f cabc 9500 dfbc
00000310: 58b6 51bd 1231 6a3d 5acc 84be 4474 973e
00000320: fe84 d33d 7771 2d3c 4cb7 b1bd 951f dcbc
00000330: d281 2f3e 91c3 8e3d 058e bfbe 1674 a5bd
00000340: 4665 35bd f700 d93c b798 903d 0c2c 38bd
00000350: e4c8 ac3e c32e 02bc 47ec 713e 2bb8 853e
00000360: 66c3 3fbd 5a6d 84bd 27b4 3bbe 2cce 46bd
00000370: e213 b73c 44e8 e2be 564d 93bd 06fa 8abe
00000380: 8a86 66be 9acf 823d 4bde 6abe 2ae5 1abe
00000390: f6fd 89bd 265c d2bd 930d fdbd 1f97 fe3d
000003a0: 6ab9 a23c 7d06 a93d eb65 8c3e 3239 e23b
000003b0: 29a4 2abe b9b3 cabd b4bd 2ebe a515 3abe
000003c0: 7d32 fdbd 27d5 173d 3390 95bd 49d4 26be
000003d0: eaa7 113d 20a2 dbbd 7e8d 39be 956c c4bd
000003e0: bbf1 4fbd d9c1 433e 4242 86bd efde 11be
000003f0: df8f 573d 85e4 5d3d c5a4 7bbb b32b e9bd

network_body.linear_encoder.seq_layers.2.bias f4 [256]
-0.065438494 0.012528655 -0.0602037 0.0354101 0.059395578 0.009850146 -0.0041196886 0.052299395
0.018520728 0.06865159 0.03194744 -0.06389579 -0.038871024 0.07649587 0.12077968 -0.10424051
-0.08860704 0.048962027 0.045975704 -0.043898188 -0.067215875 0.0050543514 0.05641322 -0.14788665
-0.10153467 -0.0993979 -0.055566147 -0.051987454 0.072243035 0.14553154 -0.045101617 -0.19136758
0.027247451 -0.017077144 0.05487903 0.10808728 0.1005146 -0.008690407 -0.019412179 -0.09564466
-0.04854454 0.11584883 -0.059094887 0.17386825 -0.08783623 0.07880212 -0.06862185 0.114287704
0.09580779 0.08243854 -0.06826461 -0.07857486 -0.04838717 -0.109471805 -0.047782954 -0.05116333
0.18991499 0.080139056 -0.06251851 0.15099448 0.08266738 -0.021103546 -0.058443 -0.03589531
-0.030405492 -0.05085061 0.06593691 -0.06284391 0.013672687 -0.077651344 0.11406452 0.119784735
0.0399953 -0.07915472 -0.055904336 0.060046293 -0.064475745 0.1228719 0.0775395 -0.03341561
-0.05063389 0.037369754 -0.026247364 -0.04812541 0.100577824 0.030744579 -0.039378367 0.018431885
0.049929295 -0.05589665 0.07477995 0.12658276 -0.028520029 0.067708716 -0.06474298 -0.08044896
0.069098406 -0.105727606 -0.028414853 -0.09922393 -0.07693898 -0.17722483 0.109635785 -0.07347572
0.0046017393 -0.048733525 -0.06534932 0.09352402 0.13776001 -0.1370293 0.08003447 -0.07139212
-0.042703908 -0.077475965 -0.016112244 0.15348722 0.047079533 -0.093219236 -0.008481198 -0.14780262
-0.11269936 -0.03273029 -0.055115607 0.09152144 0.055308327 -0.02570283 0.013962812 0.11373448
-0.09592446 0.16602132 0.035718426 -0.12834652 -0.016412152 -0.0479606 0.029385597 -0.026637087
0.022968026 -0.17397974 0.09401143 -0.041548587 0.12205033 -0.021619858 0.09893517 -0.07242428
-0.10989312 -0.036980186 0.1271625 0.017432494 -0.054532208 -0.11428996 0.07069405 -0.06442884
0.007002122 -0.06456745 -0.058413852 -0.038297795 0.051930957 0.09203493 -0.007773252 -0.068067275
-0.009505519 0.05692534 -0.10818182 0.15935872 -0.019925702 -0.072487555 -0.04111134 0.09714484
-0.055601705 0.08834415 0.08562898 0.104792096 -0.031105332 0.04827212 0.06995435 0.19353956
-0.13084124 -0.011826102 0.04015994 -0.025662396 0.1314877 0.068667814 -0.020220539 -0.01868552
0.0007101477 -0.013410002 -0.08430055 -0.052456606 -0.03327926 -0.04951299 0.11836316 0.0055367406
-0.011396268 -0.13514948 -0.0046031135 -0.028266301 0.00284152 0.028925821 -0.0679956 -0.04408043
0.011738427 0.03436619 0.08307158 0.013961491 -0.08073354 0.048992347 -0.05865383 0.18120462
-0.017313559 0.033555802 0.03202533 0.022491256 -0.0400172 -0.06725772 -0.07177729 -0.086134195
-0.021605633 -0.05657708 -0.0843433 0.008178632 -0.102866806 0.12511836 -0.122145906 -0.15176463
-0.03695295 -0.0010966322 -0.14390641 0.07977743 -0.04173316 0.03313074 -0.037857395 -0.12105571
-0.1000179 -0.20897764 -0.04809867 -0.020889364 -0.16963603 -0.10694732 0.09351441 0.04947089
-0.13319755 0.09077342 0.08630297 0.049481556 0.047558885 -0.039525863 0.0777706 0.027633367
0.006385209 0.099136606 0.09815196 0.028596904 -0.16466074 -0.029786965 0.06386659 0.15191261
00000000: 9e04 86bd fd44 4d3c 2898 76bd 2e0a 113d
00000010: c748 733d 8262 213c 74fe 86bb e437 563d
00000020: c8b8 973c 3499 8c3d 52db 023d ccdb 82bd
00000030: 3937 1fbd dea9 9c3d 565b f73d 0c7c d5bd
00000040: 9c77 b5bd 688c 483d 0551 3c3d 96ce 33bd
00000050: 7aa8 89bd f99e a53b 8c11 673d 996f 17be
00000060: 69f1 cfbd 2091 cbbd 5499 63bd ccf0 54bd
00000070: 28f4 933d 3806 153e 79bc 38bd ddf5 43be
00000080: 0c36 df3c 5ee5 8bbc d5c8 603d dd5c dd3d
00000090: 99da cd3d 3562 0ebc 4a06 9fbc 59e1 c3bd
000000a0: a4d6 46bd 2742 ed3d 7b0d 72bd 850a 323e
000000b0: 7be3 b3bd 0263 a13d 9d89 8cbd ac0f ea3d
000000c0: e036 c43d 8ad5 a83d 51ce 8bbd dbeb a0bd
000000d0: a031 46bd c132 e0bd 0fb8 43bd a490 51bd
000000e0: 1379 423e f21f a43d b409 80bd 4c9e 1a3e
000000f0: 844d a93d 58e1 acbc ed61 6fbd f606 13bd
00000100: f014 f9bc bb48 50bd ee09 873d 4fb4 80bd
00000110: 6803 603c ab07 9fbd a99a e93d b351 f53d
00000120: 1dd2 233d df1b a2bd f2fb 64bd 1af3 753d
00000130: dc0b 84bd 43a4 fb3d 08cd 9e3d cfde 08bd
00000140: 7b65 4fbd 0711 193d b604 d7bc 261f 45bd
00000150: bffb cd3d 0edc fb3c 364b 21bd 77fe 963c
00000160: a982 4c3d e3f3 64bd 3b26 993d e99e 013e
00000170: d6a2 e9bc deaa 8a3d f897 84bd 6dc2 a4bd
00000180: 7783 8d3d b787 d8bd 44c6 e8bc ea35 cbbd
00000190: 2f92 9dbd 6d7a 35be ba88 e03d 707a 96bd
000001a0: 30ca 963b ce9c 47bd ddd5 85bd 8589 bf3d
000001b0: f610 0d3e 6951 0cbe 1de9 a33d 0836 92bd
000001c0: 4bea 2ebd b8ab 9ebd d3fd 83bc c12b 1d3e
000001d0: 78d6 403d bae9 bebd b9f4 0abc 9259 17be
000001e0: ecce e6bd 3210 06bd e7c0 61bd 986f bb3d
000001f0: fc8a 623d be8e d2bc 47c4 643c a0ed e83d
00000200: 0b74 c4bd 7e01 2a3e 7c4d 123d 456d 03be
00000210: c772 86bc 5672 44bd 10ba f03c 0536 dabc
00000220: 7127 bc3c bf27 32be 1189 c03d da2e 2abd
00000230: 86f5 f93d 211c b1bc 869e ca3d 2e53 94bd
00000240: a50f e1bd 8978 17bd e336 023e 97ce 8e3c
00000250: 2a5d 5fbd db10 eabd 0bc8 903d 45f3 83bd
00000260: 0e72 e53b f03b 84bd 5d43 6fbd 26de 1cbd
00000270: 8eb5 543d cf7c bc3d c4b6 febb db66 8bbd
00000280: 09bd 1bbc 8c2a 693d 6e8e ddbd ef2e 233e
00000290: 3a3b a3bc 5b74 94bd 5d64 28bd e0f3 c63d
000002a0: 9dbe 63bd c7ed b43d 3f5e af3d 3d9d d63d
000002b0: 9cd0 febc fdb8 453d 3a44 8f3d 3c2f 463e
000002c0: 3ffb 05be 44c2 41bc c07e 243d f239 d2bc
000002d0: b6a4 063e b6a1 8c3d 8ba5 a5bc 6012 99bc
000002e0: 3529 3a3a a0b5 5bbc c4a5 acbd bddc 56bd
000002f0: d54f 08bd 22ce 4abd 6268 f23d 8c6d b53b
00000300: 6ab7 3abc a064 0abe b7d5 96bb bb8e e7bc
00000310: cb38 3a3b d8f5 ec3c 4741 8bbd ae8d 34bd
00000320: 8852 403c 90c3 0c3d 6f21 aa3d bdbe 643c
00000330: a057 a5bd 33ac 483d 003f 70bd b48d 393e
00000340: 2ad5 8dbc cf71 093d fe2c 033d 953f b83c
00000350: 13e9 23bd 6abe 89bd f9ff 92bd 2067 b0bd
00000360: 4cfe b0bc 5ebd 67bd 2ebc acbd abff 053c
00000370: d5ab d2bd 071f 003e a227 fabd 3068 1bbe
00000380: fa5b 17bd dfbc 8fba 345c 13be 5962 a33d
00000390: 64f0 2abd 19b4 073d 5b10 1bbd 0eec f7bd
000003a0: 2fd6 ccbd 3cfe 55be 1c03 45bd 2c20 abbc
000003b0: 11b5 2dbe 3207 dbbd 7c84 bf3d fda1 4a3d
000003c0: f064 08be 6ae7 b93d 9dbf b03d 2cad 4a3d
000003d0: 1bcd 423d dfe5 21bd 3146 9f3d 5f5f e23c
000003e0: 043b d13b 2208 cb3d e503 c93d 0e44 ea3c
000003f0: d39c 28be cb03 f4bc 7dcc 823d fb8e 1b3e
