Assets/Models/13feb.onnx (onnx, 99462 bytes, 12 tensors)

action_model._discrete_distribution.branches.0.bias f4 [3]
-0.104786634 0.28088465 -0.11729065
00000000: 609a d6bd 1dd0 8f3e 1536 f0bd

action_model._discrete_distribution.branches.0.weight f4 [3, 128]
-0.6857756 -0.29269475 0.43598107 0.15104015 0.20801826 0.65438545 0.05386171 0.6029296
-0.9574395 -0.06359208 0.09001774 -0.32688442 1.1234624 -0.13799994 -0.21014409 0.8041283
-0.1213517 0.6903408 0.4597849 -0.21373814 0.6229359 -0.0017136495 -0.3774725 -0.29411042
-0.012783878 0.94055045 0.08636935 -0.15081084 0.13010432 0.082807496 -0.4844958 0.22475414
-0.5834785 0.3386297 -0.10925067 0.4300908 0.24867903 0.1567237 -0.0781378 0.3297836
0.23252085 0.26127368 0.07629263 -0.11048804 -0.1469723 -0.089874275 -0.1579052 0.17100435
-0.04859794 -0.049964387 0.14488149 0.32818845 -0.078803696 -0.013402642 0.018010901 -0.83797693
-0.21987802 0.12610067 -0.04996418 0.26714575 0.34189826 0.0444367 -0.16457938 0.2672883
-0.12723272 -0.20416005 0.14327411 0.46132433 0.6834828 0.11921721 0.17187878 0.13548559
-1.1019433 0.37469882 -0.22738744 0.26225615 -0.37194043 0.8326213 -0.24720651 0.15995876
0.2773138 0.4963083 0.27788052 0.7608556 0.73125887 0.037648734 0.22920752 -1.1653349
-0.013861898 0.18225136 -0.16401635 0.26271793 -0.7392657 0.024676222 -0.010573411 0.21561007
0.068190105 -0.12321225 0.10428797 0.18223245 0.21255733 0.18361823 0.48935586 0.5334759
0.46760127 -0.61297244 0.23997895 0.6177484 -0.213478 -0.027374841 -0.024967274 0.14828147
-0.11765877 -0.2608624 -0.11102545 0.35781512 -0.33277953 0.10884204 0.3731556 0.5216247
-0.20246807 0.22854953 0.27151725 0.2238303 -0.07414664 0.4358047 -0.090490304 0.35421333
0.24646078 0.05003646 -0.9730161 0.054682568 0.806531 -0.36404687 0.49164075 0.27283412
0.39789203 -0.2797868 -0.2472521 0.5369476 -0.8166699 0.20951784 0.3798074 -0.106289715
0.21974877 0.07512639 0.048318632 0.23920564 0.09127981 0.51508254 0.04843227 1.0734978
8.2343686e-05 -0.062338665 0.0122420285 0.56157035 0.2919057 -0.14473031 0.63605917 0.05364182
0.7370312 -0.3163821 -0.22305532 0.5066898 -0.3287798 0.17018785 -0.122004576 -0.5782099
-0.10164315 -0.38654998 0.023894306 0.065161645 0.43238273 0.27863044 0.54553473 0.5073072
0.31617516 -0.75070286 0.32726893 0.10565126 0.37217245 -0.2037666 -0.8388295 0.75222653
0.28179166 0.1401275 0.055643838 -0.21669708 -0.04000215 -0.049145292 0.16225743 -0.016210783
0.52068585 0.3722304 -0.113771565 -0.15612608 -0.33898243 0.33957496 -0.09435138 0.4050088
0.3870674 0.10972729 0.25810334 0.30160487 0.29439396 -0.24925825 0.6849984 0.034663998
0.053449716 0.22781366 -0.34002146 0.16525029 -0.3967992 0.4625875 0.1349841 0.8565195
0.30606917 0.19771723 0.1503679 -0.29081127 1.2044513 0.27393803 -0.14078581 -0.027126584
-0.19629301 0.72883785 -0.16859473 -0.22402358 0.36288542 -0.27608305 -0.15775536 -0.0016029798
-1.2918186 0.14195731 -0.12327651 0.682239 -0.023931764 -0.2997826 -0.3579016 -0.068559036
-0.12799169 0.41867957 0.77960026 0.053503 -0.2065673 -0.15089956 0.018773455 0.06763969
0.43366182 0.6096052 -0.13647503 -0.064774394 0.23880409 -0.36888787 -0.08212919 0.31172588
00000000: fd8e 2fbf 16dc 95be e938 df3e 45aa 1a3e
00000010: bd02 553e ce85 273f 199e 5c3d 9859 1a3f
00000020: c11a 75bf 903c 82bd 395b b83d 655d a7be
00000030: 9ecd 8f3f db4f 0dbe 0330 57be 5adb 4d3f
00000040: 3d87 f8bd 2dba 303f ed68 eb3e 2cde 5abe
00000050: ba78 1f3f 899c e0ba 1344 c1be a495 96be
00000060: 7873 51bc eac7 703f 6ae2 b03d 286e 1abe
00000070: 113a 053e fa96 a93d d50f f8be f325 663e
00000080: d95e 15bf df60 ad3e d1be dfbd dd34 dc3e
00000090: b7a5 7e3e 2d7c 203e b606 a0bd 65d9 a83e
000000a0: f219 6e3e aac5 853e 4f3f 9c3d 8e47 e2bd
000000b0: e87f 16be 0110 b8bd e7b1 21be c41b 2f3e
000000c0: a20e 47bd 75a7 4cbd d05b 143e 5108 a83e
000000d0: d563 a1bd c196 5bbc 998b 933c a885 56bf
000000e0: b427 61be 8920 013e 3da7 4cbd 54c7 883e
000000f0: 4a0d af3e 4203 363d 7f87 28be 03da 883e
00000100: 4b49 02be 550f 51be 73b6 123e b432 ec3e
00000110: bbf8 2e3f 2728 f43d fe00 303e bcbc 0a3e
00000120: 7a0c 8dbf 86d8 bf3e 41d8 68be 7046 863e
00000130: fa6e bebe ab26 553f b423 7dbe 3bcc 233e
00000140: 13fc 8d3e 1f1c fe3e 5b46 8e3e 6fc7 423f
00000150: c833 3b3f 8f35 1a3d 60b5 6a3e b229 95bf
00000160: 041d 63bc 1aa0 3a3e e7f3 27be f782 863e
00000170: 8440 3dbf ca25 ca3c 1a3c 2dbc e3c8 5c3e
00000180: 41a7 8b3d b456 fcbd ee94 d53d 259b 3a3e
00000190: a1a8 593e 6b06 3c3e da8c fa3e e091 083f
000001a0: 6f69 ef3e c3eb 1cbf 0bbd 753e c224 1e3f
000001b0: fa99 5abe 3441 e0bc 2b88 ccbc 19d7 173e
000001c0: 15f7 f0bd c28f 85be 5061 e3bd 8b33 b73e
000001d0: 1462 aabe 93e8 de3d 400e bf3e 3289 053f
000001e0: ca53 4fbe e308 6a3e 4f04 8b3e c533 653e
000001f0: 32da 97bd cb21 df3e fb52 b9bd 735b b53e
00000200: 3760 7c3e 08f3 4c3d 9517 79bf d4fa 5f3d
00000210: d178 4e3f 5a64 babe 56b8 fb3e eab0 8b3e
00000220: 81b8 cb3e 3740 8fbe a82f 7dbe 6675 093f
00000230: 4711 51bf d88b 563e 1e76 c23e 6cae d9bd
00000240: d205 613e dddb 993d c2e9 453d 53f2 743e
00000250: e9f0 ba3d 73dc 033f ea60 463d 6068 893f
00000260: eeaf ac38 d456 7fbd ca92 483c 13c3 0f3f
00000270: aa74 953e 2f34 14be c6d4 223f 86b7 5b3d
00000280: 14ae 3c3f d6fc a1be 9d68 64be 6cb6 013f
00000290: d355 a8be b945 2e3e 89dd f9bd 9005 14bf
000002a0: 492a d0bd e1e9 c5be febd c33c 7873 853d
000002b0: 4561 dd3e a6a8 8e3e 2aa8 0b3f e2de 013f
000002c0: b6e1 a13e 102e 40bf cb8f a73e b05f d83d
000002d0: 638d be3e 31a8 50be 88bd 56bf eb91 403f
000002e0: ff46 903e 957d 0f3e cbea 633d d7e5 5dbe
000002f0: 4bd9 23bd 934c 49bd d026 263e 7acc 84bc
00000300: ab4b 053f fc94 be3e 1101 e9bd 84df 1fbe
00000310: 1b8f adbe c5dc ad3e 4c3b c1bd 505d cf3e
00000320: b32d c63e b4b8 e03d 1f26 843e f46b 9a3e
00000330: ceba 963e 8e3d 7fbe 0e5c 2f3f d6fb 0d3d
00000340: 17ee 5a3d fc47 693e 4b17 aebe 5f37 293e
00000350: 4429 cbbe 45d8 ec3e 4639 0a3e dd44 5b3f
00000360: 19b5 9c3e 6376 4a3e 0bfa 193e 37e5 94be
00000370: 762b 9a3f 9b41 8c3e 282a 10be 9238 debc
00000380: 0901 49be 1e95 3a3f 19a4 2cbe 7066 65be
00000390: 1ecc b93e c25a 8dbe 9f8a 21be 141b d2ba
000003a0: 505a a5bf 425d 113e 6578 fcbd 37a7 2e3f
000003b0: 8c0c c4bc 1b7d 99be e13e b7be ae68 8cbd
000003c0: 4110 03be 2b5d d63e e293 473f f625 5b3d
000003d0: 6186 53be 6a85 1abe caca 993c ae86 8a3d
000003e0: ec08 de3e 160f 1c3f 1cc0 0bbe 70a8 84bd
000003f0: 0f89 743e dfde bcbe 5933 a8bd 899a 9f3e

action_model._discrete_distribution.branches.1.bias f4 [3]
-0.03781464 0.117543064 -0.049748402
00000000: 86e3 1abd 6bba f03d fbc4 4bbd

action_model._discrete_distribution.branches.1.weight f4 [3, 128]
-0.59348756 0.6736022 -0.106525354 -0.19556285 0.1618089 0.08021499 0.35152102 1.0906715
0.29472992 0.48104993 -0.15164752 -0.32635438 -0.48429832 0.1669305 0.28699934 -1.1861866
0.25125042 -0.14772175 0.5510237 0.17261237 -0.20008835 0.30446 0.08983763 0.6131347
0.18086304 -0.7211309 0.2366606 0.35395995 0.11419628 -0.18550627 0.4844126 0.044002943
0.05189914 -0.15935732 0.19809014 -0.04812046 0.11903955 0.06454225 -0.054268695 0.25274816
0.3014008 0.17110673 0.31960797 -0.10282447 -0.6017907 0.22167997 -0.021409666 0.32815626
0.20330645 0.64674056 -0.1780639 0.112165414 0.067043535 0.28583404 -0.12621592 0.5134238
0.12075124 -0.101331614 -0.29900578 -0.7154165 0.5743897 -0.16677362 -0.118435435 -0.16452889
0.3554684 0.06483489 0.16024864 0.15898666 0.01674426 -0.25906682 0.3549138 -0.4653044
-0.29136065 0.4014885 0.19023442 -0.28155768 0.144114 0.40668955 0.006408618 -0.81826437
0.31929743 0.36182085 0.4001765 0.649903 0.12490479 0.22465575 -0.15757 0.54057175
0.318242 0.13086389 0.45454258 0.61690414 -1.1478528 0.66056526 -0.6961184 0.22227308
-0.07864188 0.46346414 0.2154956 -0.24358022 -0.30166963 0.18060504 0.4377382 0.3643365
-0.2565184 0.044497084 0.016670989 0.7059121 0.44562656 0.10513052 0.038360342 -0.0802496
0.0021819747 0.49434945 -0.52321 -0.2285815 0.589786 -0.03392588 -0.1522784 0.092777796
-0.15474302 0.6397544 0.06670182 -0.0414301 0.06493578 0.3591509 -0.015750857 0.41092178
0.9338128 -0.7050241 -0.21367453 0.094141334 0.0348945 0.22575797 0.22246745 -1.0802703
0.23546872 -0.2632934 0.1529713 -0.028890364 -0.037828457 0.059561193 -0.16579491 0.30727997
0.15945469 -0.19118784 -0.6577333 0.56981087 0.28682408 -0.010089633 0.054286078 0.17140605
0.17094187 0.4544883 0.24384478 -0.16400181 0.061071288 0.01944351 -0.46667975 0.06488022
-0.11249481 0.06701477 0.08865573 0.14857498 -0.048176415 0.12165102 0.00198353 -0.07986792
0.06080234 -0.049977697 -0.19995467 0.41917697 0.463293 -0.63475513 0.022340383 -0.13052765
0.3989532 -0.66271174 0.42420083 0.43723583 0.12511058 0.30852863 0.20800592 0.30464798
-0.16381189 0.08829204 0.24550763 0.25069067 0.20341638 0.2970986 0.13432907 0.12037153
0.043595146 0.36772516 0.25709456 -0.06663225 0.43433136 0.26944417 -0.3727517 -0.13050786
-0.0081475945 0.061170004 0.17341755 -0.026420286 0.07956799 0.123467885 0.39353493 0.0004179056
0.32601735 -0.35448223 -0.0051608933 0.61294407 -0.4657781 0.19225848 0.23078798 0.26591
-0.4184793 -0.013890237 -0.3684043 -1.1482126 0.71994823 -0.24930094 0.8254818 -0.19403751
0.05968996 -0.032233696 -0.2591761 1.1993501 0.16510803 0.15219042 -0.016160082 -0.33716884
1.0475181 0.28911483 0.26583323 0.28831184 -0.18561502 0.34254065 0.71799237 -0.033864364
0.07168019 -0.36393654 0.069297194 0.50645596 0.12583722 0.602395 -0.015637077 0.3207189
0.15770595 0.33952025 0.49821982 -0.12964049 0.29160762 -0.09747396 0.17063451 0.20172095
00000000: cdee 17bf 3271 2c3f f729 dabd a141 48be
00000010: 3bb1 253e c247 a43d 90fa b33e 209b 8b3f
00000020: d7e6 963e 2d4c f63e 7d49 1bbe ec17 a7be
00000030: f3f5 f7be d4ef 2a3e 94f1 923e f6d4 97bf
00000040: e5a3 803e 5f44 17be e40f 0d3f 4cc1 303e
00000050: f6e3 4cbe 2ee2 9b3e cbfc b73d 65f6 1c3f
00000060: 2934 393e 099c 38bf 2857 723e 3d3a b53e
00000070: bddf e93d 5bf5 3dbe ee04 f83e 6e3c 343d
00000080: 3194 543d 912e 23be 24d8 4a3e f619 45bd
00000090: 02cb f33d ba2e 843d da48 5ebd 3568 813e
000000a0: 3551 9a3e 9a36 2f3e a8a3 a33e a395 d2bd
000000b0: f50e 1abf 1300 633e 5363 afbc 1904 a83e
000000c0: 912f 503e ca90 253f 6256 36be fbb6 e53d
000000d0: 1f4e 893d d758 923e bf3e 01be be6f 033f
000000e0: 6d4c f73d f386 cfbd 4917 99be 8925 37bf
000000f0: 340b 133f b4c6 2abe 478e f2bd 437a 28be
00000100: f4ff b53e 28c8 843d 3818 243e 66cd 223e
00000110: 422b 893c 68a4 84be 43b7 b53e 613c eebe
00000120: 392d 95be e78f cd3e d0cc 423e 5428 90be
00000130: 9f92 133e 9d39 d03e 62ff d13b c679 51bf
00000140: f47a a33e 9540 b93e efe3 cc3e 0b60 263f
00000150: 15ce ff3d 280c 663e 085a 21be e962 0a3f
00000160: 9ef0 a23e 2f01 063e ceb9 e83e 6eed 1d3f
00000170: d7ec 92bf ce1a 293f d134 32bf 8e9b 633e
00000180: fe0e a1bd 2c4b ed3e e1aa 5c3e 186d 79be
00000190: 7174 9abe 87f0 383e 391f e03e 508a ba3e
000001a0: 6156 83be 9342 363d 9991 883c a8b6 343f
000001b0: 2a29 e43e ac4e d73d bc1f 1d3d e759 a4bd
000001c0: 76ff 0e3b 5f1b fd3e 17f1 05bf 4511 6abe
000001d0: 37fc 163f ddf5 0abd deee 1bbe 4902 be3d
000001e0: f474 1ebe f2c6 233f f79a 883d 9cb2 29bd
000001f0: 0dfd 843d a0e2 b73e f107 81bc 5764 d23e
00000200: 5b0e 6f3f 767c 34bf 7fcd 5abe 2ccd c03d
00000210: 89ed 0e3d 192d 673e 82ce 633e 4c46 8abf
00000220: b61e 713e 64ce 86be 82a4 1c3e 7cab ecbc
00000230: 03f2 1abd 70f6 733d 24c6 29be cd53 9d3e
00000240: 1748 233e bfc6 43be 3661 28bf 20df 113f
00000250: 9bda 923e fd4e 25bc 145b 5e3d 1185 2f3e
00000260: 630b 2f3e b1b2 e83e 72b2 793e 17f0 27be
00000270: e325 7a3d ff47 9f3c a6f0 eebe ecdf 843d
00000280: ae63 e6bd 0a3f 893d 2391 b53d 0a24 183e
00000290: a254 45bd 2c24 f93d 1cfe 013b cb91 a3bd
000002a0: e00b 793d 6ab5 4cbd ebc0 4cbe 5d9e d63e
000002b0: bd34 ed3e 507f 22bf 2e03 b73c 0aa9 05be
000002c0: 9843 cc3e 7aa7 29bf da30 d93e 60dd df3e
000002d0: fd1c 003e 77f7 9d3e 81ff 543e d2fa 9b3e
000002e0: 4ebe 27be 75d2 b43d 5a66 7b3e 875a 803e
000002f0: 624c 503e 4f1d 983e 8f8d 093e 5985 f63d
00000300: d390 323d 7946 bc3e e6a1 833e 7d76 88bd
00000310: ae60 de3e 96f4 893e 50d9 bebe daa3 05be
00000320: 7d7d 05bc 668d 7a3d 5f94 313e 5b6f d8bc
00000330: 8bf4 a23d bbdc fc3d 697d c93e 571a db39
00000340: bfeb a63e b27e b5be b61c a9bb e7e9 1c3f
00000350: 787a eebe 68df 443e af53 6c3e 5b25 883e
00000360: eb42 d6be e093 63bc 7d9f bcbe a1f8 92bf
00000370: 874e 383f bf48 7fbe c652 533f c5b1 46be
00000380: 767d 743d 7b07 04bd bbb2 84be 4e84 993f
00000390: 1412 293e ced7 1b3e 2662 84bc 65a1 acbe
000003a0: 1315 863f dc06 943e 4b1b 883e 9c9d 933e
000003b0: dd11 3ebe 7d61 af3e 59ce 373f 5cb5 0abd
000003c0: 10cd 923d e455 babe b0eb 8d3d 19a7 013f
000003d0: 79db 003e 8f36 1a3f 5419 80bc 4535 a43e
000003e0: ab7d 213e 99d5 ad3e ab16 ff3e 7ac0 04be
000003f0: 984d 953e 6da0 c7bd d0ba 2e3e f08f 4e3e

action_model._discrete_distribution.branches.2.bias f4 [2]
0.0053735333 -0.005373015
00000000: 7714 b03b 1e10 b0bb

action_model._discrete_distribution.branches.2.weight f4 [2, 128]
0.4013677 0.6844588 0.9481495 0.055815328 0.7421178 0.24369968 0.048115887 -0.42283893
1.068388 -1.115779 -0.022499317 0.1572423 -0.20938674 0.36814255 -0.096159875 -0.76661086
-0.80259234 -0.34173024 -0.11720472 0.99789554 -0.28486827 0.25157532 0.1916027 -0.547437
0.054489754 0.56061435 -0.29348975 0.11473125 0.051636837 -0.054936145 -0.89551413 -0.21600929
0.011248675 0.63944024 -0.18921974 0.5173828 -0.24865851 -0.22652104 0.25712806 -0.6697688
0.28571224 0.05239322 0.44760507 -0.049267545 0.381774 -0.3135506 0.52774304 -0.12637182
0.13574682 0.27428213 0.16468844 -0.18432954 -0.100998074 -0.29558778 0.33698088 0.46391946
-0.0072375736 0.19026501 -0.032938357 -0.08272246 0.040989317 -0.33939633 -0.6402967 -0.2937108
0.31842774 0.058248974 -0.16548967 0.19812839 0.27814195 -0.044891376 -0.10763099 -0.466616
-0.39761642 -0.11445286 -0.08801861 -0.11119907 -0.16311139 -0.017032593 0.38085914 0.4666145
-0.351582 -0.29458338 0.37352037 -0.12273452 -0.11197991 0.44839498 -0.6208987 -0.092035756
-0.011132465 -0.2174053 0.07575647 -1.0355482 0.38125265 0.2947002 -0.038410477 0.21424566
-0.058959316 0.2782948 -0.20335315 -0.21259801 0.10266241 -0.32312274 0.06498115 0.48768362
0.71630055 0.296064 -0.030210106 0.16726533 0.40745106 -1.1529667 -0.5173221 0.012696513
-0.012350867 -0.06795399 0.13959903 0.010043814 -0.5496124 -0.323871 -0.1630275 -0.23852669
0.46832046 0.09248046 -0.27191764 0.059557535 -0.09693616 0.26216188 -0.29027122 0.4106804
-0.4089746 -0.6860619 -0.9257923 -0.056439586 -0.7282103 -0.23983325 -0.048389506 0.41684234
-1.0578283 1.1150571 0.021390159 -0.12581864 0.22757608 -0.37111604 0.0750296 0.7710797
0.8059049 0.34033456 0.119586796 -1.0199881 0.28931302 -0.2581977 -0.18500403 0.5528628
-0.069345705 -0.55850226 0.29071155 -0.12372372 -0.04699859 0.04753739 0.90238214 0.2174224
-0.0043154126 -0.6438658 0.18374643 -0.5304255 0.24414912 0.2389476 -0.25265968 0.6698012
-0.27764428 -0.049498595 -0.44304225 0.016791692 -0.38712707 0.2944878 -0.5129601 0.12792416
-0.1189243 -0.26272333 -0.16472358 0.17398998 0.097893834 0.2866235 -0.33452553 -0.45873293
-0.0025020046 -0.17357895 0.018657949 0.09036917 -0.023686426 0.33772254 0.65215194 0.29508564
-0.32225773 -0.046135895 0.17187299 -0.18497856 -0.27568895 0.034844354 0.13992792 0.4651372
0.41159165 0.11369042 0.1007164 0.13436843 0.13754432 0.005037633 -0.38756773 -0.47831288
0.34488246 0.30815488 -0.39077047 0.12600431 0.11098458 -0.45632285 0.6049268 0.12575011
0.023093056 0.20809875 -0.081269056 1.0518323 -0.3933639 -0.28993928 0.05586289 -0.2012911
0.042741206 -0.26390204 0.21636501 0.2153344 -0.11794594 0.31672174 -0.07324376 -0.49472746
-0.7113579 -0.30276537 0.01964862 -0.16214217 -0.38743332 1.1311367 0.5018655 -0.016616728
0.021449178 0.05887835 -0.14415535 -0.013385841 0.54858387 0.32574567 0.1554994 0.23665461
-0.4592246 -0.099023275 0.27569294 -0.05852499 0.0987949 -0.26120883 0.28481847 -0.39336792
00000000: 1180 cd3e b138 2f3f edb9 723f 9d9e 643d
00000010: 6ffb 3d3f 698c 793e 2a15 453d 587e d8be
00000020: f0c0 883f d9d1 8ebf 7d50 b8bc 2004 213e
00000030: 7a69 56be 2e7d bc3e 78ef c4bd 9c40 44bf
00000040: b176 4dbf 44f7 aebe 0709 f0bd 1576 7f3f
00000050: 41da 91be 7bce 803e 8033 443e d524 0cbf
00000060: a630 5f3d 6c84 0f3f 4a44 96be 38f8 ea3d
00000070: 2681 533d b904 61bd 6a40 65bf 8a31 5dbe
00000080: 5d4c 383c 5bb2 233f d2c2 41be 3373 043f
00000090: 56a0 7ebe 22f5 67be 4aa6 833e f875 2bbf
000000a0: e048 923e 469a 563d 7e2c e53e c4cc 49bd
000000b0: e277 c33e b489 a0be 2b1a 073f 9d67 01be
000000c0: 3701 0b3e b56e 8c3e 16a4 283e e2c0 3cbe
000000d0: 14d8 cebd 4857 97be c288 ac3e da86 ed3e
000000e0: 2b29 edbb d5d4 423e 5fea 06bd 656a a9bd
000000f0: 6ae4 273d 5bc5 adbe 7cea 23bf 4361 96be
00000100: f608 a33e 7a96 6e3d 2076 29be 2be2 4a3e
00000110: 9f68 8e3e 05e0 37bd a36d dcbd 4be8 eebe
00000120: 6194 cbbe 4366 eabd 1a43 b4bd 57bc e3bd
00000130: ac06 27be f087 8bbc f8ff c23e 19e8 ee3e
00000140: 8e02 b4be a2d3 96be 103e bf3e 3c5c fbbd
00000150: b955 e5bd 0794 e53e 38f3 1ebf 3e7d bcbd
00000160: f164 36bc 7f9f 5ebe 3526 9b3d d88c 84bf
00000170: 8c33 c33e f2e2 963e 4e54 1dbd 3763 5b3e
00000180: 537f 71bd a87c 8e3e cf3b 50be 4bb3 59be
00000190: ab40 d23d 5870 a5be d614 853d abb1 f93e
000001a0: 795f 373f b395 973e 2f7b f7bc 9a47 2b3e
000001b0: 6d9d d03e 6a94 93bf 396f 04bf 0905 503c
000001c0: 4a5b 4abc 762b 8bbd 0cf3 0e3e cf8e 243c
000001d0: 66b3 0cbf 6bd2 a5be aef0 26be 5740 74be
000001e0: b3c7 ef3e 6566 bd3d ca38 8bbe 9af2 733d
000001f0: 7786 c6bd 153a 863e 6e9e 94be b444 d23e
00000200: 1e65 d1be c1a1 2fbf b900 6dbf 322d 67bd
00000210: fd6b 3abf d996 75be 1334 46bd 5c6c d53e
00000220: eb66 87bf 31ba 8e3f 6a3a af3c 9ad6 00be
00000230: b409 693e ec02 bebe 1ea9 993d 7b65 453f
00000240: c94f 4e3f 5540 ae3e ece9 f43d f88e 82bf
00000250: d620 943e 7d32 84be b271 3dbe 6b88 0d3f
00000260: 1f05 8ebd 01fa 0ebf 25d8 943e dd62 fdbd
00000270: 9881 40bd 91b6 423d 8402 673f faa3 5e3e
00000280: 4e68 8dbb 64d4 24bf 0628 3c3e f7c9 07bf
00000290: 3a02 7a3e aeae 743e 9c5c 81be 1778 2b3f
000002a0: 6427 8ebe 0abf 4abd 6fd6 e2be bb8e 893c
000002b0: 8535 c6be 1bc7 963e 5a51 03bf 8dfe 023e
000002c0: 958e f3bd ac83 86be 4cad 28be 6e2a 323e
000002d0: 907c c83d 51c0 923e ee46 abbe 0bdf eabe
000002e0: acf8 23bb aebe 31be 8ed8 983c 7913 b93d
000002f0: 090a c2bc f8e9 ac3e 6ef3 263f 7715 973e
00000300: f7fe a4be fef8 3cbd 79ff 2f3e 056b 3dbe
00000310: 1a27 8dbe f4b8 0e3d 4449 0f3e 7726 ee3e
00000320: 24bc d23e 86d6 e83d 6644 ce3d e197 093e
00000330: 6bd8 0c3e ba12 a53b 476f c6be 6de5 f4be
00000340: 6f94 b03e 7ac6 9d3e 1113 c8be 4607 013e
00000350: e24b e33d 26a3 e9be 7cdc 1a3f a3c4 003e
00000360: a62d bd3c d717 553e 6470 a6bd 71a2 863f
00000370: fe66 c9be ec72 94be 7cd0 643d 411f 4ebe
00000380: 6711 2f3d 2b1e 87be ca8e 5d3e 9f80 5c3e
00000390: a48d f1bd 5a29 a23e d300 96bd eb4c fdbe
000003a0: 8d1b 36bf 1004 9bbe 25f6 a03c 9908 26be
000003b0: a95d c6be 16c9 903f 427a 003f ce1f 88bc
000003c0: 30b6 af3c 6d2a 713d 769d 13be 4950 5bbc
000003d0: fe6f 0c3f 23c8 a63e 3c3b 1f3e 9655 723e
000003e0: 7d1f ebbe b7cc cabd a027 8d3e e6b7 6fbd
000003f0: fb54 ca3d 2abd 85be bad3 913e 8567 c9be

action_model._discrete_distribution.branches.3.bias f4 [2]
0.0060964203 -0.006096247
00000000: 7bc4 c73b 07c3 c7bb

action_model._discrete_distribution.branches.3.weight f4 [2, 128]
-0.080922 -0.88460404 -0.2386304 -0.20555043 -0.86520267 0.5260199 0.22006986 0.23917566
0.15140697 -0.18631752 -0.020982813 0.018039657 -0.2512898 -0.03392699 -0.105113946 -0.32491645
-0.119274564 -0.054884363 -0.05808831 -0.021941928 -0.0020143476 0.2947235 0.0025614598 0.10000085
-0.22628902 0.36349326 -0.15962261 -0.057425063 0.14030379 0.055373352 0.4034503 0.24659485
-0.09523286 0.12196495 0.15523292 -0.7170301 0.004896036 -0.04889004 -0.12950201 0.289909
-0.09245737 -0.2313304 0.16891247 -0.018132335 -0.36454093 0.20147385 -0.007084029 -0.27466315
0.09132193 -0.60698014 -0.07570866 0.10668096 -0.16261706 -0.25856975 1.5211899 -0.34245116
-0.15786397 0.21724647 0.12394939 0.12987043 -0.023969447 0.1448752 -0.059502188 0.14713094
-0.26726672 0.056837518 -0.10971168 0.27131262 -0.3348755 0.24409615 0.4231074 0.5584733
-0.53561527 0.20774268 0.21825238 0.27305716 0.27469566 0.52105707 -0.52642304 -0.11568635
0.059779722 -0.34112808 0.013838566 -0.56363463 -0.22241932 0.034254845 -0.09482442 -0.5518922
0.014499751 -0.22574873 -0.106378265 0.36067346 -0.6656228 -0.525212 -0.17798695 0.073561996
-0.13732573 0.5257915 0.37046558 0.26698655 -0.095756955 -0.08054092 0.16082881 -0.085976385
-0.9259752 -0.018034028 -0.11304454 -0.169614 0.029881489 -1.2086296 0.1381951 0.08187916
-0.17474636 0.1252375 -0.37715936 -0.26580665 0.53940254 0.057437994 0.3628279 -0.046597067
-0.4141953 0.34049433 0.18725695 -0.20454542 0.3248611 -0.20821291 0.009844086 0.095830776
0.07162763 0.8959741 0.24886388 0.19068758 0.88872015 -0.5351633 -0.21293749 -0.23836409
-0.16667606 0.19380614 0.0010297939 -0.0017646933 0.25451615 -0.008764166 0.09611593 0.33044043
0.1268297 0.060177326 0.05570243 0.023936404 0.0059518754 -0.28678304 -0.006899394 -0.081775784
0.23241483 -0.3692134 0.124592 0.06786866 -0.14555888 -0.07273012 -0.3833575 -0.25491902
0.106874794 -0.11598434 -0.16114204 0.686275 -0.038861006 0.04763312 0.11971238 -0.27231988
0.07149402 0.23929685 -0.1790032 0.020431045 0.37136048 -0.18160313 0.014422163 0.273071
-0.08039853 0.6109929 0.08071722 -0.09850672 0.17512167 0.26612264 -1.5222838 0.34822914
0.16669345 -0.21652168 -0.13442428 -0.11570033 0.040554293 -0.14140856 0.029022237 -0.1547094
0.25369942 -0.060883585 0.11550172 -0.2838064 0.34516224 -0.25364992 -0.43217707 -0.5498316
0.5303122 -0.22400239 -0.23084298 -0.2693998 -0.28181395 -0.5233807 0.5231054 0.09777446
-0.057793777 0.34950122 -0.045439903 0.5729265 0.22263594 -0.041074485 0.10066639 0.5457332
-0.0153804505 0.2243634 0.087464586 -0.35099092 0.66967356 0.54895335 0.16956101 -0.10877069
0.132787 -0.53032184 -0.37324002 -0.26508492 0.10261637 0.06889186 -0.15341397 0.084315054
0.8924963 0.0014370556 0.10795322 0.17171846 -0.038504273 1.2137975 -0.13466322 -0.09145084
0.14924565 -0.12631664 0.3810663 0.26509485 -0.5488335 -0.058651403 -0.37173235 0.048036326
0.4444931 -0.34360975 -0.18682933 0.20064704 -0.31461787 0.20597665 -0.0245846 -0.106020674
00000000: 6fba a5bd 6975 62bf 875b 74be d07b 52be
00000010: ec7d 5dbf 3da9 063f fe59 613e 77ea 743e
00000020: 6e0a 1b3e 05ca 3ebe 26e4 abbc e7c7 933c
00000030: 0fa9 80be 07f7 0abd fb45 d7bd 735b a6be
00000040: 3946 f4bd 6dce 60bd 02ee 6dbd 8fbf b3bc
00000050: 2503 04bb 00e6 963e 2ade 273b 3fcd cc3d
00000060: 4fb8 67be ca1b ba3e 1c74 23be 8b36 6bbd
00000070: ccab 0f3e 2bcf 623d 0a91 ce3e 5c83 7c3e
00000080: 7209 c3bd c2c8 f93d 61f5 1e3e 498f 37bf
00000090: ed6e a03b ec40 48bd 2d9c 04be f46e 943e
000000a0: 4a5a bdbd e0e1 6cbe 64f7 2c3e 438a 94bc
000000b0: 1ca5 babe 294f 4e3e 2421 e8bb a6a0 8cbe
000000c0: fe06 bb3d 0d63 1bbf 240d 9bbd 8c7b da3d
000000d0: 1685 26be 4163 84be 5ab6 c23f c255 afbe
000000e0: 18a7 21be dc75 5e3e 2ed9 fd3d c1fc 043e
000000f0: 935b c4bc 2a5a 143e 91b8 73bd 7ea9 163e
00000100: 2fd7 88be 75ce 683d 84b0 e0bd 7de9 8a3e
00000110: cd74 abbe 57f4 793e 88a1 d83e 1bf8 0e3f
00000120: 151e 09bf 7fba 543e 8d7d 5f3e 26ce 8b3e
00000130: e9a4 8c3e ff63 053f a9c3 06bf f7ec ecbd
00000140: 95db 743d 57a8 aebe 27bb 623c 5c4a 10bf
00000150: e4c1 63be cf4e 0c3d 4e33 c2bd cf48 0dbf
00000160: 5d90 6d3c ad2a 67be d9dc d9bd 31aa b83e
00000170: 4166 2abf 4b74 06bf 3642 36be aca7 963d
00000180: 1e9f 0cbe 469a 063f aaad bd3e 76b2 883e
00000190: 391c c4bd a3f2 a4bd 4fb0 243e 6314 b0bd
000001a0: b60c 6dbf 19bc 93bc e583 e7bd 4baf 2dbe
000001b0: 06ca f43c 60b4 9abf 0483 0d3e 43b0 a73d
000001c0: b6f0 32be 423e 003e 081b c1be cf17 88be
000001d0: 4916 0a3f 1a44 6b3d 94c4 b93e 91dc 3ebd
000001e0: 6811 d4be 4655 ae3e 49c0 3f3e 5b74 51be
000001f0: 3254 a63e c435 55be 1749 213c ed42 c43d
00000200: 82b1 923d 8f5e 653f 2cd6 7e3e 9b43 433e
00000210: 2a83 633f 7600 09bf 490c 5abe b715 74be
00000220: 21ad 2abe 1e75 463e 26fa 863a 484d e7ba
00000230: f14f 823e 9497 0fbc 6ed8 c43d 7d2f a93e
00000240: a5df 013e 807c 763d 3b28 643d 4716 c43c
00000250: f307 c33b 3ad5 92be 5014 e2bb 107a a7bd
00000260: 27fe 6d3e 8a09 bdbe 172a ff3d b9fe 8a3d
00000270: 630d 15be 87f3 94bd 6f47 c4be bf84 82be
00000280: 2ce1 da3d 3389 edbd 6b02 25be b8af 2f3f
00000290: b82c 1fbd f21a 433d c42b f53d 836d 8bbe
000002a0: 756b 923d 3c0a 753e 9d4c 37be 025f a73c
000002b0: f622 be3e 2cf6 39be f04a 6c3c f6cf 8b3e
000002c0: fca7 a4bd 086a 1c3f 124f a53d e4bd c9bd
000002d0: 1853 333e 3a41 883e 32da c2bf 174b b23e
000002e0: b0b1 2a3e dcb7 5dbe 85a6 09be 4bf4 ecbd
000002f0: 421c 263d 68cd 10be 0bc0 ed3c 246c 1ebe
00000300: e4e4 813e 1161 79bd 2a8c ec3d 134f 91be
00000310: 1bb9 b03e 67de 81be 5046 ddbe c4c1 0cbf
00000320: 8ac2 073f e260 65be 1a62 6cbe c5ee 89be
00000330: eb49 90be 47fc 05bf 3cea 053f fa3d c83d
00000340: 2bb9 6cbd d3f1 b23e 311f 3abd 50ab 123f
00000350: adfa 633e b83d 28bd 2e2a ce3d 2cb5 0b3f
00000360: 49fe 7bbc 85bf 653e a220 b33d 15b5 b3be
00000370: ba6f 2b3f 3588 0c3f 67a1 2d3e 2bc3 debd
00000380: 51f9 073e 2cc3 07bf 5119 bfbe 36b9 87be
00000390: 8828 d23d 2d17 8d3d 8d18 1dbe 5fad ac3d
000003a0: a37a 643f 965b bc3a 9416 dd3d f7d6 2f3e
000003b0: a8b6 1dbd b75d 9b3f 28e5 09be 944a bbbd
000003c0: dad3 183e 2659 01be 1f1b c33e 83ba 873e
000003d0: 5a80 0cbf 743c 70bd b453 bebe bdc1 443d
000003e0: 9994 e33e 9eed afbe 3050 3fbe 6b76 4d3e
000003f0: 9815 a1be 8beb 523e a565 c9bc 5e21 d9bd

network_body.linear_encoder.seq_layers.0.bias f4 [128]
-0.0550247 0.06698727 -0.07479722 0.14361253 0.21515998 -0.036161173 -0.06279897 0.4339666
-0.10056951 0.013480978 -0.17481583 -0.015634185 0.13557619 -0.14090237 -0.21587354 0.05822368
-0.18611418 -0.38332477 0.10899381 -0.12242758 0.085012294 -0.10397073 0.024397792 -0.048186496
0.036174137 -0.060227532 -0.035752963 -0.090472706 0.20666927 0.047147978 -0.051083595 -0.1086566
-0.11529259 0.106602535 0.05879639 -0.04948948 -0.09381837 0.006261939 -0.13118587 -0.039096728
0.09127123 0.13918439 0.053165372 -0.26767936 -0.18123104 0.16524808 0.11480513 -0.019817233
-0.26175296 0.16275112 0.058978863 -0.09623016 0.15474458 0.030732812 -0.17229939 0.06094637
0.3762251 -0.17788234 -0.0061395303 0.106781095 -0.13043676 -0.018019764 -0.17424248 -0.31992015
0.24755305 -0.08790536 -0.034006618 0.25535035 0.30009076 0.11221537 -0.025991863 -0.24676973
0.10013981 -0.007836587 0.07476737 0.15367052 0.08303408 -0.03141039 -0.3767763 -0.14417952
-0.004633122 -0.030221872 0.007739078 -0.18548536 0.18068118 -0.20304142 -0.09621167 0.02551726
0.18098927 0.052387055 -0.05652894 0.06542618 0.3915636 0.03709496 -0.045802593 -0.02264465
-0.11964339 -0.038718093 0.051068466 0.058906756 -0.17407282 0.09557024 0.300312 0.08091696
0.22162464 -0.011403844 -0.14096572 0.01379762 -0.027933763 -0.113886766 -0.12126769 0.16389953
0.047316514 -0.033855323 0.024511142 0.12071993 -0.09850853 -0.13975532 0.0744241 -0.09245455
0.08417152 -0.10429048 0.06599543 0.13302784 0.053278793 0.012404266 -0.10813884 -0.15835133
00000000: 9461 61bd 9f30 893d 492f 99bd 2a0f 133e
00000010: e652 5c3e bd1d 14bd bf9c 80bd df30 de3e
00000020: 63f7 cdbd 52df 5c3c ec02 33be 4313 80bc
00000030: 7cd4 0a3e b648 10be f40d 5dbe f47b 6e3d
00000040: b794 3ebe 2543 c4be 2638 df3d 50bb fabd
00000050: ed1a ae3d 9bee d4bd e1dd c73c 345f 45bd
00000060: 552b 143d 25b1 76bd b371 12bd c149 b9bd
00000070: 1ca1 533e 3d1e 413d 083d 51bd 5a87 debd
00000080: 851e ecbd 6e52 da3d 7cd4 703d 7bb5 4abd
00000090: d823 c0bd f430 cd3b 9755 06be e423 20bd
000000a0: 69ec ba3d 5a86 0e3e efc3 593d 450d 89be
000000b0: a194 39be cb36 293e f41e eb3d c057 a2bc
000000c0: 7c04 86be 3ba8 263e d293 713d 5114 c5bd
000000d0: 5d75 1e3e 61c3 fb3c 406f 30be e7a2 793d
000000e0: 94a0 c03e ca26 36be 1d2e c9bb 0cb0 da3d
000000f0: 3791 05be 2f9e 93bc 9f6c 32be 93cc a3be
00000100: 8c7e 7d3e ba07 b4bd 864a 0bbd 48bd 823e
00000110: 7fa5 993e 2cd1 e53d e3ec d4bc 34b1 7cbe
00000120: 1a16 cd3d 0765 00bc a31f 993d ce5b 1d3e
00000130: c60d aa3d 2ea8 00bd d3e8 c0be cca3 13be
00000140: 72d1 97bb dc93 f7bc 1798 fd3b e0ef 3dbe
00000150: 7d04 393e 17ea 4fbe a00a c5bd 9309 d13c
00000160: 4055 393e cf93 563d e48a 67bd 29fe 853d
00000170: 067b c83e e3f0 173d 809b 3bbd 4681 b9bc
00000180: 9807 f5bd dd96 1ebd 2b2d 513d 3648 713d
00000190: 2540 32be 54ba c33d 7fc2 993e cbb7 a53d
000001a0: 92f1 623e 30d7 3abc 5159 10be 6a0f 623c
000001b0: 59d5 e4bc 773d e9bd 325b f8bd 47d5 273e
000001c0: f6ce 413d e1ab 0abd 97cb c83c 033c f73d
000001d0: d7be c9bd 051c 0fbe aa6b 983d d058 bdbd
000001e0: 1e62 ac3d 3f96 d5bd 9d28 873d 7338 083e
000001f0: dd3a 5a3d 433b 4b3c e577 ddbd da26 22be

network_body.linear_encoder.seq_layers.0.weight f4 [128, 45]
0.17106912 -0.21304446 -0.69170487 -0.3195206 -0.054724634 0.34359047 -0.2861371 0.57442766
-0.6899404 -0.4085002 -0.21194759 -0.30289975 -0.8760303 -0.0037906356 -0.45872772 0.07647531
0.33241805 -0.27811396 0.25740123 -0.13495852 -0.52096117 -0.5959695 -0.15793619 -0.12118352
-0.27764785 -0.18830806 -0.29778612 0.001240943 -0.41139022 -0.018636243 -0.7795043 -0.5939812
-0.021121968 -0.062582836 -0.0960936 -0.049694613 -0.11684682 -0.5016324 0.52254754 -0.03894954
0.12969516 0.3175982 -0.22068079 -0.32064196 -0.0033825922 0.48542905 0.32740647 0.5651508
0.040564444 0.17274721 0.06608323 0.1544954 -0.49719182 -0.105649225 0.41988748 0.3734411
0.1182472 -0.111921534 -0.38375095 -0.0164002 -0.21730527 -0.37627324 0.4154389 0.31786072
0.2995216 -0.5008893 -0.11083183 -0.3213655 0.00832489 0.040016837 -0.058276344 0.0069984
0.32776347 0.5602283 -0.11943907 0.18627971 0.3749105 -0.09994361 0.18092117 -0.033238098
-0.2304087 0.17721127 0.35577568 0.19422455 -0.08884012 0.20093404 0.063423 0.053836916
-0.57343084 -0.82492644 0.11213807 0.26622298 -0.60315096 0.61478806 0.4625339 0.42440757
-0.11187079 -0.31627864 -0.07954394 -0.09967813 0.52564406 -0.16414832 -0.018444465 0.08972691
0.057736102 -0.18332912 -0.38499063 -0.050469007 0.1680196 -0.07664147 -0.0023315812 -0.24845941
-0.15721902 0.27446327 -0.1764235 -0.6744148 0.029862814 -0.080809355 0.19080116 0.043249905
0.0649508 -0.5651709 0.0751426 -0.1722862 -0.03991365 -0.26685053 0.15822317 0.13727051
-0.15264125 0.55130243 -0.30132622 0.078258395 -0.005799381 -0.35376412 -0.5961207 -0.047461886
0.21354449 -0.17959994 0.44828904 0.30616197 0.20209776 0.2812494 -0.09913332 -0.3661846
0.1256202 0.21101025 -0.10530262 0.22679336 0.013649429 -0.077975295 0.23558336 -0.4918898
-0.05615606 0.4233008 0.2050072 -0.042386334 -0.8214823 -0.2468335 0.33023962 -0.4184516
-0.37299728 -0.35116354 -0.1013819 0.03458821 -0.08881013 -0.26741064 -0.1158364 -0.223294
-0.25247562 -0.69793934 -0.13175946 0.039217073 0.013226451 0.38339543 -0.14755483 -0.16282772
-0.45215636 0.014896946 -0.19553414 -0.6145785 -0.021743396 0.18135422 -0.3044668 -0.43212736
0.6067059 0.09939331 0.36052707 -0.044127088 -0.45472232 -0.0055000833 -0.057700515 -0.014832065
-1.0020617 0.12700924 -0.032277297 0.26388192 -0.045277707 -0.32676548 0.23532371 -0.11497439
0.21542425 -1.1344202 0.2147985 -0.0340258 -0.14572655 -0.013130676 -0.018285993 0.33447957
0.13178504 0.6159916 -0.7397914 0.84896964 -0.16337515 0.23440126 0.52616256 -0.49971268
0.22416233 -0.034194034 0.33832076 -0.5088115 0.24277753 0.23360203 0.47582787 0.17887251
-0.038953777 -0.4885081 0.047208104 0.28457388 0.61897826 0.18521294 0.356208 0.23243262
-0.2793347 -0.16820772 -0.095679745 0.31897417 0.26992065 -0.22194211 0.023596294 0.63952595
0.10828542 -0.051590394 -0.3052788 -0.21770702 0.029099667 0.19733189 0.033977713 -0.0006653772
0.49780035 0.01993908 0.019554792 -0.23582757 -0.36392596 0.27235332 0.3496868 -0.13762179
00000000: be2c 2f3e 5428 5abe 9213 31bf 3498 a3be
00000010: f026 60bd 17eb af3e 9080 92be b10d 133f
00000020: ef9f 30bf f026 d1be ca08 59be ad15 9bbe
00000030: 8643 60bf 506c 78bb 5cde eabe 169f 9c3d
00000040: b332 aa3e f464 8ebe 18ca 833e 9132 0abe
00000050: b65d 05bf 7591 18bf 06ba 21be 112f f8bd
00000060: dc27 8ebe d4d3 40be 6c77 98be 23a7 a23a
00000070: bda1 d2be 09ab 98bc 988d 47bf 270f 18bf
00000080: fa07 adbc 6e2b 80bd b9cc c4bd 948c 4bbd
00000090: 634d efbd fb6a 00bf adc5 053f 8e89 1fbd
000000a0: cfce 043e 3b9c a23e 25fa 61be 2f2b a4be
000000b0: 7bae 5dbb 288a f83e d2a1 a73e b9ad 103f
000000c0: e726 263d a5e4 303e a556 873d 0b34 1e3e
000000d0: ed8f febe 9f5e d8bd 7efb d63e ac33 bf3e
000000e0: 972b f23d 1e37 e5bd 017b c4be b659 86bc
000000f0: 4685 5ebe e3a6 c0be 68b4 d43e a4be a23e
00000100: e55a 993e 483a 00bf ccfb e2bd 058a a4be
00000110: 1f65 083c b2e8 233d 2db3 6ebd d652 e53b
00000120: 9dd0 a73e 1f6b 0f3f 799c f4bd 1cc0 3e3e
00000130: 45f4 bf3e 3caf ccbd 6643 393e ac24 08bd
00000140: 42f0 6bbe df76 353e 3b28 b63e cde2 463e
00000150: cff1 b5bd a7c1 4d3e ebe3 813d 1984 5c3d
00000160: 5dcc 12bf 612e 53bf a5a8 e53d 614e 883e
00000170: 1a68 1abf c062 1d3f 3ed1 ec3e f34b d93e
00000180: 831c e5bd 46ef a1be efe7 a2bd 0c24 ccbd
00000190: 9c90 063f 7f16 28be d918 97bc bec2 b73d
000001a0: b17c 6c3d a1ba 3bbe 7e1d c5be 97b8 4ebd
000001b0: 540d 2c3e 34f6 9cbd 71cd 18bb 256c 7ebe
000001c0: 06fe 20be 7386 8c3e 5da8 34be 73a6 2cbf
000001d0: dca2 f43c 607f a5bd 6161 433e d026 313d
000001e0: ed04 853d 0aaf 10bf 5de4 993d cb6b 30be
000001f0: 7f7c 23bd a2a0 88be 4105 223e a490 0c3e
00000200: fd4d 1cbe 2822 0d3f 6e47 9abe f045 a03d
00000210: bc08 bebb 9220 b5be 5e9b 18bf 6567 42bd
00000220: 68ab 5a3e 0ce9 37be 2486 e53e 43c1 9c3e
00000230: b7f2 4e3e ecff 8f3e 6906 cbbd 8c7c bbbe
00000240: 95a2 003e 1213 583e e6a8 d7bd 853c 683e
00000250: dba1 5f3c 83b1 9fbd c43c 713e fbd8 fbbe
00000260: e603 66bd e2ba d83e 68ed 513e 4b9d 2dbd
00000270: aa4c 52bf ecc1 7cbe 2b15 a93e 4a3f d6be
00000280: 80f9 bebe b5cb b3be 50a1 cfbd 5eac 0d3d
00000290: 16e2 b5bd 0cea 88be a23b edbd 2fa7 64be
000002a0: 7c44 81be 27ac 32bf f4eb 06be 15a2 203d
000002b0: c2b3 583c 684c c43e 9d18 17be 4fbc 26be
000002c0: 0a81 e7be 5212 743c 1a3a 48be 0455 1dbf
000002d0: 351f b2bc ecb4 393e 13e3 9bbe cc3f ddbe
000002e0: 1451 1b3f b88e cb3d 0197 b83e 9bbe 34bd
000002f0: 5dd1 e8be 0b3a b4bb 6057 6cbd 3102 73bc
00000300: 8f43 80bf b60e 023e 3335 04bd 881b 873e
00000310: 1e75 39bd ce4d a7be b3f8 703e b177 ebbd
00000320: 2d98 5c3e ae34 91bf 23f4 5b3e a35e 0bbd
00000330: 5739 15be 0c22 57bc 82cc 95bc e840 ab3e
00000340: a8f2 063e a0b1 1d3f f862 3dbf 1356 593f
00000350: d14b 27be e206 703e 97b2 063f 57da ffbe
00000360: cf8a 653e 0b0f 0cbd 6138 ad3e 7841 02bf
00000370: ac9a 783e 5f35 6f3e b69f f33e 5b2a 373e
00000380: ff8d 1fbd bc1d fabe 495d 413d abb3 913e
00000390: 5c75 1e3f 76a8 3d3e e560 b63e d102 6e3e
000003a0: f504 8fbe a53e 2cbe bef3 c3bd 9550 a33e
000003b0: 0a33 8a3e cb44 63be 044d c13c f9b7 233f
000003c0: bfc4 dd3d 7350 53bd 814d 9cbe 97ee 5ebe
000003d0: 6d62 ee3c 5f11 4a3e 372c 0b3d b56c 2eba
000003e0: b0df fe3e 4857 a33c 5f31 a03c c87c 71be
000003f0: 8154 babe e571 8b3e 260a b33e baec 0cbe

network_body.linear_encoder.seq_layers.2.bias f4 [128]
-0.075222 -0.028033962 -0.019216845 0.082751684 0.060334742 -0.14595121 -0.122448795 -0.09406701
-0.16692963 -0.064807214 -0.10607573 -0.134124 -0.219592 -0.022880899 -0.053981524 -0.08480025
-0.17881805 -0.022774123 -0.0076992973 -0.12629546 0.14377508 0.029397398 -0.07854643 0.05055719
0.027925635 0.056208074 0.053515226 -0.062627286 0.09221192 -0.18232462 -0.13838121 -0.13484436
-0.043049105 -0.052721433 -0.08091508 -0.15399988 0.01885795 -0.005239831 -0.21595776 0.10707066
-0.036965396 -0.005948365 0.1551221 -0.12072107 -0.122921385 -0.040537294 -0.12727864 0.105828546
-0.079923205 -0.22210753 -0.009906005 0.054228142 -0.08260285 0.2703896 -0.036348592 -0.05758459
-0.031927947 -0.11548583 0.1026791 -0.3496016 0.048106723 0.05994496 -0.031047165 -0.20347007
-0.2160755 0.15648043 -0.037905898 -0.05124765 -0.108443424 -0.095302284 -0.15520597 -0.090353906
0.03891705 -0.016921021 0.049403954 0.010484863 -0.02931796 -0.015951164 -0.014106628 -0.16040617
-0.11167081 -0.033008974 0.023555748 0.09709538 -0.09736603 0.16945563 -0.058826983 -0.045342434
-0.10910548 0.0155280465 -0.13794653 0.039917957 -0.06495223 -0.008826611 -0.0139224725 0.14456783
0.034071002 -0.08338307 0.18026388 -0.050526623 -0.11588319 -0.017736582 -0.0868558 -0.052541155
-0.055334844 -0.28537318 -0.015330155 0.046643686 -0.10429333 -0.16427055 -0.018168738 -0.08688465
-0.106151685 -0.14224721 -0.27863732 0.07503946 0.14591034 -0.028443862 -0.18662518 0.13133882
0.0056678304 -0.031543538 0.21173783 0.08246975 -0.0062815757 0.05802303 0.07460571 -0.060569465
00000000: fe0d 9abd 7ba7 e5bc a56c 9dbc b779 a93d
00000010: 9021 773d 3c74 15be 6fc6 fabd 34a6 c0bd
00000020: 9aef 2abe a5b9 84bd 3b3e d9bd cd57 09be
00000030: badc 60be b970 bbbc bb1b 5dbd c1ab adbd
00000040: 141c 37be cc90 babc 634a fcbb 9953 01be
00000050: c639 133e d0d2 f03c f3dc a0bd 0e15 4f3d
00000060: 4dc4 e43c 703a 663d c832 5b3d bc42 80bd
00000070: 9ad9 bc3d 4eb3 3abe ceb3 0dbe a414 0abe
00000080: 4254 30bd 6ef2 57bd ceb6 a5bd 25b2 1dbe
00000090: fd7b 9a3c e3b2 abbb 0824 5dbe dd47 db3d
000000a0: 0769 17bd 81ea c2bb 54d8 1e3e 9c3c f7bd
000000b0: 35be fbbd 6f0a 26bd 5555 02be a3bc d83d
000000c0: c7ae a3bd 2870 63be cc4c 22bc 541e 5e3d
000000d0: af2b a9bd 8170 8a3e 43e2 14bd d2dd 6bbd
000000e0: e1c6 02bd d683 ecbd 6c49 d23d fbfe b2be
000000f0: 8e0b 453d d988 753d a056 febc 755a 50be
00000100: e542 5dbe 683c 203e 3743 1bbd 0ee9 51bd
00000110: 9617 debd d82d c3bd 50ee 1ebe 780b b9bd
00000120: 7c67 1f3d f49d 8abc cd5b 4a3d b4c8 2b3c
00000130: 382c f0bc 04ac 82bc 7c1f 67bc 8441 24be
00000140: aab3 e4bd 6b34 07bd fcf7 c03c f1d9 c63d
00000150: d767 c7bd c785 2d3e 90f4 70bd fdb8 39bd
00000160: b272 dfbd 5969 7e3c db41 0dbe 0381 233d
00000170: ad05 85bd 7d9d 10bc 151b 64bc 9709 143e
00000180: 098e 0b3d bec4 aabd 1897 383e 01f5 4ebd
00000190: 2a54 edbd 4f4c 91bc 74e1 b1bd 6535 57bd
000001a0: caa6 62bd 6f1c 92be 552b 7bbc 730d 3f3d
000001b0: be97 d5bd 8a36 28be 9bd6 94bc 94f0 b1bd
000001c0: 0e66 d9bd 41a9 11be 8da9 8ebe 4aae 993d
000001d0: 8569 153e 1a03 e9bc ac1a 3fbe af7d 063e
000001e0: 35b9 b93b cc33 01bd cdd1 583e e6e5 a83d
000001f0: add5 cdbb 8fa9 6d3d e1ca 983d b017 78bd

network_body.linear_encoder.seq_layers.2.weight f4 [128, 128]
0.6149927 -0.3773219 -0.020219693 0.15328054 -0.6548712 0.013535148 -0.43776202 -0.16701472
0.022718955 -0.12181373 -0.3054962 0.1695465 -0.56361055 0.13420747 -0.6273645 -0.6088796
0.012844683 -0.6089344 0.12675695 -0.399631 0.16026492 0.31288284 -0.12198477 0.16772345
-0.25199318 0.47323644 -0.48913595 2.2083279e-05 -0.63628805 -0.20931491 -0.30929065 -1.1738775
-0.57950467 -0.044004712 0.20300597 -0.0854381 -0.08386596 -0.47966108 -0.0061938306 0.103134215
0.6689121 0.10643894 -0.13030504 -0.3479471 -0.034642786 0.0019486094 -0.019684775 0.7737557
0.44912016 0.40643853 0.0018919632 -0.8648584 -0.087363675 -0.13381994 -0.027534977 0.29697987
0.009447427 0.1675194 0.00044131506 -0.2377462 -1.1092473 0.0013079245 0.26113072 -0.25953597
-0.4930613 0.23070402 0.28781018 -0.073970065 -0.33689004 0.7785266 -0.22339615 -0.08230164
-0.13507037 -1.5049073 -0.4717615 -0.19880423 -0.29365426 -0.18410657 0.059846282 0.6178202
0.27728868 0.11662381 -0.013200643 0.33627295 0.22694582 0.29519805 0.33278713 -0.54541725
-0.18358444 0.13393702 -0.4375044 0.24361967 -0.2964104 0.21647206 -0.7394205 -0.5160052
-0.02036834 -0.60346395 -0.23889539 -0.40941483 -0.046238117 -0.08712361 -0.6790331 0.070160344
-0.44716176 -0.518656 -0.29490513 0.042867746 -0.8051268 0.35102752 -0.07274473 -0.18356626
-0.27198803 0.14296912 -0.03950116 -0.22917828 -0.06643169 0.056985132 -0.54390544 -0.1906142
-0.37413555 -0.17291415 -0.3403881 0.33799607 -0.47362188 0.17380323 -0.43964988 0.24093477
0.24350771 -0.12579617 -0.313774 -0.45915288 -0.047880925 -0.59713274 0.20985965 -0.56442595
0.1760315 -0.036110852 0.34570754 0.5945161 -0.15528564 -0.3853089 0.039537806 0.17112337
0.10323296 -0.27927276 0.6167274 -0.48141453 -0.187842 -0.21477576 -0.023976998 -0.20885448
0.30582199 -0.076702975 0.10478353 -0.0892823 -0.07806556 -0.012446458 0.23451132 0.29360712
-0.3311598 -0.4595747 -0.5413119 -0.39305386 0.032804523 -0.6541082 0.69429976 0.63433015
0.20119014 -0.26789325 -0.469419 -0.045401413 -0.13417584 -0.21711095 0.07658388 -0.55575585
0.26214564 -0.59943485 0.69869596 0.4084188 -0.1696291 -0.40644902 -0.60731125 0.29753637
-0.9245208 0.38302365 0.12241623 0.096405886 0.43441468 -0.57725513 -0.5593145 0.3359716
0.20500234 0.09870428 0.20776017 -0.26887387 0.07706075 -0.29145905 -0.040801574 0.21091677
0.4743782 0.042697035 0.2259257 -0.39545035 0.35953227 -0.1847953 -0.2883057 -0.0015692539
-0.14118052 -0.22662048 0.43501896 0.17686394 -0.095053636 0.015953328 -0.21878532 0.3651157
0.536254 -0.3612296 -0.35738924 -0.22756293 -0.37332922 -0.35970852 -0.35712898 0.6666987
-0.36379576 0.5524788 -0.9716336 -0.7902187 0.287295 -0.3836876 -0.7070539 -0.64045185
-0.01159646 0.008591958 0.29684964 -0.88017005 0.34415156 0.12377908 -0.16830459 0.027633535
0.11749091 -0.48551494 -0.56517917 0.73364943 0.04600008 0.5127452 0.08230231 0.32798377
0.05068003 -0.24709514 0.16304417 -0.62213635 -0.12690796 0.40961397 -0.33350408 -0.6842887
00000000: 2970 1d3f 5630 c1be c5a3 a5bc 93f5 1c3e
00000010: a4a5 27bf 87c2 5d3c 5822 e0be e805 2bbe
00000020: 1a1d ba3c 7a79 f9bd ff69 9cbe 999d 2d3e
00000030: c848 10bf af6d 093e f69a 20bf 89df 1bbf
00000040: 8172 523c 20e3 1bbf 93cc 013e 6f9c ccbe
00000050: 7d1c 243e 2e32 a03e 27d3 f9bd b2bf 2b3e
00000060: 4005 81be 0c4c f23e 0770 fabe 7b3f b937
00000070: c6e3 22bf a656 56be 585b 9ebe 9e41 96bf
00000080: 6b5a 14bf 493e 34bd cce0 4f3e 2cfa aebd
00000090: ebc1 abbd 2396 f5be 9ef5 cabb 0838 d33d
000000a0: d33d 2b3f a9fc d93d af6e 05be 1f26 b2be
000000b0: 98e5 0dbd 7b68 ff3a f741 a1bc db14 463f
000000c0: 14f3 e53e b618 d03e c0fb f73a 5c67 5dbf
000000d0: baeb b2bd 1808 09be 0891 e1bc bf0d 983e
000000e0: 61c9 1a3c 358a 2b3e 4e60 e739 bd73 73be
000000f0: d1fb 8dbf aa6e ab3a edb2 853e e6e1 84be
00000100: 8872 fcbe ad3d 6c3e db5b 933e 9e7d 97bd
00000110: da7c acbe 854d 473f f6c1 64be c38d a8bd
00000120: e34f 0abe cda0 c0bf b98a f1be 5693 4bbe
00000130: da59 96be 6f86 3cbe 6021 753d 7729 1e3f
00000140: c8f8 8d3e 77d8 ee3d 8247 58bc f82b ac3e
00000150: 7c64 683e 3324 973e 1363 aa3e 77a0 0bbf
00000160: 8ffd 3bbe c926 093e 9400 e0be 6f77 793e
00000170: 1bc3 97be daaa 5d3e a94a 3dbf eb18 04bf
00000180: 81db a6bc 9d7c 1abf fea0 74be d29e d1be
00000190: 2e64 3dbd dd6d b2bd 1dd5 2dbf 3ab0 8f3d
000001a0: 63f2 e4be a4c6 04bf cefd 96be 1796 2f3d
000001b0: ca1c 4ebf e1b9 b33e 30fb 94bd cbf8 3bbe
000001c0: 0442 8bbe 7f66 123e f8cb 21bd b6ad 6abe
000001d0: 560d 88bd 3e69 693d 633d 0bbf 5e30 43be
000001e0: b28e bfbe 6810 31be 5947 aebe d20d ad3e
000001f0: 917e f2be 79f9 313e ca19 e1be 9bb7 763e
00000200: 165a 793e b6d0 00be fca6 a0be 1616 ebbe
00000210: ca1e 44bd b1dd 18bf 73e5 563e 387e 10bf
00000220: 9a41 343e f9e8 13bd 9400 b13e 3532 183f
00000230: 3303 1fbe 3547 c5be 65f2 213d f73a 2f3e
00000240: cd6b d33d d7fc 8ebe d9e1 1d3f f77b f6be
00000250: a759 40be 2dee 5bbe 696b c4bc f3dd 55be
00000260: b394 9c3e 7316 9dbd bf98 d63d a3d9 b6bd
00000270: d6e0 9fbd 3bec 4bbc bc23 703e ac53 963e
00000280: c78d a9be 604d ebbe 6b93 0abf 5b3e c9be
00000290: 095e 063d a373 27bf a1bd 313f 7663 223f
000002a0: ca04 4e3e 4e29 89be b057 f0be d5f6 39bd
000002b0: 6465 09be 5552 5ebe 02d8 9c3d 0446 0ebf
000002c0: f437 863e 9074 19bf bddd 323f 451c d13e
000002d0: 40b3 2dbe 161a d0be c078 1bbf b056 983e
000002e0: 65ad 6cbf ad1b c43e 5cb5 fa3d 7370 c53d
000002f0: 9a6b de3e fec6 13bf 3c2f 0fbf 7804 ac3e
00000300: 22ec 513e 7825 ca3d 15bf 543e d6a9 89be
00000310: 07d2 9d3d 1f3a 95be 8d1f 27bd 91fa 573e
00000320: b3e1 f23e 16e3 2e3d 1159 673e 7878 cabe
00000330: 9d14 b83e fb3a 3dbe ce9c 93be 6caf cdba
00000340: a091 10be 330f 68be ceba de3e d21b 353e
00000350: 7bab c2bd 8eb0 823c 4209 60be 72f0 ba3e
00000360: f147 093f 16f3 b8be b9fb b6be 4206 69be
00000370: 0225 bfbe b72b b8be 9cd9 b6be c4ac 2a3f
00000380: 7043 babe 406f 0d3f fbbc 78bf c64b 4abf
00000390: 5518 933e b372 c4be 7c01 35bf a7f4 23bf
000003a0: 14ff 3dbc 49c5 0c3c adfc 973e d352 61bf
000003b0: a234 b03e e37f fd3d 0a58 2cbe b95f e23c
000003c0: 139f f03d 6a95 f8be 95af 10bf 73d0 3b3f
000003d0: 946a 3c3d 4543 033f 1d8e a83d 7ded a73e
000003e0: dd95 4f3d 8206 7dbe 0df5 263e 5444 1fbf
000003f0: 29f4 01be ecb8 d13e 0cc1 aabe 8b2d 2fbf
