Assets/Models/25jan.onnx (onnx, 112262 bytes, 12 tensors)

action_model._discrete_distribution.branches.0.bias f4 [3]
0.0 0.0 0.0
00000000: 0000 0000 0000 0000 0000 0000

action_model._discrete_distribution.branches.0.weight f4 [3, 128]
-0.0077396925 -0.013615985 -0.01058514 0.00014873732 -0.0021918903 -0.010712102 -0.008782658 -0.0016656815
0.010329015 0.005052393 -0.0013298475 -0.006447177 -0.005552031 0.011191858 0.006975857 -7.537387e-05
0.00031612927 -0.0015196374 0.010330295 0.004993839 0.008515551 -0.008392791 0.008491679 0.0024449697
0.004474563 0.00037491327 0.005475107 -0.003768596 0.014587759 0.0028934577 0.009477893 -0.0061717858
-0.0049350397 -0.0065924525 0.0010376478 0.0038167068 -0.004097243 0.0030231697 -3.5668196e-05 -0.011757482
-0.012516662 0.0011739201 -0.010597128 -0.007839003 0.007812068 -0.0031098127 -0.004752849 0.0031112754
0.012755254 -0.0044794236 -0.0034241483 0.0045874636 0.000112430964 0.0107236495 -0.003095613 0.009561453
-0.0027120977 0.000304231 -0.001948783 0.0012977327 -0.011058412 -0.01014929 0.008928116 -0.00016012524
-0.0018979528 0.020229904 -0.0039569554 0.015967896 -0.0071077147 0.011904127 -0.0075852848 0.007831666
-0.001474651 0.013977895 0.008806358 0.0014088581 -0.01858999 -0.003107609 0.0015400007 -0.001981801
0.0041192425 0.008681648 0.021399228 -0.010340749 -0.0028966605 -0.0021000241 -0.0046908576 -0.009385215
-0.0019168196 0.017075105 -0.01931393 0.0021649157 0.0027190368 -0.010599339 -0.0012903864 0.005471402
0.0015780798 0.0053228303 -0.0055638063 0.004165606 0.0045428644 0.0019703722 -0.008694003 0.024234356
0.0038492184 -0.0040122145 -0.012840574 -0.0016265272 -0.013201206 -0.018536983 -0.006660176 -0.012018178
-0.0035164126 -0.011376749 0.0049045784 -0.007114 -0.0039979345 -0.0020302783 0.006053365 0.0069652214
0.0009646189 0.0020545495 0.0066355467 -0.009247683 0.0028435194 -0.003897177 0.0025888814 -0.015625289
-0.026543504 -0.0067691454 0.0069498136 0.004413857 0.00692624 0.00522609 0.0094246855 0.00992661
0.0056202225 -0.0019339174 0.033762313 0.0012979293 -0.005194185 0.012655245 -0.0044330214 0.00083142606
-0.020380342 -0.005879072 -0.0012005684 0.0018731377 0.016479513 0.011210657 -0.009546263 0.0006301292
0.01300619 0.0071123214 0.011106073 0.0040720375 0.0057733837 -0.002610434 -0.0099385325 -0.004087433
-0.0076337755 -0.007204827 -0.006196259 -0.004248186 0.0010750423 -0.0091364905 0.0036244036 -0.0034580664
0.006925081 0.0019204261 0.0033573078 0.019585852 -0.0063000247 0.0071199285 -0.004699946 0.004427589
-0.008111287 -0.016087664 -0.006174052 -0.0055169403 0.005621495 -0.021648157 -0.0049892813 -0.0054506906
-0.006932539 6.9256844e-06 0.009652997 0.0019454195 -0.020146187 0.0009883341 0.009744067 -0.007245636
-0.0044201273 0.0034149585 0.009310803 0.006444727 0.021496585 0.003173735 -0.013328251 -0.009735314
-0.0032206494 -0.00014896019 -0.00653653 -0.00593448 0.0070097647 0.0019301098 0.0018731516 0.010800487
0.007306959 -0.0043762675 -0.0040359953 -0.0071986066 0.0009324737 0.0009787462 -0.013697922 0.00072513736
-0.0029740843 0.005255522 0.017676232 -0.013115046 0.0011553232 0.011687721 0.000914046 -0.010579793
7.9051815e-06 0.011943687 0.0037694832 0.015262889 -0.0036642246 0.015851116 0.011204497 0.0017716613
-0.0010010868 -0.0037794218 -0.006176619 0.0044148187 -0.0016298088 0.0071336115 0.00599847 0.0093677
0.0007723106 0.0032342144 0.0012415787 -0.010357576 -0.0031180743 0.011887158 -0.010103512 0.008983255
-0.008756612 0.009646996 0.0022406431 0.0011791636 -0.006799791 -0.0087795025 -0.008312416 0.008266765
00000000: 3f9d fdbb 9515 5fbc 4c6d 2dbc 5ff6 1b39
00000010: d1a5 0fbb d081 2fbc 23e5 0fbc ff52 daba
00000020: 073b 293c 8b8e a53b 474e aeba d742 d3bb
00000030: d0ed b5bb 0e5e 373c bb95 e43b 0a12 9eb8
00000040: 27be a539 922e c7ba 6640 293c 5ca3 a33b
00000050: cf84 0b3c eb81 09bc af20 0b3c c93b 203b
00000060: 5b9f 923b 0290 c439 8768 b33b 8dfa 76bb
00000070: 7f01 6f3c 2aa0 3d3b 2a49 1b3c b13c cabb
00000080: 1db6 a1bb 8005 d8bb af01 883a b721 7a3b
00000090: 2a42 86bb 5f20 463b 6f9a 15b8 74a2 40bc
000000a0: af12 4dbc 39de 993a 949f 2dbc 296f 00bc
000000b0: 60fc ff3b 00ce 4bbb cabd 9bbb 8ae6 4b3b
000000c0: 6afb 503c 21c8 92bb ad67 60bb 6f52 963b
000000d0: eac8 eb38 3fb2 2f3c c5df 4abb a4a7 1c3c
000000e0: 73bd 31bb 3281 9f39 4f6e ffba af18 aa3a
000000f0: 572e 35bc 3549 26bc 3c47 123c 4be7 27b9
00000100: bac4 f8ba 2fb9 a53c 59a9 81bb 1bcf 823c
00000110: d5e7 e8bb 8709 433c fb8d f8bb 6350 003c
00000120: 1449 c1ba 8a03 653c 8b48 103c 6fa9 b83a
00000130: 094a 98bc 07a9 4bbb d9d9 c93a 1ae1 01bb
00000140: b6fa 863b 793d 0e3c 6f4d af3c 3f6c 29bc
00000150: e6d5 3dbb 8fa0 09bb c4b5 99bb 72c4 19bc
00000160: cb3d fbba 17e1 8b3c 3f38 9ebc 42e1 0d3b
00000170: de31 323b daa8 2dbc 2f22 a9ba 7249 b33b
00000180: 92d7 ce3a 236b ae3b 9750 b6bb a37f 883b
00000190: 4fdc 943b 5c21 013b 4b71 0ebc 2187 c63c
000001a0: 2b43 7c3b e578 83bb 4561 52bc 3231 d5ba
000001b0: df49 58bc dfda 97bc 9b3d dabb e4e7 44bc
000001c0: 9d73 66bb 8b65 3abc 96b6 a03b 8f1c e9bb
000001d0: 1b01 83bb 6b0e 05bb 4e5b c63b 833c e43b
000001e0: 7bde 7c3a 9fa5 063b 006f d93b 9883 17bc
000001f0: 575a 3a3b c867 7fbb 39aa 293b 9b00 80bc
00000200: c371 d9bc b5cf ddbb 43bb e33b 1ea2 903b
00000210: 83f5 e23b 9f3f ab3b ff69 1a3c 38a3 223c
00000220: d829 b83b 807b fdba 5a4a 0a3d 481f aa3a
00000230: fb33 aabb f257 4f3c e142 91bb 0ff4 593a
00000240: adf4 a6bc 3ba5 c0bb 645c 9dba 1284 f53a
00000250: 0b00 873c e7ac 373c ee67 1cbc 412f 253a
00000260: ea17 553c 7a0e e93b 3ff6 353c ba6e 853b
00000270: a72e bd3b d113 2bbb 3ad5 22bc e0ef 85bb
00000280: c024 fabb 7816 ecbb fd09 cbbb 5e34 8bbb
00000290: 6fe8 8c3a 38b1 15bc 6787 6d3b baa0 62bb
000002a0: caeb e23b cfb6 fb3a 4706 5c3b 8272 a03c
000002b0: 7070 cebb 4a4e e93b 0102 9abb 4f15 913b
000002c0: 34e5 04bc 47ca 83bc b44f cabb 73c7 b4bb
000002d0: 8534 b83b 7a57 b1bc 207d a3bb b59b b2bb
000002e0: 5a2a e3bb 2d63 e836 9b27 1e3c 72fd fe3a
000002f0: 9e09 a5bc fd8a 813a 94a5 1f3c cd6c edbb
00000300: b7d6 90bb 7fcd 5f3b 578c 183c 4a2e d33b
00000310: 9b19 b03c 70fe 4f3b bd5e 5abc de80 1fbc
00000320: 8811 53bb 3232 1cb9 6330 d6bb 0776 c2bb
00000330: 2bb2 e53b bdfb fc3a 8a84 f53a 87f4 303c
00000340: 376f ef3b cb66 8fbb 6240 84bb 4ae2 ebbb
00000350: 4071 743a 4649 803a 406d 60bc 2517 3e3a
00000360: dbe8 42bb 8436 ac3b bfcd 903c 7de0 56bc
00000370: 376e 973a db7d 3f3c 979c 6f3a de56 2dbc
00000380: 7fa0 0437 74af 433c 6f09 773b 3211 7a3c
00000390: 7d23 70bb 33da 813c 1193 373c 1737 e83a
000003a0: e636 83ba 2db0 77bb 3c65 cabb 2faa 903b
000003b0: 4f9f d5ba 12c1 e93b d08e c43b fb7a 193c
000003c0: e374 4a3a 1df5 533b 78bc a23a d3b2 29bc
000003d0: 9b58 4cbb 5bc2 423c 3389 25bc 812e 133c
000003e0: e577 0fbc 6f0e 1e3c c1d7 123b 2a8e 9a3a
000003f0: c8d0 debb e7d7 0fbc cd30 08bc 5371 073c

action_model._discrete_distribution.branches.1.bias f4 [3]
0.0 0.0 0.0
00000000: 0000 0000 0000 0000 0000 0000

action_model._discrete_distribution.branches.1.weight f4 [3, 128]
0.001090573 0.00444203 -0.0049778256 0.0015252739 -0.005165842 -0.0038076 -0.007559228 0.0033259299
-0.013146547 0.012007548 -0.01586031 -0.019669754 0.009202967 0.019977061 -0.001139315 0.010337219
0.012686617 -0.002051188 0.010267879 -0.0007397672 -0.00035164316 0.0031804189 0.0048044263 -0.0077063628
-0.008372279 0.003343335 0.0107354745 -0.0078068846 0.009311643 0.008860983 -0.008986337 0.011912674
0.018976055 -0.005912287 -0.0024147588 -0.00013425048 -0.008667847 -0.001936017 0.008387986 -0.0074120313
-0.012270193 -0.004716694 0.016021622 0.017201466 -0.010985761 0.007398208 0.000551047 0.017503805
-0.00873047 -0.009120706 -0.002486221 -0.004396477 -0.0009018187 0.0005131399 0.008836995 -0.0036479072
0.010213046 0.002709734 -0.0045490223 0.0004535356 -0.0030402637 -0.0028070041 -0.0015116249 0.020657076
0.013251537 0.016176028 -0.0071745003 -0.019747818 -0.002924378 -0.0049236612 0.013823027 -0.010406646
0.0077895704 -0.00014677817 -0.015662776 -0.017990611 0.0119662685 -0.0072724572 -0.00017157219 -0.012480444
0.023121243 -0.0020487024 0.011050776 -0.0037417766 -0.0027541528 0.019896908 -0.005857677 -0.013644712
0.0054444424 0.00917102 -0.004611082 -0.010055391 -0.008872062 -0.002069826 -0.0038973975 -0.011749472
-0.0029351618 0.0009853557 -0.013569406 0.003314019 -0.018225042 0.004268053 -0.006223253 -0.007602637
0.0024091415 0.0197857 -0.0032596865 0.008206602 0.0010525193 0.004778912 -0.0050604935 0.0007153669
0.002552813 0.016901009 0.006751848 -0.011669927 0.007265328 -0.0027250478 -0.0055791964 -0.002449561
0.0019291971 -0.003442681 0.0009495267 -0.0065895165 0.0058819107 0.0107837645 -0.0080497665 0.008908606
-0.008953606 -0.013658348 0.024846774 -0.002390073 0.004260452 -0.006723077 0.009077043 -0.013139172
0.0022841655 0.0067473515 -0.0071685985 -0.001560302 0.002132111 -0.008203349 0.011093386 -0.0017645486
4.8507634e-05 -0.002078282 0.014567356 0.003876827 -0.0058742017 -0.00046324643 0.010653065 0.00084890483
-0.004344004 0.0014467597 0.01899852 -0.005059573 0.015920777 0.010281824 -0.0024069517 -0.00082611566
0.0023501487 0.005372473 -0.014425414 0.001905787 0.006183303 0.0007137006 0.006363394 0.0012887799
0.013511824 0.021178968 0.0041461145 -0.0018990729 0.0041782795 -0.0034518894 -0.004560908 -0.0050665564
0.007063461 -0.015615213 0.009924175 -0.010062817 0.0112473825 -0.004986026 0.014026237 0.00062071666
-0.0138602825 -0.004709556 0.0013824173 0.006457753 -0.0070582563 0.0061858743 0.02292498 0.0020801406
0.008925812 -0.006789332 0.0034672308 0.0047789067 -0.0040326356 -0.0103879515 0.01144719 -0.011103402
0.010597992 0.013561389 0.01565766 -0.0006144123 -0.009237974 -0.0024791753 -0.010249381 -0.011392298
0.009691958 0.00041140878 0.0005805653 0.0018255018 0.0006381252 0.004925594 -0.014700569 -0.012593888
0.010522922 0.0012989949 -0.0010834633 0.004447335 -0.0072704838 0.011162578 0.0070563513 -0.0048879213
0.018204754 0.007472504 -0.0053499076 0.008017068 -0.0069553154 -0.0050326204 0.0068902127 0.001727612
0.01013667 -0.0020973238 0.004007919 0.0008631774 0.0038181376 0.0035014933 -0.017778 0.006054043
0.0048985654 -0.0018293236 0.0037137195 0.014001424 -0.003285686 -0.00972256 -0.012899875 0.020473927
0.0023767082 0.0021027734 -0.007355551 0.006565463 -0.010240379 -0.0028142883 -0.009893451 0.007652063
00000000: 8ff1 8e3a 738e 913b 071d a3bb b3eb c73a
00000010: 3946 a9bb ed88 79bb 67b3 f7bb d8f7 593b
00000020: 9d64 57bc 4ebb 443c 7bed 81bc 7722 a1bc
00000030: 0bc8 163c efa6 a33c 1155 95ba 705d 293c
00000040: 87db 4f3c 396d 06bb 9b3a 283c f0ec 41ba
00000050: bf5c b8b9 936e 503b 736e 9d3b a885 fcbb
00000060: e22b 09bc da1b 5b3b d8e3 2f3c e5d0 ffbb
00000070: dd8f 183c a82d 113c 6e3b 13bc 602d 433c
00000080: ac73 9b3c dcbb c1bb ee40 1ebb 97c5 0cb9
00000090: 9603 0ebc f3c1 fdba c36d 093c a0e0 f2bb
000000a0: eb08 49bc 7f8e 9abb c73f 833c 17ea 8c3c
000000b0: 9ffd 33bc ab6c f23b 2374 103a 2464 8f3c
000000c0: 3f0a 0fbc 036f 15bc deef 22bb 5210 90bb
000000d0: 0768 6cba 3c84 063a 0bc9 103c ba11 6fbb
000000e0: 9f54 273c cb95 313b f70f 95bb 85c8 ed39
000000f0: 293f 47bb b7f5 37bb b721 c6ba 0739 a93c
00000100: fa1c 593c 9783 843c 1218 ebbb 2dc6 a1bc
00000110: eca6 3fbb aa56 a1bb fa79 623c a380 2abc
00000120: a73f ff3b 77e8 19b9 394f 80bc 0c61 93bc
00000130: 2b0e 443c cb4d eebb 0fe8 33b9 c77a 4cbc
00000140: c368 bd3c 8643 06bb 500e 353c 9838 75bb
00000150: 047f 34bb d7fe a23c c2f1 bfbb 128e 5fbc
00000160: 4b67 b23b 0c42 163c 8f18 97bb 5ebf 24bc
00000170: 205c 11bc eba5 07bb 7b6b 7fbb db80 40bc
00000180: d85b 40bb 0d27 813a 3752 5ebc 0330 593b
00000190: af4c 95bc 06db 8b3b 6eec cbbb 8b1f f9bb
000001a0: b0e2 1d3b 9f15 a23c 77a0 55bb fc74 063c
000001b0: b0f4 893a 6b98 9c3b 7fd2 a5bb 7687 3b3a
000001c0: 184d 273b fc73 8a3c 9b3e dd3b 3933 3fbc
000001d0: fd11 ee3b b796 32bb b1d1 b6bb d088 20bb
000001e0: 1ddd fc3a 9a9e 61bb a8e9 783a dfec d7bb
000001f0: 0bbd c03b 63ae 303c 2be3 03bc 67f5 113c
00000200: 25b2 12bc 43c7 5fbc 768b cb3c c5a2 1cbb
00000210: 439b 8b3b 424d dcbb e1b7 143c af45 57bc
00000220: f0b1 153b e318 dd3b 90e6 eabb 0c83 ccba
00000230: e3ba 0b3b 5767 06bc 09c1 353c 6d48 e7ba
00000240: ad74 4b38 c933 08bb ebab 6e3c 5d12 7e3b
00000250: 607c c0bb e2df f2b9 318a 2e3c 0a89 5e3a
00000260: 2658 8ebb 33a1 bd3a c9a2 9b3c c6ca a5bb
00000270: 4a6c 823c 1875 283c f3bd 1dbb af8f 58ba
00000280: f404 1a3b 920b b03b 9258 6cbc 9acb f93a
00000290: 4e9d ca3b a317 3b3a 0584 d03b 47ec a83a
000002a0: b360 5d3c 847f ad3c 21dc 873b 50ea f8ba
000002b0: f3e9 883b 1839 62bb ab73 95bb 5b05 a6bb
000002c0: 9b74 e73b f3d6 7fbc 0299 223c 83de 24bc
000002d0: f146 383c d161 a3bb 4dce 653c 97b7 223a
000002e0: 3d16 63bc 9e52 9abb 3a32 b53a 8f9b d33b
000002f0: f248 e7bb e0b2 ca3b 2bcd bb3c f852 083b
00000300: 923d 123c 0b79 debb 7b3a 633b 6098 9c3b
00000310: 3324 84bb 3a32 2abc ff8c 3b3c 0beb 35bc
00000320: 33a3 2d3c 9730 5e3c 7e44 803c 8310 21ba
00000330: df5a 17bc a979 22bb 05ed 27bc c3a6 3abc
00000340: 05cb 1e3c 5ab2 d739 1431 183a ad45 ef3a
00000350: db47 273a e166 a13b a8da 70bc 9856 4ebc
00000360: 5568 2c3c 0943 aa3a ff02 8eba f3ba 913b
00000370: 3d3d eebb 3fe3 363c f738 e73b db2a a0bb
00000380: 2322 953c e8db f43b 474e afbb 055a 033c
00000390: 6ae9 e3bb aee8 a4bb 4bc7 e13b 0a71 e23a
000003a0: 4714 263c 4173 09bb dd54 833b db46 623a
000003b0: b839 7a3b 4f79 653b 2ba3 91bc fe60 c63b
000003c0: 2584 a03b eac5 efba e061 733b 3b66 653c
000003d0: aa54 57bb 5f4b 1fbc ff59 53bc f0b8 a73c
000003e0: 8cc2 1b3b afce 093b d506 f1bb 1823 d73b
000003f0: 43c7 27bc ec6f 38bb 2418 22bc 28be fa3b

action_model._discrete_distribution.branches.2.bias f4 [2]
0.0 0.0
00000000: 0000 0000 0000 0000

action_model._discrete_distribution.branches.2.weight f4 [2, 128]
-0.001210024 -0.0040028333 -0.0033198313 0.009205048 0.0021976975 -0.005312074 0.013286672 -0.0033403763
-0.0045275195 -0.0059333337 -0.015449459 0.0030195287 -0.007095636 -0.016635481 -0.012730248 0.015778083
-0.0039171297 0.014222509 0.0022137705 0.011854007 0.0004325536 0.0014496454 0.005642993 0.012045335
0.0064994744 -0.0080211 0.0044432017 -0.009108927 -0.0028627678 -0.0012613329 -0.0038985666 -0.0063016745
0.006381122 -0.012584882 -0.0050387452 0.0012811249 -0.0043689944 0.000105540676 0.0017163223 -0.0073318495
0.0007283203 -0.002739369 0.0022074326 -0.012378024 -0.006383615 -0.0040086163 -0.010736964 8.2680344e-05
0.0187707 0.008449234 -0.0075821574 -0.014852539 0.010783854 0.008209508 0.02095873 -0.0049183746
-0.0048666457 0.006079487 -0.0024825127 0.0006299698 0.010256409 -0.0017865241 0.007589367 0.0069020106
0.0061406023 0.007715454 -0.0047632963 -0.011474366 -0.009245297 -0.017333975 0.00856698 0.0019562494
0.00062894553 0.0121254 -0.0023110758 -0.018147038 -0.0047587524 0.0043897885 0.00087875215 -0.009850926
0.0004080138 0.0037629218 0.0153340595 0.009686494 -0.004293308 0.024437306 0.0010714405 -0.0135163395
-0.010826237 -0.004347052 -0.0074688606 0.0078012245 0.0028706202 0.007524242 0.011741564 -0.009579629
0.009028677 -0.007546808 -0.016396748 -0.016959637 0.0044947406 -0.005015779 -0.0021584097 -0.0052484185
0.006039076 0.0032073506 -0.009755593 -0.0043177013 0.008375737 0.0037106515 -0.01741933 -0.0027119413
-0.008283474 0.024474658 -0.0053644017 -0.0034896934 0.0036088359 0.017119559 0.0043500667 0.00727087
0.011182515 -0.01380249 0.012563974 0.005116476 -0.0023314545 -0.005720598 0.006962891 -0.0072295717
0.016396305 -0.015411171 0.0031286243 0.004691413 0.0012401427 0.018840678 0.02087546 -0.005885241
-0.019420821 -0.009307492 0.004272193 -0.0035392789 -0.002298953 -0.004574834 0.0027380686 0.0048898044
0.0032780133 0.019490503 -0.0018764364 0.0077563957 -0.0069777556 -0.0032993876 0.0028838336 -0.010009493
-0.00094505626 -0.004873743 -0.010070314 0.006489576 -0.014905837 -0.018545104 -0.01221874 -0.0014000387
0.021794606 -0.007926304 0.0015138941 -0.0012188087 0.010486322 0.006564828 0.00651271 0.016324261
0.019653993 -0.0029335152 -0.0059526484 -0.005790576 -0.0016282648 -0.007476125 0.009523338 -0.012113768
0.012781166 0.010032713 -0.013873691 0.0028598309 0.0052285637 -0.0045834477 0.0076655434 0.0057338323
0.007890972 0.0021774096 -0.0056919586 0.011610716 0.019983657 -0.010628811 0.0017442311 -0.017306037
-0.0112767825 0.0093428595 0.013125909 0.004111074 0.007953939 0.0014660353 0.009845401 0.010310272
0.004186622 -0.0031040718 0.007528455 -0.0029704708 -0.008644672 -0.0071708583 0.015966533 0.012801408
0.008025421 -0.018347291 0.007551392 0.0020442086 0.001057273 -0.011508542 0.0048937094 0.0022886868
0.0055819345 0.0026757452 -0.0020391147 -0.011400859 -0.009487262 -0.0026875515 0.0015362169 0.0017912282
-0.001791782 -0.0018223744 -0.012060299 0.0046568518 -0.003528046 0.00015151557 -0.008806029 -0.01594553
-0.009569695 0.008327882 -0.022889214 -0.0049740435 -0.003879049 0.00095644046 0.0016810279 -0.003887741
-0.0032829233 0.0016114273 -0.023886079 -0.0015933339 -0.005889902 0.0010121444 -0.008523163 -0.0013606371
-0.012684891 0.006646801 -0.00501669 -0.002643048 0.00020452251 0.012674038 0.0047461926 0.0031842242
00000000: ab99 9eba 332a 83bb 8791 59bb c5d0 163c
00000010: 3f07 103b e810 aebb 57b0 593c 37ea 5abb
00000020: 965b 94bb 696c c2bb ba1f 7dbc 49e3 453b
00000030: 8282 e8bb 2247 88bc 8892 50bc 0a41 813c
00000040: 445b 80bb 8705 693c e814 113b 4f37 423c
00000050: 5dc8 e239 0702 be3a dbe8 b83b cc59 453c
00000060: 8bf9 d43b ef6a 03bc 4798 913b 9c3d 15bc
00000070: 469d 3bbb 4f53 a5ba 187f 7fbb 477e cebb
00000080: bb18 d13b d230 4ebc 0f1c a5bb 6beb a73a
00000090: c829 8fbb b855 dd38 38f6 e03a 0340 f0bb
000000a0: bfec 3e3a fc86 33bb 93aa 103b 32cd 4abc
000000b0: a52d d1bb b65a 83bb 17ea 2fbc ac64 ad38
000000c0: 03c5 993c a86e 0a3c bf73 f8bb 1058 73bc
000000d0: c3ae 303c 2c81 063c a4b1 ab3c 512a a1bb
000000e0: 6278 9fbb 6f36 c73b a7b1 22bb 8f24 253a
000000f0: 7f0a 283c cd29 eaba 3ab0 f83b 432a e23b
00000100: 1b37 c93b ebd1 fc3b 6d15 9cbb fbfe 3bbc
00000110: 9679 17bc fbff 8dbc 855c 0c3c 6b34 003b
00000120: d2df 243a 9da9 463c 6b75 17bb 19a9 94bc
00000130: 4fef 9bbb 37d8 8f3b 0f5c 663a c765 21bc
00000140: afea d539 5a9b 763b b53b 7b3c 1ab4 1e3c
00000150: e1ae 8cbb bf30 c83c 946f 8c3a a373 5dbc
00000160: 8760 31bc b771 8ebb 58bd f4bb 6aa1 ff3b
00000170: 0421 3c3b eb8d f63b b05f 403c e0f3 1cbc
00000180: 04ed 133c 374b f7bb 7952 86bc f0ee 8abc
00000190: 9e48 933b 675b a4bb 1b74 0dbb edfa abbb
000001a0: 71e3 c53b 6a32 523b ecd5 1fbc 817b 8dbb
000001b0: 633a 093c 672e 733b fcb2 8ebc d3ba 31bb
000001c0: 68b7 07bc 147f c83c ddc7 afbb 57b3 64bb
000001d0: 3882 6c3b 513e 8c3c 018b 8e3b 7a40 ee3b
000001e0: de36 373c d723 62bc 20d9 4d3c 1da8 a73b
000001f0: 51cb 18bb db73 bbbb f728 e43b 0be6 ecbb
00000200: 8b51 863c 237f 7cbc 9b09 4d3b 6dba 993b
00000210: 498c a23a c457 9a3c 0303 ab3c fbd8 c0bb
00000220: 6a18 9fbc 737e 18bc c1fd 8b3b 3ff3 67bb
00000230: 08aa 16bb 7de8 95bb 2b71 333b a73a a03b
00000240: f0d3 563b 8caa 9f3c c2f2 f5ba 5d29 fe3b
00000250: a8a5 e4bb 8a3a 58bb b3fe 3c3b dbfe 23bc
00000260: a7bd 77ba ebb3 9fbb f5fd 24bc 82a6 d43b
00000270: 9d37 74bc e7eb 97bc 1c31 48bc 8181 b7ba
00000280: 9a8a b23c 54dd 01bc db6d c63a 6fc0 9fba
00000290: d3ce 2b3c c51d d73b 9268 d53b 75ba 853c
000002a0: 6901 a13c 3840 40bb 6f0e c3bb dfbe bdbb
000002b0: 806b d5ba 48fa f4bb c607 1c3c d378 46bc
000002c0: 1868 513c 4060 243c 7a4e 63bc 006c 3b3b
000002d0: 5f54 ab3b bf30 96bb 3d2f fb3b dfe2 bb3b
000002e0: 2349 013c dfb2 0e3b 9c83 babb df3a 3e3c
000002f0: c4b4 a33c 7724 2ebc af9e e43a 64c5 8dbc
00000300: 41c2 38bc cb12 193c 0d0e 573c 30b6 863b
00000310: 3d51 023c fb27 c03a 9b4e 213c 6aec 283c
00000320: ee2f 893b af6d 4bbb 42b1 f63b 3bac 42bb
00000330: 62a2 0dbc 85f9 eabb 3fcc 823c ffbc 513c
00000340: 0e7d 033c 0f4d 96bc ab71 f73b 21f8 053b
00000350: 3294 8a3a 538e 3cbc 695b a03b cbfd 153b
00000360: a9e8 b63b 8e5b 2f3b aba2 05bb abca 3abc
00000370: 7670 1bbc a221 30bb e35a c93a a5c7 ea3a
00000380: 3ada eaba bddc eeba 8f98 45bc 8198 983b
00000390: ca36 67bb 27e0 1e39 2a47 10bc 33a0 82bc
000003a0: 36ca 1cbc ab71 083c 2982 bbbc 4dfd a2bb
000003b0: a537 7ebb a2b9 7a3a f055 dc3a 78c9 7ebb
000003c0: 5026 57bb 8736 d33a bdac c3bc 6ad7 d0ba
000003d0: 1400 c1bb eea9 843a bda4 0bbc 6857 b2ba
000003e0: 4ad4 4fbc 68cd d93b 0c63 a4bb fd36 2dbb
000003f0: 1875 5639 c5a6 4f3c f385 9b3b 6bae 503b

action_model._discrete_distribution.branches.3.bias f4 [2]
0.0 0.0
00000000: 0000 0000 0000 0000

action_model._discrete_distribution.branches.3.weight f4 [2, 128]
-0.0009772404 -0.0020215318 -0.003982785 0.010048139 -0.021602852 -0.0032890018 0.011838761 -0.001013561
0.00915574 0.011233546 -0.0047962717 -0.0029208849 -0.008020836 0.0025546472 0.016110698 -0.015966965
0.0152943 -0.007068287 0.01898394 0.006936212 0.0065904977 0.0014410679 0.016394338 4.9910806e-05
0.003135236 0.012614471 0.007839785 0.02434598 -0.00251377 -0.015962543 -0.0009639158 -0.0071343905
-0.017916745 -0.005433666 -0.012428603 -0.002282854 0.0034104437 -0.016492506 -0.012830115 0.0014691403
-0.002701851 0.009645107 0.0053806105 0.0039508985 -0.0068417424 0.000760545 0.0040138145 -0.0038253136
0.0038430484 -0.00094928633 0.0051721586 -0.0069010765 0.0056388606 -0.0026460527 -0.0007179317 -0.004577614
-0.0019938936 0.0068112807 -0.018847205 0.007415595 0.011465397 0.022239342 -0.008395094 -0.0043089944
0.0006492535 0.0052188784 0.0057949666 0.012215446 -0.00029224105 0.0058705956 0.0017486227 0.0009031535
0.013583519 0.009341745 0.0047061667 -0.0037188977 0.0028466608 0.010054458 0.010039124 -0.008286129
-0.0066444464 0.00428791 -0.0080002975 -0.014432343 -0.009950139 -0.010496999 -0.002286299 0.0188186
-0.011815758 0.010710078 -0.0009829045 -0.010923992 0.0063590514 -0.008439257 0.008425544 0.017704522
-0.006669858 -0.01195445 -0.009215857 -0.0057599405 0.011752258 0.012846599 0.00024596017 0.0012109862
-0.0017812822 0.0019057386 0.011618345 -0.012345595 -0.011576166 0.008350921 -0.0025952489 0.007665997
-0.005726942 0.015227586 -0.017720165 0.00021620102 0.006149423 -0.0017958876 0.005195171 0.010845761
-0.020513544 -0.004550477 -0.007434213 0.0016769323 -0.0065797702 -0.0072474442 -0.011113647 0.014272138
-0.007153635 0.0050178766 0.0024020157 -0.0012532262 -0.00091205206 -0.0062245517 0.009668061 0.012234766
-0.0024560827 0.00890668 -0.015548167 -0.005468476 -0.003136154 0.0058305985 -0.011870066 -0.0033455286
0.007019228 0.013593124 0.0031044285 0.008318166 0.005007976 -0.009634829 -0.004266786 -0.00826519
-0.0021170336 0.013506996 0.004592803 -0.005991721 0.0029675518 0.0049372604 -0.0009560659 -0.0042843837
-0.0047032456 0.001144242 0.0019667742 0.020502184 -0.004247021 0.0029163957 0.011344741 -0.0074458504
0.008947795 -0.0011387252 -0.012318588 -0.004421716 -0.015552515 0.0006307515 0.0053359126 0.0038581335
0.0034417498 -0.006041817 0.0039643496 -0.010187625 -0.008127484 0.012870014 -0.00030286532 -8.714216e-05
-0.008744158 -0.011419149 -0.008243281 -0.002532795 -0.0014347034 -0.012691486 0.0020515225 -0.011670428
0.004508942 -0.0020365685 -0.010439406 0.015642438 0.0058805374 -0.0054736375 0.01952825 -0.0067356336
-0.005834712 0.009432122 -0.0074007534 -0.00950475 -0.0071783373 -0.015444505 -0.01913478 -0.010256137
-0.0010314144 -0.0024007598 0.013578673 -0.021404274 0.00043343124 0.007831985 0.00422141 0.012816506
0.015732137 0.0064408104 -0.017896807 -0.0058145095 2.7401324e-05 0.00019319775 -0.009150996 -0.007361028
0.0059068147 -0.0015353928 -0.0026277339 0.0013517531 -0.0058462685 0.0067454726 -0.006152273 -0.01344467
0.0032141765 0.0007611032 -0.0094837 0.00483131 -0.01961921 -0.00077981636 0.0011818 -0.0031715308
-0.0127166575 0.0039794366 0.0058504683 -0.004415015 -0.010978831 0.010711019 0.0001309036 -0.020738835
0.0022582721 -0.011996895 0.0041754264 0.0053420993 -0.0032169435 -0.002262433 -0.0071842084 0.024887335
00000000: bf16 80ba ad7b 04bb 0682 82bb f3a0 243c
00000010: 77f8 b0bc 4b8c 57bb 5df7 413c 77d9 84ba
00000020: f501 163c e80c 383c 0b2a 9dbb 516c 3fbb
00000030: d369 03bc de6b 273b 95fa 833c 27cd 82bc
00000040: f294 7a3c 179d e7bb 3584 9b3c 2a49 e33b
00000050: 1af5 d73b 37e2 bc3a 6b4d 863c 5257 5138
00000060: 8878 4d3b edac 4e3c 7172 003c 3871 c73c
00000070: 10be 24bb e1c3 82bc 4baf 7cba 9bc7 e9bb
00000080: 23c6 92bc e50c b2bb 57a1 4bbc ef9b 15bb
00000090: c081 5f3b 4b1b 87bc 6735 52bc 2b90 c03a
000000a0: 8a11 31bb 8306 1e3c d54f b03b 8a76 813b
000000b0: b230 e0bb 505f 473a 5186 833b 1db2 7abb
000000c0: a7db 7b3b 87d9 78ba 367b a93b 6d22 e2bb
000000d0: 31c6 b83b 6669 2dbb 9533 3cba cfff 95bb
000000e0: fcab 02bb 2a31 df3b 7465 9abc 85fe f23b
000000f0: 5cd9 3b3c 482f b63c 948b 09bc 7732 8dbb
00000100: aa32 2a3a 2003 ab3b b4e3 bd3b 4b23 483c
00000110: ee37 99b9 205e c03b 0b32 e53a 9bc1 6c3a
00000120: 688d 5e3c 1e0e 193c 3036 9a3b c0b8 73bb
00000130: 0b8f 3a3b 74bb 243c 237b 243c 8bc2 07bc
00000140: a8b9 d9bb 9981 8c3b ae13 03bc a275 6cbc
00000150: e805 23bc 9bfb 2bbc bbd5 15bb 7729 9a3c
00000160: e296 41bc 5379 2f3c cdd4 80ba 8bfa 32bc
00000170: 975f d03b cf44 0abc 4b0b 0a3c 1309 913c
00000180: d38e dabb 99dc 43bc 1bfe 16bc e2bd bcbb
00000190: 8b8c 403c 8b7a 523c 37f4 8039 f4b9 9e3a
000001a0: ea79 e9ba fac9 f93a df5a 3e3c 2e45 4abc
000001b0: f6a9 3dbc 4dd2 083c 0d15 2abb 0b33 fb3b
000001c0: 12a9 bbbb 207d 793c e129 91bc 05b4 6239
000001d0: 1981 c93b fd63 ebba 413c aa3b 6bb2 313c
000001e0: 050c a8bc 2b1c 95bb b39a f3bb 83cc db3a
000001f0: 1d9b d7bb f87b edbb 0416 36bc afd5 693c
00000200: 0a69 eabb 006d a43b 236b 1d3b 4b43 a4ba
00000210: c716 6fba 53f7 cbbb c966 1e3c 5474 483c
00000220: 3bf6 20bb 53ed 113c bdbd 7ebc e730 b3bb
00000230: ef87 4dbb 9b0e bf3b aa7a 42bc a840 5bbb
00000240: 8d01 e63b b2b5 5e3c ab73 4b3b eb48 083c
00000250: f319 a43b 67db 1dbc 65d0 8bbb b86a 07bc
00000260: eebd 0abb 734c 5d3c 397f 963b 3356 c4bb
00000270: 427b 423b bec8 a13b 7fa0 7aba 0464 8cbb
00000280: af1d 9abb 64fa 953a ffe4 003b 32f4 a73c
00000290: 982a 8bbb 0021 3f3b 4bdf 393c 52fc f3bb
000002a0: c699 123c 4741 95ba e7d3 49bc 0be4 90bb
000002b0: facf 7ebc 0459 253a e1d8 ae3b bdd8 7c3b
000002c0: fb8e 613b 6ffa c5bb 60e7 813b ffe9 26bc
000002d0: 2329 05bc c0dc 523c e5c9 9eb9 17c0 b6b8
000002e0: a843 0fbc 6217 3bbc d40e 07bc 40fd 25bb
000002f0: a80c bcba f3ef 4fbc d672 063b 5335 3fbc
00000300: bfbf 933b f377 05bb 0b0a 2bbc 9224 803c
00000310: 86b1 c03b 335c b3bb b5f9 9f3c 97b6 dcbb
00000320: 1d31 bfbb 3089 1a3c 0582 f2bb d0b9 1bbc
00000330: 4238 ebbb f30a 7dbc 8bc0 9cbc 5b09 28bc
00000340: 8630 87ba 1156 1dbb 1579 5e3c 0458 afbc
00000350: 283e e339 ba51 003c c153 8a3b 53fc 513c
00000360: afe0 803c 6f0d d33b 539c 92bc a487 bebb
00000370: e5db e537 2095 4a39 0fee 15bc c734 f1bb
00000380: f48d c13b 3c3f c9ba 0f36 2cbb 4f2d b13a
00000390: 0e92 bfbb 2009 dd3b 0299 c9bb 0847 5cbc
000003a0: efa4 523b c584 473a 8561 1bbc f74f 9e3b
000003b0: 77b8 a0bc 976c 4cba a1e6 9a3a 75d9 4fbb
000003c0: 8759 50bc ef65 823b 49b5 bf3b d5ab 90bb
000003d0: 8ee0 33bc 457d 2f3c 2b43 0939 7de4 a9bc
000003e0: 85ff 133b a08e 44bc 04d2 883b c70c af3b
000003f0: 5bd3 52bb 5445 14bb 8269 ebbb 86e0 cb3c

network_body.linear_encoder.seq_layers.0.bias f4 [128]
0.0 0.0 0.0 0.0 0.0 0.0 0.0 0.0
0.0 0.0 0.0 0.0 0.0 0.0 0.0 0.0
0.0 0.0 0.0 0.0 0.0 0.0 0.0 0.0
0.0 0.0 0.0 0.0 0.0 0.0 0.0 0.0
0.0 0.0 0.0 0.0 0.0 0.0 0.0 0.0
0.0 0.0 0.0 0.0 0.0 0.0 0.0 0.0
0.0 0.0 0.0 0.0 0.0 0.0 0.0 0.0
0.0 0.0 0.0 0.0 0.0 0.0 0.0 0.0
0.0 0.0 0.0 0.0 0.0 0.0 0.0 0.0
0.0 0.0 0.0 0.0 0.0 0.0 0.0 0.0
0.0 0.0 0.0 0.0 0.0 0.0 0.0 0.0
0.0 0.0 0.0 0.0 0.0 0.0 0.0 0.0
0.0 0.0 0.0 0.0 0.0 0.0 0.0 0.0
0.0 0.0 0.0 0.0 0.0 0.0 0.0 0.0
0.0 0.0 0.0 0.0 0.0 0.0 0.0 0.0
0.0 0.0 0.0 0.0 0.0 0.0 0.0 0.0
00000000: 0000 0000 0000 0000 0000 0000 0000 0000
00000010: 0000 0000 0000 0000 0000 0000 0000 0000
00000020: 0000 0000 0000 0000 0000 0000 0000 0000
00000030: 0000 0000 0000 0000 0000 0000 0000 0000
00000040: 0000 0000 0000 0000 0000 0000 0000 0000
00000050: 0000 0000 0000 0000 0000 0000 0000 0000
00000060: 0000 0000 0000 0000 0000 0000 0000 0000
00000070: 0000 0000 0000 0000 0000 0000 0000 0000
00000080: 0000 0000 0000 0000 0000 0000 0000 0000
00000090: 0000 0000 0000 0000 0000 0000 0000 0000
000000a0: 0000 0000 0000 0000 0000 0000 0000 0000
000000b0: 0000 0000 0000 0000 0000 0000 0000 0000
000000c0: 0000 0000 0000 0000 0000 0000 0000 0000
000000d0: 0000 0000 0000 0000 0000 0000 0000 0000
000000e0: 0000 0000 0000 0000 0000 0000 0000 0000
000000f0: 0000 0000 0000 0000 0000 0000 0000 0000
00000100: 0000 0000 0000 0000 0000 0000 0000 0000
00000110: 0000 0000 0000 0000 0000 0000 0000 0000
00000120: 0000 0000 0000 0000 0000 0000 0000 0000
00000130: 0000 0000 0000 0000 0000 0000 0000 0000
00000140: 0000 0000 0000 0000 0000 0000 0000 0000
00000150: 0000 0000 0000 0000 0000 0000 0000 0000
00000160: 0000 0000 0000 0000 0000 0000 0000 0000
00000170: 0000 0000 0000 0000 0000 0000 0000 0000
00000180: 0000 0000 0000 0000 0000 0000 0000 0000
00000190: 0000 0000 0000 0000 0000 0000 0000 0000
000001a0: 0000 0000 0000 0000 0000 0000 0000 0000
000001b0: 0000 0000 0000 0000 0000 0000 0000 0000
000001c0: 0000 0000 0000 0000 0000 0000 0000 0000
000001d0: 0000 0000 0000 0000 0000 0000 0000 0000
000001e0: 0000 0000 0000 0000 0000 0000 0000 0000
000001f0: 0000 0000 0000 0000 0000 0000 0000 0000

network_body.linear_encoder.seq_layers.0.weight f4 [128, 70]
-0.06389342 0.14157462 0.0041961046 0.1575338 0.13546598 0.109721854 -0.10819468 0.12019783
0.10537381 -0.08055469 -0.069054045 0.0072428533 0.0031647398 0.06485665 0.008361694 0.019178675
0.13423555 0.039043713 0.052598786 -0.024639966 0.011311265 -0.029255627 -0.009341378 0.008772288
-0.103350475 -0.24861324 -0.0390856 0.011958407 -0.14681967 0.095243804 0.13418902 0.3025734
0.17742199 -0.040692713 0.121553265 -0.020657128 -0.07505111 0.11355011 -0.085205406 0.15092197
0.05707048 -0.0324034 -0.12385752 0.005766691 0.12804693 0.02407509 -0.14603157 0.09661149
-0.20417447 0.12815414 0.011021608 0.052546807 -0.0860226 0.027274651 0.0044623963 0.012617267
-0.01921376 0.09359012 0.021841822 0.104849555 -0.10252889 0.23979542 -0.013203984 0.05589217
0.12418021 -0.027564408 -0.048100047 -0.11292131 0.0020774677 -0.019349 -0.06826566 -0.031927515
-0.1531962 -0.15200663 0.11478704 -0.032782204 -0.24289992 -0.11570198 -0.011504725 0.034666844
0.02167646 -0.040793825 -0.014297604 0.077552274 0.042448904 -0.084848806 -0.07458771 -0.1400623
0.12986389 0.0012428 -0.03682365 0.032012843 -0.042710997 -0.026858654 0.016557576 -0.35130453
0.07167105 0.22724245 0.18872932 -0.09974327 0.13290963 0.12016124 -0.04645026 -0.0076435255
0.0019188337 -0.11242047 0.011728369 -0.034183733 -0.038736444 0.049353004 -0.05424566 0.12910794
0.0038192815 -0.054787576 -0.179321 0.110433616 -0.14589018 -0.010098546 -0.03809255 -0.03858977
-0.17546767 0.099202335 -0.14373781 -0.15845546 0.08084173 -0.015137399 -0.006059809 0.11236187
-0.15401359 0.184229 -0.19739798 0.13111508 0.14088842 0.10204224 -0.306636 0.009940099
0.23343891 -0.08949561 -0.026972748 -0.060097724 0.22229095 0.09953397 0.18969932 -0.10553546
0.09597358 0.029912055 0.00471405 -0.1445381 -0.0051961713 0.09118402 -0.0119559765 -0.20956829
0.076491535 0.066656046 0.01829 0.095966004 -0.029786546 -0.023817062 -0.00053737895 -0.1292496
-0.08675555 -0.07542254 -0.19914694 0.10561882 -0.037038416 0.22869623 -0.012158588 -0.16833323
0.10567449 0.0036500297 0.2047877 0.020567408 -0.02812519 0.07099327 0.014730343 0.08158226
0.022239795 -0.13931948 0.02757238 -0.07398659 0.16888332 0.04782187 -0.008733203 -0.11682031
0.04764245 0.19033755 -0.2370118 0.07466964 -0.002284661 0.06792594 -0.15415397 0.04756048
-0.18092686 -0.18471432 0.087295674 -0.004451374 0.01930861 -0.123317294 -0.056117166 -0.26512554
-0.13482639 -0.11988974 -0.06736526 0.14859274 0.15478817 -0.09827438 -0.14375503 -0.06955867
0.11011221 -0.18310729 0.043020993 0.2012525 0.14540277 0.009595496 0.0682546 0.003981125
-0.13398623 -0.12760442 -0.0020946485 -0.11878181 -0.02089862 0.061493896 0.24248043 -0.09550408
0.23032673 -0.0007127775 -0.12072028 -0.14847977 0.20731856 -0.15022661 0.08560429 0.057107355
-0.023350557 -0.115249544 -0.11367614 0.12381956 0.050355323 0.023444625 -0.11088236 -0.07338683
0.05626693 0.015538782 0.20725083 0.11047534 -0.15621488 -0.09034747 0.008303856 -0.06615018
0.05925368 -0.116688535 -0.1520864 0.19144104 -0.03490204 0.04138332 0.09790446 0.15646358
00000000: 8eda 82bd f0f8 103e 7a7f 893b 8a50 213e
00000010: 98b7 0a3e dab5 e03d 2c95 ddbd 482a f63d
00000020: 39ce d73d dbf9 a4bd 356c 8dbd 7555 ed3b
00000030: 8667 4f3b 90d3 843d 7dff 083c 991c 9d3c
00000040: 0b75 093e 4dec 1f3d d371 573d c1d9 c9bc
00000050: e252 393c 7fa9 efbc 940c 19bc a5b9 0f3c
00000060: 6aa9 d3bd 7894 7ebe 3918 20bd 32ed 433c
00000070: e557 16be 2f0f c33d d968 093e e7ea 9a3e
00000080: 1cae 353e 67ad 26bd ebf0 f83d 2339 a9bc
00000090: 65b4 99bd f68c e83d 2c80 aebd 4a8b 1a3e
000000a0: bcc2 693d 6db9 04bd 03a9 fdbd 83f6 bc3b
000000b0: bc1e 033e 2039 c53c 4d89 15be 3fdc c53d
000000c0: 1d13 51be d73a 033e f993 343c 523b 573d
000000d0: 9e2c b0bd 176f df3c 4b39 923b a7b8 4e3c
000000e0: 2d66 9dbc 2dac bf3d 9fed b23c 5dbb d63d
000000f0: abfa d1bd ee8c 753e 8655 58bc 30ef 643d
00000100: 3252 fe3d c1ce e1bc 8e04 45bd 4a43 e7bd
00000110: 2026 083b cb81 9ebc dece 8bbd 6dc6 02bd
00000120: 77df 1cbe a0a7 1bbe 7815 eb3d a246 06bd
00000130: c2ba 78be 29f5 ecbd 507e 3cbc d2fe 0d3d
00000140: d592 b13c 6d17 27bd 7f40 6abc bad3 9e3d
00000150: e7de 2d3d 36c5 adbd 71c1 98bd 7e6c 0fbe
00000160: 0afb 043e 73e5 a23a 65d4 16bd e61f 033d
00000170: baf1 2ebd ae06 dcbc c1a3 873c 30de b3be
00000180: 45c8 923d 3fb2 683e 4242 413e 3346 ccbd
00000190: 7619 083e 1917 f63d a142 3ebd 8a76 fabb
000001a0: 6081 fb3a b43c e6bd 5828 403c 3e04 0cbd
000001b0: 1baa 1ebd 6026 4a3d b230 5ebd df34 043e
000001c0: e94c 7a3b f068 60bd ed9f 37be 052b e23d
000001d0: 3c64 15be 5f74 25bc ef06 1cbd 4f10 1ebd
000001e0: ccad 33be 982a cb3d 0130 13be 2642 22be
000001f0: 5990 a53d da02 78bc 5d91 c6bb fb1d e63d
00000200: bdb5 1dbe 87a6 3c3e b222 4abe 0843 063e
00000210: 0e45 103e 86fb d03d 65ff 9cbe ccdb 223c
00000220: 9c0a 6f3e 7949 b7bd f4f5 dcbc 0829 76bd
00000230: 3da0 633e 77d8 cb3d 8a40 423e fa22 d8bd
00000240: cc8d c43d 200a f53c 5178 9a3b cc01 14be
00000250: a544 aabb b0be ba3d 00e3 43bc 1299 56be
00000260: 98a7 9c3d f782 883d e9d4 953c d389 c43d
00000270: ea02 f4bc 001c c3bc e4de 0cba 025a 04be
00000280: e5ac b1bd 2277 9abd 2ded 4bbe ae4e d83d
00000290: 98b5 17bd 582f 6a3e d034 47bc 8c5f 2cbe
000002a0: de6b d83d 5635 6f3b deb3 513e fb7c a83c
000002b0: cc66 e6bc eb64 913d 8957 713c 9a14 a73d
000002c0: 3b30 b63c c4a9 0ebe 79df e13c 4886 97bd
000002d0: c0ef 2c3e dde0 433d b515 0fbc 7d3f efbd
000002e0: bb24 433d d9e7 423e 39b3 72be 65ec 983d
000002f0: 40ba 15bb c11c 8b3d 8ada 1dbe c7ce 423d
00000300: e444 39be c025 3dbe 13c8 b23d d5dc 91bb
00000310: 172d 9e3c c78d fcbd 1ddb 65bd 89be 87be
00000320: ee0f 0abe c188 f5bd ccf6 89bd b228 183e
00000330: ca80 1e3e 1444 c9bd 8534 13be c774 8ebd
00000340: 8382 e13d 7a80 3bbe c836 303d 2315 4e3e
00000350: 77e4 143e 6d36 1d3c 11c9 8b3d 1974 823b
00000360: b033 09be bcaa 02be 5f46 09bb e143 f3bd
00000370: 9533 abbc 06e1 7b3d ca4c 783e a597 c3bd
00000380: c5da 6b3e b0d9 3aba 323c f7bd 150b 18be
00000390: 514b 543e 01d5 19be 4d51 af3d 67e9 693d
000003a0: ab49 bfbc f407 ecbd 09cf e8bd 1c95 fd3d
000003b0: 6241 4e3d f10e c03c 4a16 e3bd d64b 96bd
000003c0: 2778 663d 6096 7e3c 9039 543e e540 e23d
000003d0: cbf6 1fbe 1808 b9bd e50c 083c bf79 87bd
000003e0: fdb3 723d 66fa eebd 8abc 1bbe 1f09 443e
000003f0: 71f5 0ebd 8e81 293d 2282 c83d fd37 203e

network_body.linear_encoder.seq_layers.2.bias f4 [128]
0.0 0.0 0.0 0.0 0.0 0.0 0.0 0.0
0.0 0.0 0.0 0.0 0.0 0.0 0.0 0.0
0.0 0.0 0.0 0.0 0.0 0.0 0.0 0.0
0.0 0.0 0.0 0.0 0.0 0.0 0.0 0.0
0.0 0.0 0.0 0.0 0.0 0.0 0.0 0.0
0.0 0.0 0.0 0.0 0.0 0.0 0.0 0.0
0.0 0.0 0.0 0.0 0.0 0.0 0.0 0.0
0.0 0.0 0.0 0.0 0.0 0.0 0.0 0.0
0.0 0.0 0.0 0.0 0.0 0.0 0.0 0.0
0.0 0.0 0.0 0.0 0.0 0.0 0.0 0.0
0.0 0.0 0.0 0.0 0.0 0.0 0.0 0.0
0.0 0.0 0.0 0.0 0.0 0.0 0.0 0.0
0.0 0.0 0.0 0.0 0.0 0.0 0.0 0.0
0.0 0.0 0.0 0.0 0.0 0.0 0.0 0.0
0.0 0.0 0.0 0.0 0.0 0.0 0.0 0.0
0.0 0.0 0.0 0.0 0.0 0.0 0.0 0.0
00000000: 0000 0000 0000 0000 0000 0000 0000 0000
00000010: 0000 0000 0000 0000 0000 0000 0000 0000
00000020: 0000 0000 0000 0000 0000 0000 0000 0000
00000030: 0000 0000 0000 0000 0000 0000 0000 0000
00000040: 0000 0000 0000 0000 0000 0000 0000 0000
00000050: 0000 0000 0000 0000 0000 0000 0000 0000
00000060: 0000 0000 0000 0000 0000 0000 0000 0000
00000070: 0000 0000 0000 0000 0000 0000 0000 0000
00000080: 0000 0000 0000 0000 0000 0000 0000 0000
00000090: 0000 0000 0000 0000 0000 0000 0000 0000
000000a0: 0000 0000 0000 0000 0000 0000 0000 0000
000000b0: 0000 0000 0000 0000 0000 0000 0000 0000
000000c0: 0000 0000 0000 0000 0000 0000 0000 0000
000000d0: 0000 0000 0000 0000 0000 0000 0000 0000
000000e0: 0000 0000 0000 0000 0000 0000 0000 0000
000000f0: 0000 0000 0000 0000 0000 0000 0000 0000
00000100: 0000 0000 0000 0000 0000 0000 0000 0000
00000110: 0000 0000 0000 0000 0000 0000 0000 0000
00000120: 0000 0000 0000 0000 0000 0000 0000 0000
00000130: 0000 0000 0000 0000 0000 0000 0000 0000
00000140: 0000 0000 0000 0000 0000 0000 0000 0000
00000150: 0000 0000 0000 0000 0000 0000 0000 0000
00000160: 0000 0000 0000 0000 0000 0000 0000 0000
00000170: 0000 0000 0000 0000 0000 0000 0000 0000
00000180: 0000 0000 0000 0000 0000 0000 0000 0000
00000190: 0000 0000 0000 0000 0000 0000 0000 0000
000001a0: 0000 0000 0000 0000 0000 0000 0000 0000
000001b0: 0000 0000 0000 0000 0000 0000 0000 0000
000001c0: 0000 0000 0000 0000 0000 0000 0000 0000
000001d0: 0000 0000 0000 0000 0000 0000 0000 0000
000001e0: 0000 0000 0000 0000 0000 0000 0000 0000
000001f0: 0000 0000 0000 0000 0000 0000 0000 0000

network_body.linear_encoder.seq_layers.2.weight f4 [128, 128]
-0.071817 0.052453052 -0.021607252 0.020090755 -0.09974707 0.023243325 -0.014464698 -0.09858649
0.008777834 -0.16636552 0.03195887 -0.15221603 0.092706725 -0.13202082 -0.043445386 -0.01307363
0.059672333 -0.021264877 0.058332782 -0.073889896 -0.06882812 0.25084484 0.020729253 0.041855086
-0.133851 0.0040789484 0.042901922 -0.11208744 -0.009841816 0.09657401 0.061672118 0.00069021824
0.1621292 0.063479416 -0.15683869 -0.10231841 -0.004691685 0.010121551 0.10124103 0.08605679
-0.16478308 -0.0659857 -0.011733511 -0.046003327 0.04013825 -0.22473529 0.054672927 -0.105511576
0.04155531 0.058774594 -0.09143371 -0.039809648 0.07483641 0.09725764 0.037877273 -0.0075994595
-0.09307639 0.076329656 0.049347937 0.09948599 -0.044063285 0.03209763 -0.06317172 0.070692815
-0.01750002 -0.031639922 -0.024720054 0.012407302 -0.08848779 -0.03488779 0.020144543 0.10841942
-0.06231267 -0.019503035 0.075882286 0.04576266 -0.060709022 0.06425028 -0.10352696 -0.07927869
-0.010643276 0.201831 0.023083637 0.034300514 0.015251096 0.09161964 -0.002776989 0.017999478
-0.019882606 -0.033125915 0.013582635 0.06316614 -0.07574645 0.10628602 0.1584619 -0.0932843
-0.06327796 0.027543258 0.008099956 -0.12023631 0.064308286 0.030375175 0.06588825 -0.025058655
0.0067388844 -0.08317154 0.08298927 -0.081474505 0.035687197 0.012033765 -0.024678463 0.006375064
-0.04101267 -0.008991093 0.022556528 -0.053230103 -0.05221051 0.12057377 0.048537295 -0.057720054
-0.1492867 0.0566292 0.004299487 0.04562327 0.18763293 0.038041927 -0.08622517 -0.12774555
0.037500765 -0.048982956 -0.09006808 0.0052305143 0.008818928 -0.07101452 -0.022967145 -0.06098986
0.063819386 0.13101761 -0.06696074 -0.053865172 0.034621663 0.11005582 0.0055607166 -0.07007107
-0.08923873 0.044120453 0.0123338085 -0.0154317105 -0.12802897 0.08374704 -0.16294014 -0.27106225
0.18736494 -0.06624985 -0.05481473 -0.025753323 -0.01747855 -0.117421016 0.28605488 -0.01261266
0.0074099237 -0.051499013 -0.004946525 0.054617688 0.004534905 -0.11960767 -0.20455724 0.081255786
-0.068516724 -0.019671654 0.046161715 -0.090895906 0.10143729 0.0053399187 -0.02826972 -0.14513153
0.090214066 0.026193425 -0.04054506 -0.008367705 -0.045876823 0.03882221 0.026518986 -0.23275849
-0.05479361 -0.0032626903 -0.06510068 -0.095672235 -0.035058986 -0.003776786 -0.029880699 -0.06847337
-0.08949986 0.04531972 0.17636614 0.00027969532 0.04251117 0.0069512906 0.0038503474 -0.00995809
0.19351679 -0.010448064 -0.06161266 0.057795286 -0.007869931 0.1237724 0.04142399 0.097103894
0.14111586 0.09500738 0.10842231 0.061368186 0.06259569 0.10945846 -0.053067185 -0.09708749
-0.053680416 -0.22771181 -0.043302007 0.054681104 0.020676978 -0.06375107 0.12972857 0.020664763
0.0026445657 -0.038024563 0.07437708 0.004972784 -0.07343628 -0.14882596 0.08739716 -0.0821696
0.048146173 -0.057536554 -0.007716185 0.020919828 0.08476074 -0.02177593 -0.051378872 -0.07042851
0.0954282 0.032680325 0.100094296 0.051901594 0.024690498 -0.13394724 0.08768979 -0.04467402
0.038408563 0.04117636 -0.045513816 0.096184395 0.014643758 -0.016277997 0.039052553 -0.0008984189
00000000: cb14 93bd 03d9 563d b101 b1bc 5e95 a43c
00000010: 3148 ccbd c968 be3c 57fd 6cbc b7e7 c9bd
00000020: e7d0 0f3c b95b 2abe 4ee7 023d 85de 1bbe
00000030: 06dd bd3d 7730 07be caf3 31bd c732 56bc
00000040: fa6a 743d ae33 aebc 5bee 6e3d 9653 97bd
00000050: c2f5 8cbd bc6e 803e 65d0 a93c 3d70 2b3d
00000060: 3d10 09be b3a8 853b edb9 2f3d 1a8e e5bd
00000070: 913f 21bc 98c8 c53d e79b 7c3d c3ef 343a
00000080: 3205 263e 7f01 823d 529a 20be 518c d1bd
00000090: b5bc 99bb ddd4 253c 7557 cf3d 8b3e b03d
000000a0: e5bc 28be 8323 87bd ea3d 40bc fc6d 3cbd
000000b0: 0168 243d 0221 66be b8f0 5f3d 7416 d8bd
000000c0: e735 2a3d a1bd 703d 9941 bbbd 710f 23bd
000000d0: d543 993d 032f c73d 3325 1b3d e304 f9bb
000000e0: d69e bebd b952 9c3d 1021 4a3d 50bf cb3d
000000f0: b47b 34bd ce78 033d 2d60 81bd 65c7 903d
00000100: 345c 8fbc dd98 01bd b681 cabc ff47 4b3c
00000110: 1639 b5bd 80e6 0ebd 2b06 a53c 000b de3d
00000120: 923b 7fbd d4c4 9fbc 2c68 9b3d a171 3b3d
00000130: 06aa 78bd a795 833d f105 d4bd de5c a2bd
00000140: 2361 2ebc c9ac 4e3e e519 bd3c b27e 0c3d
00000150: bcdf 793c 14a3 bb3d 25fe 35bb a473 933c
00000160: d9e0 a2bc 0aaf 07bd b389 5e3c 405d 813d
00000170: f420 9bbd 7cac d93d d643 223e d70b bfbd
00000180: e097 81bd 66a2 e13c aeb5 043c 743e f6bd
00000190: 10b4 833d 5cd5 f83c 6bf0 863d cf47 cdbc
000001a0: dcd1 dc3b d755 aabd 47f6 a93d 1bdc a6bd
000001b0: bd2c 123d 4529 453c 7d2a cabc eae5 d03b
000001c0: e7fc 27bd 614f 13bc 78c8 b83c cf07 5abd
000001d0: b0da 55bd 61ef f63d 0bcf 463d dd6b 6cbd
000001e0: 9dde 18be 05f4 673d b6e2 8c3b 77df 3a3d
000001f0: d922 403e dad1 1b3d d296 b0bd bbcf 02be
00000200: 679a 193d 5aa2 48bd 9d75 b8bd bc64 ab3b
00000210: 447d 103c 1070 91bd 9825 bcbc 81d0 79bd
00000220: bdb3 823d 7b29 063e b622 89bd baa1 5cbd
00000230: 72cf 0d3d f264 e13d ac36 b63b 6c81 8fbd
00000240: ccc2 b6bd a6b7 343d be13 4a3c 49d5 7cbc
00000250: 071a 03be 9183 ab3d c8d9 26be acc8 8abe
00000260: 98dc 3f3e 00ae 87bd 6985 60bd a2f8 d2bc
00000270: 2d2f 8fbc 6e7a f0bd c975 923e 55a5 4ebc
00000280: f2ce f23b a1f0 52bd 7616 a2bb ccb6 5f3d
00000290: 8a99 943b def4 f4bd 7477 51be 6f69 a63d
000002a0: 7f52 8cbd 7326 a1bc 1114 3d3d a227 babd
000002b0: 5bbe cf3d 7cfa ae3b e695 e7bc 5c9d 14be
000002c0: 27c2 b83d 9893 d63c 9412 26bd b318 09bc
000002d0: 56e9 3bbd 0a04 1f3d 583e d93c 3e58 6ebe
000002e0: 446f 60bd dcd2 55bb 8153 85bd ceef c3bd
000002f0: 039a 0fbd f483 77bb 5ec8 f4bc c43b 8cbd
00000300: b44b b7bd 2ca1 393d 5399 343e 12a4 9239
00000310: 3120 2e3d a7c7 e33b 1c56 7c3b 4227 23bc
00000320: 4429 463e 5b2e 2bbc 8e5d 7cbd c0ba 6c3d
00000330: e2f0 00bc 627c fd3d 34ac 293d 68de c63d
00000340: ad80 103e 3b93 c23d 840c de3d 355d 7b3d
00000350: 2b32 803d c22b e03d fa5c 59bd ced5 c6bd
00000360: ffdf 5bbd 492d 69be 725d 31bd 4bf9 5f3d
00000370: c462 a93c ec8f 82bd 91d7 043e 2649 a93c
00000380: 7350 2d3b a5bf 1bbd 0353 983d bcf2 a23b
00000390: c365 96bd d565 18be 48fd b23d 8948 a8bd
000003a0: ec34 453d 73ab 6bbd 0dd8 fcbb 0f60 ab3c
000003b0: 0a97 ad3d 6f63 b2bc a772 52bd d33c 90bd
000003c0: dc6f c33d cedb 053d 3dfe cc3d c496 543d
000003d0: ba43 ca3c 7729 09be b496 b33d 1bfc 36bd
000003e0: 4c52 1d3d 8ba8 283d b26c 3abd 53fc c43d
000003f0: 5fec 6f3c 6f59 85bc 92f5 1f3d df83 6bba
