Assets/Models/Thesis/default.onnx (onnx, 114822 bytes, 12 tensors)

action_model._discrete_distribution.branches.0.bias f4 [3]
00000000: 7972 f4bb a397 943c c047 dcbb
-0.0074599353 0.018138712 -0.0067224205

action_model._discrete_distribution.branches.0.weight f4 [3, 128]
00000000: ac8a de3c b416 673d eb37 aa3c 19d0 b83d
00000010: ac01 24bd 6cd7 9dbd 0d65 b6bc 516f a13d
00000020: de77 143d 5128 473c df05 64bd 7b3d 84bc
00000030: 15a2 cd3d 7dab 953c 408b a93b ec13 3abd
00000040: 8f36 ad3d 9c81 503c d15e e9bc c7fc 613c
00000050: 8494 053c 1e29 e03c a5de c7bc 8c05 eabc
00000060: b86f 93bc 2fcd f13c b6c8 863a 5821 fdbc
00000070: 3c1a 37bd f7c0 00bd 1ba4 443d f80d 7b3c
00000080: b3b0 a5bc c4d3 f8bc 53cb 383d 1df1 2cbd
00000090: d312 88bb 92b3 02bd 7d11 b63c d3d7 1ebc
000000a0: 86c6 573d 30b0 ba3c 09b6 5e3c 36a4 3fbd
000000b0: 8232 663d 94f2 4a3c 798c c13d 453e 5fbd
000000c0: 3ec5 853d e464 313c e4d0 b53c 1dcf 8fbd
000000d0: 7e57 3cbd 88d9 db3a 5773 a93d fdf6 0b3c
000000e0: 4f3b a33d d148 25bc 929e e8b9 48c1 23bd
000000f0: 049a 853d 4ed0 103d 8f0a 65bd fad1 093e
00000100: cbb7 f23c 1c7e 203c cd17 763b 066a 3ebc
00000110: c9ef fbba 572c 243d 70f2 52bb c92e 153d
00000120: 90ab f1bc 0404 2d3d 9bb3 1abc aa30 4a3c
00000130: 8454 983d 3252 153d aff9 32bd e777 af3b
00000140: f50b f33c d112 313d 15ec dc3d 40db d13a
00000150: 24e1 f93a 0d66 933d 2378 123d f13e 5bbd
00000160: 7710 f93b f07e 51bd ac96 5abc efc9 483d
00000170: 90f8 99bc 90da 993d ddb2 ffba 37a0 1d3a
00000180: 53a7 2ebd 061c e13d 9342 01bd 2aac 62bb
00000190: f7cf bf3d d1f3 28bd 31b1 98bc 8ad8 b43b
000001a0: 7bd1 b23c 2211 183e 8175 733c 792b 6abd
000001b0: 07c9 c9bc 9528 73bd 37a8 5fbd 8bc2 753c
000001c0: a1e8 a23d 9888 933d 976f 563d df56 e43a
000001d0: 7f91 f6bc 736f d6bb 60e5 123c 0a33 6bbc
000001e0: b907 c3bc 6f52 863c d936 a63c 5601 813d
000001f0: d82d 4cbd e697 0d3e 1985 373d 1178 fc3c
00000200: b7aa a33c 6672 b9bd 3611 703b 50fd e0bd
00000210: 85b2 383d 7d99 963d 7189 f53c 007e 2dbd
00000220: 3927 30bc aecb 96bd 4042 c83d b0dd 88bd
00000230: 9f3d 1ebe d069 bd3b 0ca9 993d 2769 d43d
00000240: cc92 ccbd 4527 833c 4002 783d e84b 173d
00000250: 550a 5a3d 0fd2 9f3b 27ad c03d 7f86 48bd
00000260: 8947 00bd c147 15bc f0e2 2e3d cb06 0c3d
00000270: 8ced ca3d e6bc 3f3d 0992 acbd 1ab7 03bd
00000280: a20b 883d 5e59 333d a4b6 30bd c9e6 ca3d
00000290: 3061 1c3d 96b6 943d 6310 363b 6f6a 943d
000002a0: df40 adbd 18f2 b9bc 4a95 373d ba1e b73d
000002b0: b848 a2bd ccc7 35bd 41d0 4ebe 711d c33d
000002c0: 0504 373b a757 f4bd a90d 0d3d 1dc9 d83d
000002d0: be35 623d 7018 01be 56b5 c1bd ac69 3dbd
000002e0: 0386 71bd 232b 02bc 92de 973d f4a4 853d
000002f0: a93c 0fbb c690 7ebd b2dc 783d 4c8b b9bd
00000300: 07ef 92bd 6e76 0a3d 56ef bb3c 7006 823d
00000310: 280f 89bd 34d7 60bd 28c6 0fbc 5e6d b6bd
00000320: 7c78 ba3d 0c4c 443c ead3 d53d 93b4 52bd
00000330: fb78 c5bc 4143 18bd 860d f63d 80ed bd3d
00000340: 4617 ecbd 3c49 f13c afc3 8cbd 4c54 cfbc
00000350: f1a3 973c 26d2 8cbd 2223 e0bd 4207 ca3d
00000360: d646 6abd 8874 8d3d 9ef4 023d 6deb 96bd
00000370: 654f 8b3d 94ac 71bd 5fea 143d 3546 9ebb
00000380: a2f9 553d 8db9 d0bd 7b62 a8bc 2650 8d3c
00000390: 22e6 b0bd 6343 ad3d f296 2ebb d794 9abc
000003a0: 0610 b8bc 8b53 13be 96d0 9d3b e5cd d83d
000003b0: 173d b43d 52b2 023e 850a 923d 653d 41bc
000003c0: bd35 36be 38ab 2bbc 5d3a 0f3c 4a62 9ebd
000003d0: 94c0 393d 941b 6f3c fa2e 2d3d d481 9d3c
000003e0: 06c6 4a3c 5fc9 90bc 766f 293d 0c2b 27bd
000003f0: f319 ca3d 624b f1bd bbee 773c 5856 21bd
0.027165733 0.056418136 0.020778617 0.090240665 -0.040040657 -0.07707104 -0.022264982 0.0788256
0.036247127 0.012155608 -0.05566966 -0.016142597 0.1004068 0.018270249 0.0051740706 -0.045429155
0.08457672 0.012726214 -0.028487595 0.013793177 0.008153085 0.027363356 -0.024398157 -0.028567098
-0.017997608 0.029516784 0.0010283205 -0.030899689 -0.044702753 -0.031434026 0.048008066 0.015323155
-0.020225858 -0.030374415 0.04511578 -0.04222213 -0.0041526346 -0.031909533 0.022225136 -0.009695011
0.05267956 0.02278909 0.013593205 -0.046787463 0.05620051 0.012386937 0.09450621 -0.054502744
0.065317616 0.010827277 0.022194333 -0.070219256 -0.045981877 0.0016773203 0.082739525 0.008542773
0.079702966 -0.010088162 -0.00044368632 -0.03997925 0.06523517 0.035354905 -0.055918273 0.13459006
0.029628655 0.009795692 0.0037550807 -0.011621958 -0.0019221242 0.04008135 -0.003218796 0.03642157
-0.029500753 0.042240158 -0.009442235 0.012340704 0.07437995 0.03645534 -0.043695148 0.0053548696
0.029668787 0.043230835 0.107872166 0.0016010776 0.001906429 0.07197199 0.035759103 -0.053526822
0.0076008397 -0.051146448 -0.013341587 0.049020704 -0.018795282 0.075123906 -0.0019508261 0.00060129486
-0.04264004 0.10991673 -0.03155763 -0.003458748 0.09365838 -0.041248146 -0.018639179 0.0055189775
0.021828404 0.14850286 0.014859558 -0.057170365 -0.02463199 -0.059364874 -0.05460378 0.014999996
0.07954527 0.072037876 0.052352514 0.0017420909 -0.030098675 -0.0065440475 0.00896582 -0.01435543
-0.023807393 0.01639673 0.020289825 0.06299083 -0.049848408 0.13827476 0.044804666 0.03081897
0.019978864 -0.09055023 0.0036631352 -0.109858155 0.045092124 0.07353494 0.029972764 -0.04235649
-0.010751539 -0.073630676 0.09778261 -0.066829085 -0.15453194 0.005780436 0.07502946 0.10371619
-0.09988937 0.016009936 0.06054902 0.036937624 0.05323251 0.004877336 0.09408026 -0.04895639
-0.03131822 -0.009111346 0.042696893 0.034186166 0.0990859 0.046811007 -0.084262915 -0.03215704
0.06642844 0.0437864 -0.04314293 0.099073 0.038178623 0.07261388 0.0027780763 0.07246863
-0.08459639 -0.022698447 0.044820108 0.089414075 -0.07924026 -0.044379994 -0.2019663 0.095271
0.002792598 -0.11930781 0.034436855 0.10585234 0.055227034 -0.12606978 -0.09458415 -0.046243355
-0.058965694 -0.007944855 0.07415499 0.06525603 -0.0021856225 -0.062149785 0.060757346 -0.09059772
-0.07174497 0.03380435 0.022941273 0.06348884 -0.06692344 -0.054892734 -0.0087752715 -0.08907579
0.09105012 0.011981022 0.1044081 -0.05144174 -0.02410554 -0.037173513 0.12014298 0.09273815
-0.115278766 0.029453866 -0.06873261 -0.02530875 0.01851079 -0.0687602 -0.10944201 0.098646656
-0.05719646 0.06906992 0.031971566 -0.07369123 0.06802253 -0.059002474 0.036356326 -0.0048301467
0.05224002 -0.10191641 -0.020554772 0.017250132 -0.08637644 0.084601186 -0.0026640263 -0.0188698
-0.022468578 -0.14387338 0.004816125 0.10586146 0.088007145 0.12763336 0.07130913 -0.011794423
-0.17793937 -0.010477833 0.008741942 -0.07733591 0.045349672 0.0145939775 0.04228113 0.019226946
0.012376314 -0.017674146 0.041366063 -0.040812537 0.09868231 -0.11781956 0.015132601 -0.039388984

action_model._discrete_distribution.branches.1.bias f4 [3]
00000000: 4c36 39bc 9e70 143c 11e6 d93b
-0.011304449 0.009060053 0.0066497405

action_model._discrete_distribution.branches.1.weight f4 [3, 128]
00000000: 64b9 2bbb 84f8 8dbd ec93 2d3d 6dc0 57bd
00000010: 900f b23b 1130 533d 7579 9f3b 8d91 01bd
00000020: a0d5 99bc c8c5 81bb 2515 ca3c e428 ccba
00000030: 0364 49bd 2afe 953c e2e6 86bc 8511 e83b
00000040: cfa4 ebbb 6ab9 bbbb a4f4 913c fcf4 f3bb
00000050: a180 2abc 3d40 e9bc 9e8d 903b c8c1 ba3c
00000060: c742 a0bb 42b5 03bd bb05 7cbb b454 0bbc
00000070: 8e0e 813c dac6 343c 81eb c03c f822 e93c
00000080: 11aa ef3c f089 1c3d ea6f a2bd 8bd8 7b3c
00000090: 1bc1 603b 1035 3a3b d350 7b3b 1d93 b53c
000000a0: 497b 44bd 98fb de3b 7cd1 b7bc 93e2 d13c
000000b0: f277 73bd f2db ff3b 8f2d 83bd 540d 423d
000000c0: 4e10 f8bc 4c78 ad3c ef62 923c 7ae8 df3c
000000d0: 1b43 043c 96af 15bc d106 03bc 1923 bc3c
000000e0: 41b1 86bd 9826 d23c e2f4 beba 08ad 353d
000000f0: 0742 68bb 75e5 2fbd fe05 a03c 0a21 d5bd
00000100: 6da6 afbc 823a 043b b0ce 0c3c 4f31 463c
00000110: 7c12 b83c 6002 c93c 0019 343c 796b 783d
00000120: 102c c53c cf40 08bd d140 8e3b 5fb5 93bc
00000130: 4b76 23bd 7393 0abd 5b3e dd3b a75c 183c
00000140: a733 81bc dc2c 35bc 4953 3fbd 6a72 c8bb
00000150: f542 7fbc d907 2abd c085 b338 c554 953c
00000160: 0d3d e4bc 2f37 eb3c 2443 503c 2478 5fbd
00000170: c48c bc3c af09 5dbd 48b3 c73c ea4d 613c
00000180: e1db f53c ea98 8fbd 51b0 8dbc 5611 333c
00000190: 9298 a2bd dfd7 183d a7f1 143d 8678 353b
000001a0: 5cb1 86bc 52c0 babd 6cca dc3c 1c8a 3f3d
000001b0: 515e 5f3c a937 c73c de70 8a3c baa8 e8bb
000001c0: ee0d 8bbd 2bf5 39bd 12b4 15bd 8586 54bd
000001d0: a35a 5d3c 97ac db3b 3dfa 1bbc ab79 893b
000001e0: 6a13 863c de64 79bc ded6 3dbb 91bb 15bd
000001f0: 2bdf cf3c 10b7 dfbd b4e0 0ebd 1874 dfbc
00000200: 1df6 1abd d6d7 523c afd0 043c 0693 91bd
00000210: 1403 bdbc 3f8c 763c c1e2 cabc 6a0e c2bc
00000220: aa07 17bd 4fa6 b0ba e858 493b f829 123b
00000230: 792d 40bd ca2d f83b a8dd 3fbc 3525 ca3a
00000240: 4ad7 07bd 62e6 533c f7cb b2bc 79f4 8f3c
00000250: 87e6 64bc 0258 8eba 7455 c9bc 4b1f c8bb
00000260: 66b4 f73c 7a5b 34bd c592 f83b 3c2a 4ebc
00000270: b3be 41bb ee2a 76bc c89b 61bd 5b30 6fbc
00000280: 26c7 793c a7ee 493c 3654 28bd 51a4 8c3b
00000290: f6fe 623b 55ff 223c 0b19 64bc c4a6 f9bb
000002a0: e258 23bc cbca 493d 3c25 993b 3b44 1dbd
000002b0: 1b6c f0bc 4d6f 843c 8e21 5bbd b944 0fbd
000002c0: aed1 1dbc cb92 1bbb 6245 d0bc 7fc3 973b
000002d0: e33a cdbc 1eb6 543c 9f77 9dbb cdeb cdbc
000002e0: 97ae 38bd 66da 3b3c 75ec c6bc e7a2 efbc
000002f0: b1b9 28bc a58e 2abd 3c59 a03c 748f a5bd
00000300: 1ebb 46bd a6c2 193d c7ef 9bbc 7559 abbc
00000310: 8e4c c53c efc8 5dbd bfa3 1cbc a9f3 afbb
00000320: 22a5 d0bb c7aa 693c fbe4 5d3c fa13 a23a
00000330: 8cf5 86bd a908 06bc 8b61 60bc d422 2abc
00000340: 2202 883b 5951 773a 12fc 9bbc cc7d b63c
00000350: 7434 fd3c d28c 91bc 103c f0ba 1bbc 6f3c
00000360: 5fc4 02bd b93f 94bc 15cc 843c c36b 0a3b
00000370: 964e 6ebc 4845 81bd 424e 2ebd d2da 4c3c
00000380: 1906 053d 539e c3bc e7d2 3d3d e55c 02bd
00000390: 426b a3bd 8164 cfbb 67df b7ba 5796 2abc
000003a0: 3408 04bc 542a e1bd 6b11 5cbb b904 3cbc
000003b0: 8011 2ab9 9c22 6dbc 175e 7fbc 90c2 fa3b
000003c0: d1e9 77bd a148 313a c201 22bd bff1 4cbd
000003d0: 815a 4c3d 2eba 773b 8e8a 643c 94bd 413c
000003e0: 7c21 353b 28e3 ee3c 0c0e eebc 1225 42bb
000003f0: 3dc3 69bc 7285 2bbd 5ce5 d5bc 0ba7 fabc
-0.002620303 -0.06932166 0.042377397 -0.052673746 0.005433984 0.05155951 0.0048667737 -0.03163295
-0.018778622 -0.003960345 0.024668286 -0.0015576151 -0.049167644 0.018309671 -0.016467515 0.0070821666
-0.0071912776 -0.00572889 0.017816849 -0.007444976 -0.010406644 -0.028473014 0.0044114133 0.02279748
-0.004890773 -0.032155283 -0.0038455564 -0.0085040815 0.01575401 0.011033738 0.023549797 0.028459057
0.029255899 0.038217485 -0.07931502 0.015371452 0.0034294787 0.0028412975 0.0038347736 0.022164876
-0.047969136 0.0068048947 -0.022438757 0.025620734 -0.05944056 0.007808202 -0.06405174 0.047375992
-0.030281212 0.021175526 0.01786944 0.027332533 0.00807264 -0.009136101 -0.007997231 0.022965955
-0.06576777 0.025653169 -0.001456883 0.04435447 -0.0035439746 -0.042943437 0.019534107 -0.10406692
-0.021441663 0.0020176475 0.0085942 0.012096717 0.022469752 0.024537265 0.010992289 0.06064937
0.024068862 -0.03326493 0.004341223 -0.01803082 -0.039907735 -0.033832025 0.006751818 0.009299434
-0.0157717 -0.011058059 -0.046710286 -0.006117155 -0.015579929 -0.04151139 8.560298e-05 0.018228898
-0.027861143 0.028712837 0.01271132 -0.054557934 0.023016341 -0.053964313 0.02437748 0.013751486
0.030012073 -0.07011588 -0.017295988 0.010929426 -0.07939257 0.037315246 0.03636327 0.0027690246
-0.016441993 -0.091187134 0.026951991 0.04676257 0.013633327 0.024318533 0.016899522 -0.007100192
-0.06789766 -0.045399826 -0.03654868 -0.0518861 0.013510379 0.006703924 -0.009520111 0.004195412
0.01636668 -0.0152218025 -0.0028967182 -0.03655583 0.02537497 -0.10923588 -0.034882262 -0.027277038
-0.03783237 0.012868842 0.008106395 -0.071081206 -0.023072757 0.015048086 -0.024766328 -0.023688514
-0.036872543 -0.0013477298 0.0030723158 0.0022302847 -0.046918366 0.007573818 -0.011710562 0.0015422466
-0.0331643 0.0129333455 -0.021825774 0.017572628 -0.013970978 -0.0010859969 -0.02457688 -0.006107246
0.030237388 -0.04403255 0.0075858557 -0.012583312 -0.0029563128 -0.015024884 -0.055080205 -0.014598931
0.015245235 0.012324966 -0.041095935 0.004292049 0.0034636832 0.009948571 -0.013921986 -0.007618757
-0.009969922 0.049265664 0.004673628 -0.038395148 -0.029348424 0.016166354 -0.053498797 -0.03497765
-0.009632511 -0.0023738618 -0.02542371 0.0046314592 -0.025052493 0.012982873 -0.0048055197 -0.025136853
-0.045088377 0.011465644 -0.024282673 -0.029252483 -0.0102981785 -0.041639943 0.0195738 -0.08084002
-0.048518293 0.037539147 -0.019035233 -0.02091668 0.024084356 -0.054146703 -0.0095605245 -0.0053696227
-0.0063673416 0.014261908 0.013543363 0.0012365573 -0.06589803 -0.008180776 -0.013695131 -0.01038428
0.004150645 0.0009434424 -0.019041095 0.022276781 0.0309088 -0.017767344 -0.0018328447 0.01463225
-0.031925555 -0.018096792 0.016210595 0.002112136 -0.014545104 -0.063120425 -0.0425551 0.012503343
0.03247652 -0.023879206 0.04634371 -0.031826872 -0.07979442 -0.0063291197 -0.0014028371 -0.01041182
-0.008058596 -0.109944016 -0.0033579718 -0.011475735 -0.00016218983 -0.014473584 -0.015586398 0.007652588
-0.06052572 0.0006762837 -0.039552458 -0.050035235 0.049891 0.003780018 0.01394905 0.011824984
0.0027638366 0.02916105 -0.029059432 -0.0029624146 -0.01426774 -0.04187531 -0.026110344 -0.03059723

action_model._discrete_distribution.branches.2.bias f4 [2]
00000000: dc83 b8bc d983 b83c
-0.022523813 0.022523807

action_model._discrete_distribution.branches.2.weight f4 [2, 128]
00000000: 66c6 95bc d5ad 9c3d 04db 07be 6685 973d
00000010: 362e d73c d5cf a7bd 6952 0ebd f3ab 383c
00000020: aaa8 953d 6730 063b 7cea 2ebd b594 f53d
00000030: d75e 073d fe23 893d 8b58 85bd e2e7 c6bc
00000040: 8957 0ebd b529 a53c 5e5b 80bc 0586 b9bd
00000050: 6af1 923c b4f2 2fbc fc42 693c e0d0 5b3d
00000060: b9f6 333c 486b bd3c b09b bb3b c66a 3bbc
00000070: 2f11 96bd 8380 c8bb a17d 323d 12c7 d2bc
00000080: a006 ddbc b3c9 30be 8e14 d03d 9f5a 003c
00000090: 17e8 08bd c5c7 493b 12f7 253d e6ef 193b
000000a0: b968 db3c c77d 323e cea2 01bc 4ea9 b5bd
000000b0: 4b56 233e 7072 9c3d a2b0 983d 8ce4 7dbd
000000c0: f66c f23c 5ccf 05bc 98dc 4a3d 700b edbd
000000d0: 0682 56bc bd8c 2c3c e08f 073d dd36 083d
000000e0: cdf4 ba3d d243 04bd 1e22 5aba cb76 9e3b
000000f0: f13b edbc f8c4 073d 87b3 adba 9915 f93c
00000100: eaff 4f3e d672 f93d f735 613d fd03 bcbc
00000110: 6347 82bc 5d31 63bd 9dd2 72bd 4e96 7abd
00000120: 0a51 a4bd 2db1 86bd 89c4 fb3b d206 ec3c
00000130: 712f 3e3d 81a4 a33d ea6e 323d 296a 76bd
00000140: b34a 873d 446a 043e 03cf 1b3d 337e 5b3d
00000150: 8c41 ce3c afe2 d7bd 5842 8e3d 5df1 31bd
00000160: 3bd1 10bc cb44 94bd 1a4f 5c3d 4190 483d
00000170: c9da 03bd cf9f da3d 2593 e0bc 28ab 1ebc
00000180: f724 043d 5767 d93d e8d8 8f3c 5e90 c63c
00000190: 6c76 423d 6c25 67bc 590a 1bbc 86e0 89bd
000001a0: 794d ff3c b1b9 a83d 7fa4 b6bc 6f5d 21bb
000001b0: 31e9 633c 3f55 bfbc 0748 40bd 4b4c af3d
000001c0: 2836 2a3d 28a0 4dbc d808 2f3c 4ba4 223d
000001d0: 8cb3 54be 89be bb3c 1013 c0bd fa1f 873c
000001e0: 6d2f a8bd e78a 36be 65c8 013d a7d5 8e3d
000001f0: a503 0e3c bda5 143e cd92 433d 7c77 42bc
00000200: 469b 403c 0ea3 9dbd 806e 0c3e 1c58 80bd
00000210: a973 b6bc 7c11 af3d a402 433d 2434 d6bb
00000220: 56db 99bd 771a 823c b54e 4b3d b500 cfbd
00000230: f101 17bd e2d7 55bd fedf 8a3d d115 303c
00000240: 6843 3f3d 732c 17bd ded0 113d 1620 c53d
00000250: 8d03 bbbc 0378 fe3c df66 303c 2d3d 42bd
00000260: 1fa8 babc 4b5a e9bc f783 9fbb ce03 21bc
00000270: 0251 663d 2770 f3bb d595 92bd f31b ea3c
00000280: 529e f53a 8d27 393e 548e d9bd e50e 07bc
00000290: c886 da3c c51b cf3b f64d ebbc da6b c5bb
000002a0: cc07 33bd 5817 2bbe d7e1 8ebb 4228 bc3d
000002b0: 016a 10be 3dea b0bd 212e 7bbd e46b 883d
000002c0: ea4a 28bc b89e f03b 83c8 15bd 4561 e63d
000002d0: c8f8 0bbc f50a 4ebc 77e4 09bd 00c4 dfbc
000002e0: bb46 c4bd 9849 013d b5d4 e63b 8368 98bb
000002f0: 8ef7 a43c 4ba6 4bbd 3967 c2bb 5f85 b6bc
00000300: b8a2 3fbe 1f83 efbd 12dc 71bd 7a5d de3c
00000310: 9994 73b9 6ce6 593d 8355 933d aacc 823d
00000320: 5fae bd3d b8e6 353d 5066 dc3b bfdb e9bc
00000330: f7fa 0bbd dd12 c9bd 77aa 29bd da1a 973d
00000340: ce2d 82bd f53e 0ebe 1318 11bd 1156 3fbd
00000350: 1571 04bd ce31 e13d 62cd 50bd b181 073d
00000360: 7bef c03c 2f97 923d 47a7 3cbd 65d7 48bd
00000370: 7970 073d ec11 c9bd cffa c33c 9e32 183c
00000380: c5b5 debc a918 c2bd 753f cfbc 65f1 15bd
00000390: 259c 68bd 8d66 813c 5bac b73c 1bdb a73d
000003a0: 7b61 39bd b60c 70bd c6cc 9e3b 824d b8bb
000003b0: 782b a3bc ca0b 3d3b 0ef3 6c3d a094 a3bd
000003c0: 6f00 35bd 465a f23c e161 c4bb 4d20 14bd
000003d0: 2741 4e3e a66d 2bbc 9ee2 c73d 675a cbbc
000003e0: 7ba3 cb3d 4dee 2f3e e66e f9bc 5ad4 63bd
000003f0: 9e9c 903a b2bc eabd 9f21 42bd adf0 d53b
-0.01828308 0.07650343 -0.13267142 0.073984906 0.026267152 -0.08193938 -0.03474656 0.011271465
0.07307561 0.0020475627 -0.04270409 0.11991254 0.03304943 0.06696318 -0.06511029 -0.024280492
-0.03475145 0.020161489 -0.015668567 -0.09058765 0.01793738 -0.010739017 0.014237162 0.053665996
0.010984116 0.023122445 0.0057253465 -0.011439031 -0.07327496 -0.0061188354 0.04357684 -0.02572969
-0.026980698 -0.17264442 0.101601705 0.007834106 -0.033424463 0.0030789238 0.040518828 0.0023488938
0.026783334 0.17430793 -0.007912351 -0.08870183 0.15950887 0.07639015 0.07455565 -0.061985537
0.029592972 -0.008167114 0.04952678 -0.11574447 -0.013092523 0.0105316015 0.033096194 0.033255447
0.09128723 -0.03229124 -0.0008321124 0.0048359386 -0.028959246 0.03314683 -0.0013252356 0.030405806
0.20312467 0.12180106 0.054983106 -0.02295112 -0.01590318 -0.055467 -0.059282888 -0.061178498
-0.080232695 -0.06576762 0.007683341 0.028811846 0.046431962 0.07990361 0.043562807 -0.060159836
0.066060446 0.12931162 0.03803922 0.05358715 0.02517774 -0.10541283 0.06946248 -0.043443073
-0.008838947 -0.07239684 0.053786375 0.048965696 -0.03219107 0.10675012 -0.027413914 -0.0096843615
0.032261815 0.10615414 0.017559484 0.024238762 0.047476217 -0.014108043 -0.009462916 -0.067322776
0.031164872 0.08238543 -0.022295235 -0.002462234 0.013910578 -0.023356078 -0.04694369 0.085594736
0.041555554 -0.012550391 0.010683261 0.039707463 -0.20771617 0.022918003 -0.09378636 0.01649474
-0.08212171 -0.17826425 0.03168525 0.06974345 0.008667861 0.14516349 0.047747422 -0.011869308
0.01175577 -0.07697116 0.13714027 -0.062668055 -0.022271948 0.08548257 0.04760994 -0.0065369774
-0.07512538 0.01588176 0.049635608 -0.10107557 -0.036867086 -0.052207835 0.06781004 0.010747389
0.046695143 -0.036907624 0.035599582 0.096252605 -0.022828842 0.031063085 0.010766714 -0.047421623
-0.022785245 -0.028485438 -0.0048680264 -0.009827567 0.0562296 -0.007429141 -0.071574844 0.02857778
0.00187392 0.18081494 -0.1062285 -0.008243297 0.026675597 0.006320449 -0.028723698 -0.00602482
-0.043708608 -0.16708124 -0.0043604183 0.09187366 -0.14102937 -0.086384274 -0.06132329 0.066612035
-0.010271767 0.0073431395 -0.036568176 0.112490214 -0.008543201 -0.012575855 -0.033665147 -0.02731514
-0.09583803 0.031564325 0.0070443996 -0.0046511306 0.020137575 -0.049719136 -0.0059327153 -0.022280393
-0.18714416 -0.11694931 -0.059047766 0.027144182 -0.00023229643 0.053198263 0.071940444 0.06386693
0.09261774 0.044409484 0.006726064 -0.028547166 -0.034174886 -0.09818051 -0.041422334 0.073781684
-0.06356393 -0.13891204 -0.03542335 -0.04671294 -0.032334406 0.109958276 -0.05097712 0.033082668
0.023551693 0.07157742 -0.046057966 -0.04903354 0.033066247 -0.098178715 0.023923306 0.009289412
-0.027186284 -0.0947736 -0.025298813 -0.036607165 -0.056789536 0.01579597 0.022421053 0.08196088
-0.04525898 -0.058605872 0.0048461882 -0.005624474 -0.019918188 0.0028846138 0.057848983 -0.07987332
-0.044189867 0.029584061 -0.0059931134 -0.036163617 0.20142041 -0.010463154 0.09760021 -0.02482338
0.09943291 0.17180748 -0.030448388 -0.055622436 0.0011033004 -0.11461772 -0.047395345 0.006528935

action_model._discrete_distribution.branches.3.bias f4 [2]
00000000: dc01 a1b9 2f00 a139
-0.00030709698 0.0003070845

action_model._discrete_distribution.branches.3.weight f4 [2, 128]
00000000: 1801 cabb 902c ca3c 8415 1cbe 2a89 6abe
00000010: 49ad c63d 79ec 15bd bf45 c0bd daf1 59bb
00000020: a3cb 483d d967 fbbd 028e f8bc 2bba 63bd
00000030: 8086 d6bd a666 843d 7230 e3bb b0db 56bd
00000040: 0ec3 2bbe 48a8 abbd c352 bb3d c564 cbbd
00000050: dded 1f3c 19e4 53bc dde9 e33a 514a 013d
00000060: 061e 7d3c deb5 aa3c 77f6 9dbd aac2 ab3d
00000070: 1736 aa3c bff3 773d 9bb4 bb3c f011 ec3d
00000080: 9601 95bc 78e3 883c e099 a23d 8119 34bd
00000090: 2f0a 95bd 300f 84bc d8ee f93d ff77 4a3d
000000a0: dae4 9d3c fb62 ad3d 524c 90bd 2379 31bb
000000b0: fc52 6c3d 679e 573d 082c 9b3c 1e3d 25bc
000000c0: 4c1e c1bd 92ba b73d 67fb 1f3d afc6 31bd
000000d0: 146b 033e 3976 70ba 6b08 a4bd 4b40 eabb
000000e0: 33cf 593d 5e7f 483e d4e7 4dbc c6ba 473d
000000f0: e7f6 13be 733c 3abe 8045 37bd e654 8cbd
00000100: 2230 6fbd 0be6 743d 3936 7f3c fb0a 95bc
00000110: 3809 003d df9a a03b 27db 2a3d 462e d43d
00000120: e291 06bd 38c2 903d 849f 7c3d 3f3d 4a3d
00000130: 6ae9 853d b69a 3f3d df62 063d 0652 95bc
00000140: 44f0 343d c7a4 99bc a869 27be ba37 323d
00000150: c13d e0bd 84f3 823c 0ec4 56bd 7a25 e839
00000160: b119 a3bd 8f18 16bb 21d1 acbc c353 b2bd
00000170: d440 fdbb 0beb d4bc b084 c33d 6dec a8bd
00000180: f42e 7fbd b74e aebc 1243 acbd bdb5 ccbd
00000190: 49e2 1bbc 4279 f93d 8cf0 563e e369 e7bd
000001a0: 5652 6ab9 922c 8dbc 16f7 0e3e 1772 533d
000001b0: 25e2 3e3d ddac 0fbd d067 963d acfc 6c3d
000001c0: eb20 5ebd e9d6 42be a679 933d 06dc c73d
000001d0: 464b 603c d506 783c 8158 c4bd 6abd 8ebd
000001e0: ed90 efbd 2027 adbc e7d4 a83a 79b1 77bd
000001f0: bb60 0d3d f009 053d cb18 d6bc ffac 863c
00000200: 7d9c 0fbc 1602 75bc 55c5 0a3e ab30 5e3e
00000210: 99ef cabd a6bf 063d bb27 9d3d d4be 8a38
00000220: 2d50 34bd 7598 f63d 08cc 553d 172d 913d
00000230: c19e c93d c0e9 73bd 848f 063d 3aa3 b03c
00000240: 10c1 273e ac4a 9b3d 1df9 cebd e1a4 c63d
00000250: c4f9 363c caaa 87ba 4d64 873c 1ab9 1cbd
00000260: 0729 6d3c 2cd9 04bd ece6 963d 5fc9 bebd
00000270: b51d 9fbc e338 39bd 6fcd 09bd 1179 cfbd
00000280: 07ec 183d 0e47 b0bc 263e 9bbd 529b 413d
00000290: 46a0 b73d 5cac 6e3c af8d e1bd 88b0 37bd
000002a0: b7ae 9dbc 52b8 acbd 4a28 4c3d 3f34 afbb
000002b0: a96f 46bd d4e0 86bd ab55 683c 5ca1 8c3c
000002c0: fb65 db3d f3a4 b5bd 01b3 aebc bdcf e83c
000002d0: e6f3 11be 385e d73a c436 b63d a0ed 023c
000002e0: cb76 c2bc 0a45 50be 7d1c bdbb 0963 05bd
000002f0: 9128 153e 0840 443e f606 2f3d 617e 583d
00000300: 0390 e23c 9153 94bd ba1e e3bc b74b 243d
00000310: 8d9a a1bc ac00 4fbc a049 32bd d205 b5bd
00000320: abd1 a43c 34ca 62bd 9221 48bd 8d57 17bd
00000330: 9160 55bd 6026 3bbd b2dc 04bd 6f2b 843c
00000340: 064f 40bd deee 1c3d 3429 223e d9c3 32bd
00000350: 65bf d23d 5df4 e2bc e967 fb3c aed4 6f3c
00000360: fb4f ba3d 88f8 1fbc a609 123d ed7d d23d
00000370: 4043 4e3c efd4 e43c ea74 dbbd d1da 8e3d
00000380: 8cc9 843d 1a58 8b3c e38e 853d adce f13d
00000390: a737 8f3c 8d98 c6bd 0664 66be 467d e63d
000003a0: a66e 24bc 9454 d83c de4e 06be b477 75bd
000003b0: 51f5 5abd b015 683c c65b 89bd f30a 26bd
000003c0: 8579 3a3d 0312 433e 6996 a2bd 1085 c0bd
000003d0: 3291 27bb 6a81 65bc 4ad2 b73d f9d4 8d3d
000003e0: ab70 003e a0c5 323d e82f da3b 6200 323d
000003f0: 0ace 02bd 7d7d b9bc da93 563c 11d6 1bbd
-0.006164681 0.024679452 -0.15242583 -0.22903886 0.0970102 -0.03660247 -0.09388303 -0.0033255727
0.049022328 -0.12275667 -0.030341152 -0.055597465 -0.104748726 0.06464891 -0.0069332654 -0.052455604
-0.16773626 -0.083817065 0.09146645 -0.0993133 0.009761301 -0.012932801 0.0017388422 0.031565014
0.015449053 0.020838674 -0.07713025 0.083867386 0.020777745 0.06053519 0.022913268 0.11526859
-0.018189233 0.016710028 0.079395056 -0.043969635 -0.07277333 -0.016120523 0.12203759 0.049430843
0.019274164 0.08466145 -0.07045807 -0.002708026 0.057696328 0.0526413 0.018941894 -0.010085372
-0.09429607 0.08971132 0.039058115 -0.04340237 0.12833816 -0.000917289 -0.08009418 -0.0071487776
0.053176116 0.19579837 -0.012567479 0.048762105 -0.14449655 -0.18187122 -0.044744015 -0.068521306
-0.058395512 0.0597897 0.0155768925 -0.018193712 0.03125879 0.0049012746 0.041712906 0.103603885
-0.03285397 0.07068294 0.061675563 0.049374815 0.06538661 0.046778403 0.032809135 -0.018227588
0.044174448 -0.01875533 -0.16348898 0.043510176 -0.109492786 0.015985258 -0.052433066 0.0004427841
-0.079638846 -0.0022902822 -0.021095814 -0.087073825 -0.0077286754 -0.025990983 0.095467925 -0.0824822
-0.062300637 -0.021277769 -0.0841123 -0.09995601 -0.0095144 0.12181331 0.20990199 -0.11299493
-0.00022346652 -0.017233167 0.13961443 0.051622476 0.046602387 -0.035076965 0.073440194 0.057858154
-0.05423061 -0.19027294 0.07200937 0.09758763 0.013689822 0.015138348 -0.09587193 -0.069697216
-0.11697564 -0.02113682 0.0012880833 -0.060471985 0.034516077 0.03248018 -0.02613487 0.016439913
-0.008765337 -0.014954111 0.13551839 0.21698253 -0.09908981 0.032897614 0.076735936 6.615897e-05
-0.044021774 0.120407976 0.052196532 0.07088678 0.09844733 -0.059549093 0.03285171 0.021562207
0.16382241 0.07582602 -0.10106108 0.09699417 0.011167947 -0.0010350582 0.01652732 -0.038262464
0.014475114 -0.032433674 0.073682636 -0.09315752 -0.019423345 -0.045220267 -0.033643182 -0.101305135
0.03733447 -0.021518257 -0.07580213 0.047267266 0.089661166 0.014567461 -0.11013352 -0.044846088
-0.01924835 -0.08433594 0.04984311 -0.0053468044 -0.04844633 -0.06585851 0.014180581 0.017166786
0.107128106 -0.08869352 -0.02132559 0.02841937 -0.14253196 0.0016431278 0.088971645 0.0079912245
-0.023738286 -0.20338836 -0.0057712183 -0.03256515 0.14566256 0.19165051 0.042731248 0.0528549
0.02765656 -0.072425015 -0.027724613 0.04011127 -0.019727016 -0.0126344375 -0.043527246 -0.08839001
0.020119509 -0.055368617 -0.04886014 -0.03694873 -0.052094046 -0.045690894 -0.032437034 0.016133992
-0.046950363 0.03831374 0.1583603 -0.043643806 0.10290412 -0.027704412 0.030689197 0.014638109
0.09097286 -0.009763844 0.035653733 0.10277925 0.012589276 0.027933566 -0.10715659 0.0697533
0.064837545 0.017009784 0.06521394 0.118069984 0.017482592 -0.096970655 -0.22499093 0.11254363
-0.010036146 0.026407517 -0.13116023 -0.05992861 -0.05345661 0.014165327 -0.067069575 -0.040537786
0.045526046 0.1904984 -0.07938845 -0.0940038 -0.002556872 -0.0140079055 0.08975656 0.06925387
0.1254298 0.0436455 0.006658543 0.043457396 -0.031934775 -0.022642845 0.013096774 -0.038045947

network_body.linear_encoder.seq_layers.0.bias f4 [128]
00000000: ea71 063d 51c4 dbbc ca8f e43c 708f 183d
00000010: 5563 533d 4fe7 90b9 e9d8 28bb ee1e ed3d
00000020: aee0 843d a98e f13c 614a e63c 44d8 223d
00000030: 9d99 933d 77ba 953c 2241 4a3d 9da8 0a3d
00000040: e04d 03bd 6751 ccbc 5610 853d 3116 873d
00000050: 50b6 173d 14ac bd3b 4c47 bf3c 520e 653d
00000060: 5ecb 0a3d 89a7 c63c 3137 b63c 029b ce3d
00000070: fbbc 733c 9f4b fb3a c7a0 273c 4049 be3c
00000080: a0a5 843d 052e 263c 148f de3c 804f 513d
00000090: 6302 43bb 12a1 843c 2d4d 86bc f27b 223c
000000a0: 157b e03c 4ffe 6f3d 3c25 0f3d 6059 463c
000000b0: 2bfd 59bc 89b1 d13c 3684 703c e48a 613d
000000c0: 90f5 353d d8aa c43c b25c ccbb 035c 303d
000000d0: 2421 a03d f359 8f3d 59c5 693d 87e2 983d
000000e0: b22b 0f3d ca26 8d3d 671a c63c 7a6f d03c
000000f0: 8dc7 deba d0cd 253d 3779 283d 8a7e 813d
00000100: 841b fa3c b0b3 553d e80a c0bb 1538 803c
00000110: 7b85 ae3d bfb9 c3ba 7a16 8a3d b94d 97bc
00000120: a053 ef3a d2fa 523d 6326 4d3d 258e f13c
00000130: 01f4 a23c 920c a13a a204 a83b 7947 55bc
00000140: b3d8 5c3c 60d6 803d 453e 6c3d 5439 023d
00000150: 2453 3b3d 3acc 163d aedc 243d b4b0 8f3c
00000160: e9c5 3b3d 6b9a 32bc d7b7 633d 7634 943c
00000170: 9e7f 743c 39b5 5e3d 95e8 41bc 3a01 e53a
00000180: c54b 733d 3063 8f3c 383d 0c3e 17df dbbb
00000190: 2f48 05bd 5bbc cdbb 17a3 c93b de23 5e3d
000001a0: 2879 be3c 2a3d 963d 9c27 203d cbab 993d
000001b0: 5ce6 9cbd 1b4f 463d a089 43ba 0b71 a13b
000001c0: 32c5 443d ceab 4c3c 20ed d83b 7335 423c
000001d0: d4ba 313d 6e26 dc3b 31ee 5e3d f36a 243d
000001e0: d119 c03c ede4 763d ae6a 543d 54ee 963c
000001f0: a8a5 ea3b 4651 4d3c e8b1 61bc 390d 753d
0.03282348 -0.02682701 0.027900595 0.037246168 0.051608402 -0.0002763816 -0.0025764054 0.11578165
0.06488167 0.029486971 0.028111639 0.03975703 0.07207034 0.01827739 0.04937852 0.03385221
-0.03205669 -0.02494116 0.064972565 0.065960295 0.0370391 0.0057883356 0.023349427 0.05592186
0.033885352 0.024249809 0.022243114 0.10088159 0.014876599 0.0019172317 0.010231203 0.023228288
0.06476903 0.010142808 0.027167834 0.051101208 -0.0029756061 0.016190086 -0.016394222 0.009917246
0.02740244 0.058592137 0.03494762 0.01210627 -0.013304989 0.02559735 0.014679959 0.055064097
0.04442364 0.024007246 -0.006236636 0.0430565 0.07818821 0.06999578 0.05707297 0.07465082
0.03495378 0.06892164 0.024182511 0.025443781 -0.0016996727 0.04047948 0.041131224 0.063229635
0.030530699 0.052173316 -0.005860675 0.015651742 0.08521553 -0.0014932676 0.06742568 -0.018469678
0.0018259175 0.051508732 0.050085437 0.029486725 0.01989174 0.0012287071 0.0051275054 -0.013017529
0.0134793995 0.06290889 0.057676572 0.031792954 0.045733586 0.03681586 0.04024952 0.017540313
0.04584304 -0.010901074 0.055595245 0.018091422 0.014923004 0.054372046 -0.011835237 0.0017471679
0.05939843 0.017503351 0.13695228 -0.006709944 -0.032539543 -0.0062785572 0.006153475 0.054233424
0.023251131 0.07335885 0.039100274 0.0750347 -0.07661125 0.048415285 -0.00074591674 0.004926806
0.048039623 0.012492133 0.0066200644 0.011853564 0.043391064 0.0067184484 0.054426376 0.040141057
0.02344981 0.060276914 0.05185955 0.01842419 0.007160861 0.012531584 -0.013775326 0.059827063

network_body.linear_encoder.seq_layers.0.weight f4 [128, 75]
00000000: 5279 743e 574c ff3b e79e 1ebd 90f0 96bd
00000010: 3b25 a83c dfc7 4fbd e26b ebbd 99da a0bd
00000020: b3ac c43c 4ca3 6e3d cc8f 8a3d 94cc f6bd
00000030: b84b d6bc 2e8e 163e b29b b53c 0599 b23d
00000040: 96ee cf3d bad5 eabb ffd0 ffbc e14d d03d
00000050: 2d5e 483e 7851 ddbd bb31 21be 2150 853d
00000060: 901b f13d 4f2a 59be 3de6 0dbd 58ab 0dbe
00000070: e881 a53c 2a79 783e 528c 6e3d 1ecd 30bd
00000080: 02a5 42bd dd97 babd f962 733c 7cfa 923c
00000090: 7a54 20be f7e9 5f3d f4b7 2e3d a69b a93c
000000a0: e4eb a43d 2d24 a7bd 235a adbd d849 8dbd
000000b0: 9811 55bd d7b2 56bb 7a22 053e ecc0 09be
000000c0: 53b6 c5bd e38d 043e efb5 34be 065d 0b3e
000000d0: b6d5 5bbd ec38 3f3d bb07 983d 5d86 a4bb
000000e0: fbfc 95bd 7e16 003e 73e3 17be 2d65 403e
000000f0: f246 433e 14e1 1ebe c930 d9bd 6cc0 33bc
00000100: 9606 313c 0c1f 343d 03f4 113c 99c1 a6bd
00000110: 523f 473d 5e29 b4bd ab6b 663e 54d2 14be
00000120: 1b16 fcbb c468 0cbe 8963 133e b1d7 2c3e
00000130: 4dfb 1a3d 9b49 d43d 5137 a9be 65ab e23d
00000140: 74ef 42bd 2e2b 9c3e c6ba 47be 6a0e 5abd
00000150: 7ab9 ab3b 6882 90bd 8d4b a1bc 99ba 0c3c
00000160: d550 273e 33d2 ae3e 55c0 ef3c 79bb 9cbe
00000170: 2907 513c 8ac6 11be 37e3 603e 3d2f 963d
00000180: 1107 c9bd f02f 7ebd 91d6 f43d 70c2 f03d
00000190: b669 b63d 50e2 b9bd 97e0 efbd da2e 16bb
000001a0: f486 f73d 4407 29be e539 38be e2f2 863d
000001b0: 4939 3e3c d1ba 683e 9fc1 913d a7ff 11be
000001c0: 5f59 183e 31d4 053e be2c 8f3d 74aa 21bd
000001d0: 497e 183e c4d7 643e 3ee9 fa3c fef1 8b3c
000001e0: 11b9 9a3d 9f5e aabd 7924 113e c4cf 843d
000001f0: c8cb 143d f791 ca3d 6a5e 4dbc 0ffd 883d
00000200: e974 cc3d 68fa 863d 9e37 d83c 4175 df3d
00000210: f316 6c3e aaea 5ebd 0912 63bd 718d 413d
00000220: 322b 8ebe 4131 a23c 70e6 15be e8c0 30bd
00000230: 8cf6 de3d f72e 3fbe ba44 c03d 8577 043e
00000240: 30d1 3dbe 899d a13b 9dba 923d 7064 75bd
00000250: 0452 8bbd a065 08be c184 5b3c f1ad b5bc
00000260: 479c 5cbd dee1 7dbd e421 d63d 6a21 a9bd
00000270: 06f2 d2bd 98be 67bb 5149 a3bd 269d 353b
00000280: 7ba1 6a3d 4c61 31be cf02 0fbc 7413 f83d
00000290: 04f3 363e 5402 91bd 7ca0 79be aea5 183e
000002a0: 3054 c5bc 2e66 373d 24b8 313d b539 f8bd
000002b0: d158 2dbe fdc4 643e 8cf6 f6bb 2cee 233e
000002c0: cbb9 623d 9dc5 c63d d005 373e 2709 363e
000002d0: 2024 e93c 34ba 463d 32c0 3c3b 213f 283e
000002e0: 3e63 963d 2cf6 2ebe 50bb 08bd 7140 bf3d
000002f0: 1ec8 023e 6cd1 38be 2779 7dbd 6fdd bc3d
00000300: bca4 4fbe 9609 753d 3e4c 46bd b274 673d
00000310: 1506 693e b756 6abd ecc6 543e 37d6 0b3d
00000320: 0687 463e 0386 96bd 0f12 a0bd df66 c33d
00000330: 5711 353e 428d fbbd 5e5e 403e e3b4 9f3d
00000340: 1c28 853d fef1 2bbd 43c2 38be 5cfc 90bd
00000350: a1c7 a53d 7df6 bebe 3682 233e c1f1 923d
00000360: 5d60 afbd 39b5 083e 787c 0e3d 3870 42bc
00000370: abc6 b63d fc23 dc3e ba9c 10bd a5ac d73d
00000380: d640 09be dd2d f9bd 94e2 473c 79ee 4cbd
00000390: dedf 903e bc79 9d3d 0221 373e 2d6a 1bbe
000003a0: 91fa 163d 9e12 003e ddf7 0e3e 4580 4d3d
000003b0: b85c 3cbd 4ec3 55bc 8c65 183c e6af 7b3d
000003c0: a25a 593e 2036 713e 9602 e03d c972 cb3d
000003d0: 5e49 c5bc e78b aabd bf19 fb3c ebe0 56bd
000003e0: f869 8abd 7fa8 243e 8d22 1f3e b535 aabc
000003f0: b87d a9bd d84a 5dbb ec2a 093e e13c c7bc
0.23874405 0.007791083 -0.03872576 -0.073701024 0.020525565 -0.05072772 -0.114951864 -0.07854194
0.02400813 0.0582612 0.06765708 -0.12050739 -0.026159152 0.14702675 0.022168968 0.087205924
0.101529285 -0.0071665915 -0.031227587 0.10171104 0.19567175 -0.108065546 -0.15741627 0.06509424
0.11772835 -0.21207546 -0.0346434 -0.13834894 0.020203546 0.2426497 0.05823929 -0.043164365
-0.047520645 -0.09110997 0.01485514 0.017941706 -0.15657225 0.054666486 0.0426559 0.020704102
0.08052805 -0.08161197 -0.08464458 -0.0689885 -0.05201873 -0.0032760405 0.13001433 -0.134525
-0.09653916 0.1294475 -0.17647527 0.13609704 -0.053670608 0.046685144 0.074233495 -0.0050209
-0.07323643 0.1250858 -0.14832859 0.18788595 0.19070032 -0.15515548 -0.10605008 -0.01097117
0.010804793 0.04397492 0.008908275 -0.081423946 0.04864437 -0.08796953 0.2250201 -0.14533359
-0.007693065 -0.1371184 0.14393438 0.16879155 0.037837315 0.10365602 -0.33050016 0.11067847
-0.04759164 0.30501693 -0.19504842 -0.053236403 0.0052406164 -0.07056123 -0.019689346 0.00858941
0.16339429 0.34144744 0.029266516 -0.3061178 0.012758055 -0.14235893 0.21961676 0.07333229
-0.09815801 -0.062057436 0.11954988 0.11755836 0.089068815 -0.09076369 -0.11712759 -0.002291611
0.12086287 -0.16506678 -0.17990835 0.06589295 0.0116103375 0.22727515 0.071170084 -0.1425768
0.14877842 0.13069226 0.06990956 -0.039469197 0.14891924 0.22347933 0.030628797 0.017083164
0.0755483 -0.08318829 0.1417407 0.06484941 0.036327153 0.09891122 -0.012534717 0.06688892
0.09983236 0.0659073 0.026393708 0.10911036 0.2305563 -0.05442301 -0.05543712 0.04725403
-0.2776733 0.019798877 -0.14638686 -0.04315272 0.10886869 -0.1867026 0.093881086 0.12936218
-0.1853683 0.0049321097 0.071645 -0.059910238 -0.068027526 -0.13320017 0.01339835 -0.022177668
-0.053859975 -0.06198298 0.10455683 -0.08258326 -0.103000686 -0.0035361405 -0.07972968 0.0027712076
0.057282906 -0.17322272 -0.008728697 0.121130854 0.1786614 -0.07080522 -0.24377626 0.14906952
-0.024087995 0.04477518 0.0433885 -0.12120382 -0.16928412 0.2234077 -0.007536715 0.16008824
0.055352967 0.097056605 0.17873311 0.17776929 0.028459609 0.04851742 0.002880108 0.16430332
0.07343148 -0.17086095 -0.03338176 0.09338463 0.12771651 -0.18048638 -0.061883118 0.092219226
-0.20277685 0.059823595 -0.048412554 0.056507774 0.22756226 -0.057211604 0.20779008 0.034139838
0.19387445 -0.073497795 -0.078159444 0.095411055 0.17682396 -0.12282802 0.18785998 0.07798173
0.06501791 -0.04197883 -0.18042855 -0.07079384 0.08094717 -0.3729743 0.1596764 0.07175017
-0.08563302 0.13350381 0.03478667 -0.011867575 0.08924612 0.42996204 -0.035305716 0.10530976
-0.13403639 -0.12166951 0.0122000165 -0.050032113 0.28295797 0.076892346 0.17883685 -0.15177222
0.036860052 0.12507102 0.1396174 0.050171155 -0.04598686 -0.013047053 0.009301554 0.061447047
0.2122598 0.23555803 0.10937993 0.09934003 -0.024082836 -0.083274655 0.030651925 -0.052460592
-0.06758493 0.16079901 0.15540524 -0.020777563 -0.08275932 -0.0033766534 0.1339528 -0.024321022

network_body.linear_encoder.seq_layers.2.bias f4 [128]
00000000: 900e 13bc 7077 cfbc 1980 863c c1f3 4dbd
00000010: e69d 513c 9568 ac3c f301 683c c58f 82bc
00000020: 1de5 55bc 6912 6d3d e873 283d 7cd0 263b
00000030: 4efd d1bc 25bf 44ba 201a 233d 7f61 763b
00000040: 6356 00bd a4a3 8dbc fe45 aa3b b4b9 093d
00000050: 7b13 11bc 54dc 163b 6c86 913c 3c6f 2c3c
00000060: 7b7a 1f3d da8d 3dbc ca94 d4b8 f901 4f3c
00000070: 7d93 0c3d 9901 06bc bca8 f53b 1ab4 9bba
00000080: c088 62ba ff2c 7f3d 7fa5 c9bb ba7a e93b
00000090: 67fb 5e3c b6d3 3338 c6cd 3f3c b5c5 73b9
000000a0: 9d26 c9bc 289a 343d 6fc9 b43c f54a 283d
000000b0: 86de e1bb a389 9d3c 08c8 44bc 7758 9d3c
000000c0: 7dea d9bc 317a 803d c4d9 baba 54c0 163d
000000d0: c9b1 b1bb 2031 1f3d 41e9 ee3c a5e8 2a3c
000000e0: 5416 01bd f3fe 723c acca 803c 1be8 e0bc
000000f0: 787e 48bc 237a 1bbd 13ea a0b9 e9cb f8bc
00000100: 15b4 66bc 235e 313c 3a85 be3b b01a 233c
00000110: be66 883c fb7c 51bb f387 c13c 61e2 c43c
00000120: d1bf 1c3d 4d50 7e3c a940 353c c1ef df3b
00000130: 4703 e9bb 9d5f c2ba d3b8 a73c bb20 053d
00000140: 58ce 023d d24b 2d3b 7b09 23bd ddcb 433c
00000150: bfd9 8d3a 1b65 ef3c 5245 b73c 08f9 bf3c
00000160: 2c92 1e3d e81a fa3c 5016 a6bc b072 94bb
00000170: 7c98 833c 9a3c f5bc c239 243b 04d7 1e3c
00000180: 8af3 d7ba 0f1b 5bbd daa8 b43c 584e bdba
00000190: 66bb bcbc fd5b e439 3d2b 29bc a9ac aa3c
000001a0: 37a5 223c 7936 06bd fdef b43c 2037 b93c
000001b0: 3353 e03b d7a7 053d f78e c63c 4c10 723b
000001c0: f632 32bc 14b9 363b 4993 31bb dd14 fa3c
000001d0: 0590 923d a2bf 0abc e6c7 b33c b527 edb8
000001e0: cd0e 5b3d 68ce 6c3d b40f 5ebc 3816 1ebd
000001f0: 3e39 653c bb57 16bd 6fc8 1abc 8c32 773b
-0.00897564 -0.025325507 0.016418504 -0.05028129 0.012793994 0.021045962 0.014160621 -0.015937695
-0.013055113 0.057878885 0.04112616 0.0025453856 -0.02563348 -0.00075052894 0.039819837 0.0037594733
-0.031332385 -0.017289944 0.005196332 0.033624366 -0.008854742 0.002301951 0.017764293 0.010524567
0.038935166 -0.011569465 -0.00010136662 0.012634748 0.034320343 -0.008179092 0.0074969213 -0.0011879236
-0.0008641593 0.06229877 -0.006153762 0.007125226 0.013609744 4.2874097e-05 0.011706775 -0.00023247937
-0.024554545 0.044092327 0.022068707 0.04108711 -0.006892982 0.01923067 -0.012010582 0.019207222
-0.02660107 0.06273306 -0.0014255573 0.036804512 -0.005422805 0.03886521 0.029163959 0.010431443
-0.031515434 0.014831292 0.015721641 -0.027454427 -0.012237184 -0.037958276 -0.00030691977 -0.03037067
-0.014081021 0.010825667 0.0058142217 0.009955093 0.016650554 -0.0031965363 0.023624396 0.024033727
0.038268868 0.015522075 0.011062779 0.006834001 -0.0071109864 -0.001482952 0.020473873 0.032501917
0.031935066 0.0026442898 -0.039803963 0.01195046 0.001082234 0.029223016 0.022371922 0.023434177
0.03871362 0.030530408 -0.020274311 -0.0045302734 0.016063921 -0.029936124 0.002505884 0.009694818
-0.0016475779 -0.053492602 0.022053171 -0.0014442904 -0.023038577 0.00043556085 -0.01032525 0.020834284
0.009927086 -0.032766793 0.022087092 0.022609293 0.0068458556 0.032630768 0.024238093 0.0036935983
-0.010876408 0.0027881311 -0.0027095845 0.030527527 0.07156376 -0.00846854 0.021945905 -0.00011308437
0.053480912 0.05781403 -0.013553549 -0.03859541 0.013990698 -0.03670476 -0.009447201 0.0037719337

network_body.linear_encoder.seq_layers.2.weight f4 [128, 128]
00000000: ac2e 853c cae1 9f3b 7c50 4f3d 3580 fc3d
00000010: d51f bdbc af20 e13c 0762 2ebd f1b7 a8bd
00000020: 7c81 c9bd 486d 223d 4cf5 ce3d 60df 3dbd
00000030: 5606 0f3e 68be 1b3e 05c0 d23b 6b20 1a3e
00000040: bbe8 0c3e fd3f 403d d4ab 15bd 6759 083e
00000050: 6abd 003d ae5a 883d 056d 723d d447 55bd
00000060: 6379 153d bf53 8a3d 0a89 b2bc dc50 ba3d
00000070: c951 a53d b603 d53d 7a21 afbd 2161 b13c
00000080: 87b3 4abe c7c9 73bd 48b5 323e 08a5 82bd
00000090: 084e c13d e98e 6fbc e69b 8ebc f6fd 95bd
000000a0: 0a7e 363d a058 a63d a56e bebd f43e fbbd
000000b0: 8eeb 703d cb95 b53d 0ee0 bf39 16b7 03be
000000c0: 3570 b93d ccd8 98bd cb64 d73d 818c a93d
000000d0: 09b3 163b d857 283d 5710 ec3d 7ebf 973d
000000e0: 7f34 01bd d584 cabd 6c94 b6bc dc7a 10bc
000000f0: b2fe 5d3d 93af 203d 0443 b9bd fdc8 4dbe
00000100: dc2c 25be 2d1e 42bd 9fb0 e53d 2fd7 da3d
00000110: cc74 493d 9154 a43d 374b b3bd e01d 263d
00000120: bbf4 82bd 2fab 303e 7726 f7bd 1d71 423c
00000130: 0f0b 03be f156 0fbd 9cdd 52bc ee5e d73d
00000140: fff0 10be 9d12 bfbc ad62 93bd 2183 66be
00000150: be2a 2dbd f8d3 933d 23c2 d03b 42c5 58bd
00000160: 1b27 523e 7be1 01be 311d a0bb 170d 263d
00000170: 358e c7bd 761e c8bd f905 16be b985 8e3d
00000180: 1147 a4bc 1cf0 5bbe 10ec 813d f59f 3e3e
00000190: 1dd2 88bc 465f 893a b6b8 04bd fe78 febd
000001a0: 2af1 f63d 4664 79bd 7362 d2bc 4480 01bc
000001b0: 6a86 5dbc 81b9 2c3d d14e a4ba a145 ab3d
000001c0: 7191 51bd 244a 823d 348d 623d 7938 5c3e
000001d0: 9ed6 f5bd 3634 3b3e 4086 a9bd 5d7a 0abd
000001e0: db67 11be ab86 863d 9b5c 1bbe 57b2 00be
000001f0: e473 283e 4d1b 23bd bf6e 543d 6271 f03b
00000200: 4c8e 313b fc73 c93d 22b1 b13c 8bd1 e03c
00000210: 995a 923d a0e6 27bc dd6f ccbd c9a8 a43c
00000220: e6ff 2cbd 3b5e 51bc 9069 48bc 9195 e6bd
00000230: af28 c53b 0051 7c3e bc15 1f3e b72d 1d3e
00000240: 1dba a13b effd 503e 65f0 43be ebf1 10be
00000250: 6ff4 cdbd 10bc afbd c368 c43d 2ad5 ef3d
00000260: 5c73 6e3e fc36 1c3d 2e03 a93d 14cd d8bd
00000270: 6a62 903b af05 513c ad39 43bd 7dad 4a3d
00000280: 1540 c2bd 1fba 9b3d 0270 063d 248e c4bc
00000290: 0fc7 e23c efad 1fbe 55f2 e03d 2820 81bd
000002a0: e6c6 c5bd b1b7 ea3d 0896 133d 688e 91bd
000002b0: d838 8f3b a4d4 e73d 7bf2 413c 560f 133d
000002c0: 97e9 953d 14c7 da39 3c20 163e 787b 823b
000002d0: 898d 44be 0ae4 e0bc 278e 243e 5fa8 1fbd
000002e0: 7cd1 ddbd 5e7f c03c 1e36 e03c 9d16 47bd
000002f0: 082e f53d a117 e5bd b1b2 47be 565a c23c
00000300: b01f d1bd fcd9 6cbd fc1e f83c 1bcf fe3a
00000310: 22c5 57be 4098 acba fbc6 26be 5d8a a3bd
00000320: 053e 84bd da22 6fbd d0ab c23d 4ea1 0c3d
00000330: cca7 233d 0610 583d e312 96bd 9ab9 d43d
00000340: e151 f53d 20c7 29be 1081 f2bd 6df0 043e
00000350: a56f fdbd 9ad7 233e a676 803d 71ed 0ebe
00000360: e59b 53bd 8502 843d 8c39 4ebe 7eaa 8e3b
00000370: 9d91 22be 3c9d 3dbe e1d7 9abd 39a6 bdbd
00000380: bea8 5c3c a949 ecbc 7b1f 8bbc 20d0 9a3d
00000390: 11c9 533e 0288 093e 846d 7b3d 4d35 cd3d
000003a0: b7ad b3bc eafe 14bc 7e68 7fbd 1aed 76bd
000003b0: 13de 2bbd 7046 11be 1ca0 e03d 0379 bf3d
000003c0: 0d05 a13d 0625 9cbd f7f1 7b3e 760f 213e
000003d0: 7f76 a73d 810a 083c 6bd2 17be 96bc 103d
000003e0: 921d 433e 15f5 72be cb1b fb3d 417d c1bb
000003f0: 3b2c 223d feeb 263e eb03 aebd 4834 f6bd
0.016257606 0.004879211 0.050613865 0.12329141 -0.023086468 0.027481405 -0.042573955 -0.08238209
-0.0983915 0.039655 0.101053804 -0.046355605 0.1396726 0.15209353 0.006431582 0.15051429
0.13760655 0.046936024 -0.03654082 0.13315354 0.03143064 0.06657921 0.059186 -0.052070454
0.036492717 0.067542545 -0.021793861 0.09097454 0.0807224 0.104010984 -0.08551307 0.02165276
-0.19795047 -0.0595186 0.17451966 -0.063791335 0.094387114 -0.014621475 -0.017408323 -0.0732383
0.044553794 0.081223726 -0.092984475 -0.12267867 0.058818392 0.08866461 0.00036597293 -0.1286281
0.09054605 -0.07463226 0.105172716 0.08278752 0.0022994897 0.0410994 0.11526554 0.07409571
-0.031544205 -0.09888617 -0.02228757 -0.008818354 0.054197975 0.03922994 -0.09045985 -0.20096202
-0.16130394 -0.04739206 0.112153284 0.10685574 0.04918365 0.08023942 -0.087545805 0.040555835
-0.06394335 0.17252801 -0.120678835 0.011867789 -0.12797187 -0.034995023 -0.012870219 0.10516153
-0.14154433 -0.023324305 -0.07196555 -0.22510959 -0.04227709 0.07218164 0.006370799 -0.052922495
0.2052273 -0.1268367 -0.0048862924 0.040539827 -0.09743921 -0.09771435 -0.14650716 0.06959099
-0.020053418 -0.21478313 0.063438535 0.18615706 -0.016701752 0.0010480664 -0.032402717 -0.12425421
0.12057717 -0.060886644 -0.02568171 -0.007904116 -0.013520816 0.042169098 -0.0012535696 0.0836289
-0.051164094 0.063617975 0.055310443 0.21505918 -0.120038256 0.18281636 -0.08277559 -0.0338081
-0.14199774 0.065686546 -0.15172045 -0.12568031 0.16450459 -0.039820958 0.05186343 0.007337735
0.0027092872 0.098365754 0.021690909 0.027443668 0.071461864 -0.010247856 -0.09982274 0.020100014
-0.04223623 -0.012778814 -0.012232199 -0.11258996 0.0060168128 0.24640274 0.15535635 0.1534947
0.0049355165 0.20409368 -0.19134672 -0.14154784 -0.10056388 -0.08580792 0.09590294 0.1171058
0.23286194 0.038138375 0.082525596 -0.105859905 0.004406263 0.012757703 -0.047662426 0.049481858
-0.09484879 0.07603859 0.032821663 -0.02399356 0.02768281 -0.15593694 0.10983721 -0.063049614
-0.096570775 0.114608176 0.036031753 -0.0710724 0.00437079 0.11319855 0.011837597 0.035903297
0.07319944 0.00041728525 0.14660734 0.003982004 -0.19194616 -0.027452487 0.16069852 -0.03897893
-0.108309716 0.023498233 0.027369555 -0.04860555 0.119716704 -0.111861475 -0.19501759 0.023724716
-0.10211122 -0.057825074 0.030288212 0.0019440384 -0.21071294 -0.0013167933 -0.16286843 -0.07985375
-0.06457142 -0.058382846 0.09505427 0.03433352 0.039954945 0.052749656 -0.07327821 0.10386963
0.11978508 -0.16579866 -0.11841023 0.1298234 -0.1237481 0.16000214 0.062726304 -0.13957764
-0.051662344 0.06445793 -0.2013914 0.0043538203 -0.1587586 -0.18517011 -0.07560707 -0.0926022
0.013467966 -0.028843718 -0.016982784 0.07559228 0.2068217 0.13430789 0.06138374 0.10019932
-0.02193342 -0.009093979 -0.06235551 -0.06028471 -0.041959833 -0.14187026 0.109680384 0.09349253
0.078622915 -0.07624249 0.24604021 0.15728554 0.08176898 0.008303286 -0.14826362 0.0353361
0.19054249 -0.23726304 0.122611605 -0.005904824 0.039592963 0.16300961 -0.08496841 -0.120216906
