Assets/Models/Thesis/tennis.onnx (onnx, 356826 bytes, 14 tensors)

106 f4 [75]
0.30716544 0.15597062 0.33660164 0.46471262 0.4999937 1.063064 0.30888844 0.1553364
0.33947924 0.46383178 0.49999198 0.47498417 0.21597958 0.5445501 0.38508996 0.30059773
0.1525441 0.34287405 0.47194165 0.49987662 0.99850833 0.30235714 0.1519545 0.34582496
0.47109115 0.49987426 0.48528218 0.20130536 0.55397856 0.3968142 0.29323903 0.14840434
0.34927824 0.4792716 0.4993795 0.9236193 0.29501325 0.14787814 0.35230026 0.47843155
0.49936852 0.49566758 0.18718858 0.56267095 0.41129842 0.28506073 0.1435079 0.35588586
0.48663324 0.4984477 0.8358239 0.2868385 0.14305872 0.35895354 0.48580092 0.4984308
0.50613666 0.1753408 0.5705559 0.42822194 0.27659655 0.13804184 0.36133575 0.49253896
0.4967347 0.7285357 0.27831668 0.13767037 0.3644386 0.49167532 0.49671596 0.51759607
0.16457559 0.57636815 0.4431843
00000000: ca44 9d3e c3b6 1f3e 0d57 ac3e d0ee ed3e
00000010: 2dff ff3e 7b12 883f a026 9e3e 8110 1f3e
00000020: 39d0 ad3e 5c7b ed3e f3fe ff3e 2031 f33e
00000030: c029 5d3e a367 0b3f 832a c53e f2e7 993e
00000040: 8534 1c3e 308d af3e 56a2 f13e d4ef ff3e
00000050: 3e9e 7f3f 8ece 9a3e f699 1b3e f80f b13e
00000060: dc32 f13e 85ef ff3e e876 f83e fe22 4e3e
00000070: 8ad1 0d3f 3b2b cb3e 6d23 963e 4ff7 173e
00000080: 99d4 b23e 1663 f53e abae ff3e 5072 6c3f
00000090: fa0b 973e 5e6d 173e b360 b43e fbf4 f43e
000000a0: 3bad ff3e 24c8 fd3e 5dae 3f3e 340b 103f
000000b0: b595 d23e 7bf3 913e bcf3 123e ac36 b63e
000000c0: fe27 f93e 8934 ff3e 8ef8 553f 7fdc 923e
000000d0: fc7d 123e c2c8 b73e e6ba f83e 5232 ff3e
000000e0: 2c92 013f 8a8c 333e f40f 123f e83f db3e
000000f0: 109e 8d3e d75a 0d3e 0001 b93e 112e fc3e
00000100: 0354 fe3e 5181 3a3f 867f 8e3e 76f9 0c3e
00000110: b297 ba3e debc fb3e 8e51 fe3e 2d81 043f
00000120: 8186 283e dd8c 133f 0de9 e23e

action_model._discrete_distribution.branches.0.bias f4 [3]
0.013380256 0.06791936 -0.0969635
00000000: dc38 5b3c 4e19 8b3d cd94 c6bd

action_model._discrete_distribution.branches.0.weight f4 [3, 256]
0.022050513 0.06591584 0.0533872 0.0007486299 0.002888255 -0.0049336837 0.012735918 -0.0026673805
0.029698044 0.04058023 -0.018059453 0.044665996 -0.047534578 0.03541395 0.013842568 -0.06121751
-0.06021089 -0.031185705 0.0021635387 -0.04044068 0.019000858 -0.04043472 -0.026190134 0.006027025
0.06199351 -0.038331397 0.0185689 -0.00819601 0.054338783 -0.0058446447 -0.051927168 -0.04150844
-0.03926047 0.043184027 0.007839808 -0.083566085 0.0021290784 0.052267764 0.043321334 0.028734641
0.010566236 0.034155454 0.08076828 0.04654129 0.00949526 0.006137217 -0.055957947 -0.07310043
0.0041357735 -0.013826108 -0.045491878 0.026361143 0.020932255 0.07574587 -0.022760129 0.012394282
-0.024131142 0.07279007 -0.011637554 0.0038197394 -0.05075736 -0.041824304 0.004079535 -0.037567884
-0.024671132 -0.038361404 -0.036124006 0.01098997 0.05292037 0.054694004 0.04002058 -0.026274743
-0.04012923 0.02901077 0.020671485 -0.0020487013 0.04743491 -0.031401157 -0.025212618 0.022773238
0.004440882 -0.024829898 0.035692163 -0.05194319 -0.023811517 -0.02222864 0.0045002024 0.04672647
-0.026008494 -0.023423718 -0.012978076 0.013762581 0.019098377 -0.06089626 0.045456313 0.027216317
0.03934129 0.010091495 -0.03028259 0.08658068 -0.010234825 0.03211529 0.014500042 -0.0384271
0.013854557 0.028836261 -0.015287241 -0.016556872 0.02650645 -0.03535387 0.008963016 -0.0291911
0.0059929453 0.020241145 0.015662232 0.04859035 0.038924776 0.042319838 0.00081518263 0.015948564
0.03881251 0.11306497 0.07264726 0.026532112 -0.013641783 0.052386135 0.017972348 -0.025876574
-0.0046762293 0.056878153 0.0011508114 0.0152743505 -0.011713227 0.012849336 -0.05658682 0.08129123
0.09298604 0.0043614837 0.028218225 -0.07596823 0.0018059625 0.0046468466 -0.057006754 0.06439443
0.021373868 -0.03579843 0.01874092 -0.016124371 0.020151803 0.06791154 0.016608596 0.030350477
0.030979306 -0.027015308 -0.05229219 -0.045820314 0.027269913 0.013338164 0.013537768 0.03159129
0.004468052 0.02653234 0.00054074824 0.016244337 0.020854708 0.032391485 -0.013046865 -0.023304088
0.033973694 0.036088493 0.01566518 -0.025224894 0.026117941 0.065172896 0.018961037 -0.014687667
-0.02166457 0.008556012 0.054056607 -0.05589475 -0.08002443 -0.013984368 -0.0023664127 0.05283252
0.0058600185 0.024800716 -0.044502005 -0.031346418 0.023575163 -0.0130372215 0.020542992 -0.0530014
-0.018578578 0.010937882 -0.0022513648 -0.004935093 0.0069262795 0.013973459 -0.009571241 0.019545902
0.02846366 -0.0041563814 0.018683914 0.001607871 -0.051479932 -0.021382378 -0.012839949 -0.020126445
-0.053389166 0.043785837 -0.04471181 -0.033868253 0.02741631 0.018427089 -0.016175006 0.011117632
0.046689253 0.01744895 -0.06398156 0.033930533 -0.0088949725 0.012790137 -0.027300766 -0.019757481
0.037856 -0.004816367 0.014633565 -0.07404511 0.03987506 0.015615358 -0.039162293 0.0025913725
-0.022129178 -0.015934642 0.055903636 0.05387233 0.07167936 -0.033140816 0.031217605 -0.008851735
0.012063044 0.03528337 0.05712864 0.019476667 -0.0013833122 0.038401607 0.00081430667 -0.02677685
0.015114799 -0.035667475 -0.042056352 0.020220574 -0.065981194 -0.029353974 -0.014725982 0.042013545
00000000: 47a3 b43c e2fe 863d 89ac 5a3d b43f 443a
00000010: e148 3d3b bdaa a1bb 50aa 503c 38cf 2ebb
00000020: 5049 f33c 7537 263d 6bf1 93bc b1f3 363d
00000030: 9eb3 42bd 380e 113d f0cb 623c 36bf 7abd
00000040: b29f 76bd 2a79 ffbc 28ca 0d3b 20a5 25bd
00000050: b0a7 9b3c e19e 25bd b18c d6bc 5a7e c53b
00000060: e8ec 7d3d 6201 1dbd ce1d 983c 8f48 06bc
00000070: 5892 5e3d 6f84 bfbb 95b1 54bd c104 2abd
00000080: 96cf 20bd bce1 303d 8a72 003c b224 abbd
00000090: 0288 0b3b b916 563d b671 313d e964 eb3c
000000a0: 021e 2d3c 97e6 0b3d d769 a53d 14a2 3e3d
000000b0: 0292 1b3c b51a c93b 2934 65bd aeb5 95bd
000000c0: 6285 873b e686 62bc b155 3abd 53f3 d73c
000000d0: 1f7a ab3c a720 9b3d 7373 babc 6311 4b3c
000000e0: acae c5bc f612 953d 70ab 3ebc 9854 7a3b
000000f0: f3e6 4fbd f64f 2bbd 9fad 853b c8e0 19bd
00000100: 1d1b cabc d920 1dbd c4f6 13bd 460f 343c
00000110: 08c3 583d d206 603d 9fec 233d 213e d7bc
00000120: 8c5e 24bd ffa7 ed3c 3f57 a93c 8143 06bb
00000130: 1c4b 423d 809e 00bd b18a cebc f18e ba3c
00000140: d184 913b 1268 cbbc f231 123d 62c2 54bd
00000150: 5f10 c3bc d618 b6bc 6f76 933b 4164 3f3d
00000160: c40f d5bc 19e3 bfbc ffa1 54bc 737c 613c
00000170: 3374 9c3c 5b6e 79bd 6630 3a3d c1f4 de3c
00000180: 5524 213d cc56 253c 3213 f8bc 3651 b13d
00000190: f8af 27bc 538b 033d 9691 6d3c bc65 1dbd
000001a0: 39fe 623c 063a ec3c 5677 7abc 47a2 87bc
000001b0: 0e24 d93c 38cf 10bd 9dd9 123c 2c22 efbc
000001c0: 7860 c43b c2d0 a53c 154e 803c ad06 473d
000001d0: 966f 1f3d 9157 2d3d fbb1 553a 90a6 823c
000001e0: def9 1e3d 9b8e e73d 16c8 943d df59 d93c
000001f0: c981 5fbc d892 563d bf3a 933c 1cfb d3bc
00000200: 0e3b 99bb 11f9 683d d3d6 963a 4541 7a3c
00000210: d6e8 3fbc 0586 523c 95c7 67bd 047c a63d
00000220: 776f be3d c7ea 8e3b e829 e73c 3b95 9bbd
00000230: 0cb6 ec3a 9344 983b ea7f 69bd 3ae1 833d
00000240: 4018 af3c 60a1 12bd 8f86 993c 4217 84bc
00000250: 6515 a53c 3515 8b3d c00e 883c 90a1 f83c
00000260: 50c8 fd3c 354f ddbc 5630 56bd 15ae 3bbd
00000270: 2765 df3c 5188 5a3c 84cd 5d3c de65 013d
00000280: bd68 923b 5a5a d93c 00c1 0d3a d812 853c
00000290: 7ed7 aa3c efac 043d 85c2 55bc 37e8 bebc
000002a0: 0028 0b3d 87d1 133d 4354 803c 70a4 cebc
000002b0: 4bf5 d53c 5e79 853d 2d54 9b3c 8aa4 70bc
000002c0: e579 b1bc 842e 0c3c 766a 5d3d e5f1 64bd
000002d0: d9e3 a3bd b11e 65bc d115 1bbb ea66 583d
000002e0: 6605 c03b df2a cb3c bc47 36bd 1a65 00bd
000002f0: b320 c13c 129a 55bc c749 a83c ff17 59bd
00000300: 1a32 98bc cd34 333c a28b 13bb 90b6 a1bb
00000310: d8f5 e23b eff0 643c b2d0 1cbc ba1e a03c
00000320: 9f2c e93c 4132 88bb 020f 993c 33bf d23a
00000330: 9fdc 52bd 192a afbc a65e 52bc 37e0 a4bc
00000340: 99ae 5abd c758 333d bb23 37bd 70b9 0abd
00000350: 2b98 e03c 68f4 963c 7281 84bc ba26 363c
00000360: 3b3d 3f3d 1af1 8e3c c408 83bd befa 0a3d
00000370: 38bc 11bc b98d 513c dba5 dfbc 71da a1bc
00000380: e50e 1b3d 9dd2 9dbb 9fc1 6f3c f6a4 97bd
00000390: 0854 233d 8fd7 7f3c a468 20bd 04d4 293b
000003a0: 4048 b5bc 5e89 82bc 36fb 643d 3ba9 5c3d
000003b0: a1cc 923d aabe 07bd 10bc ff3c de06 11bc
000003c0: 13a4 453c 4c85 103d b9ff 693d 888d 9f3c
000003d0: 4150 b5ba 014b 1d3d 3277 553a 205b dbbc
000003e0: 10a4 773c 0f18 12bd 4843 2cbd 9ea5 a53c
000003f0: 2621 87bd bf77 f0bc 3f45 71bc 6516 2c3d

action_model._discrete_distribution.branches.1.bias f4 [3]
-0.013178606 -0.029159606 0.042859156
00000000: 14eb 57bc 20e0 eebc 158d 2f3d

action_model._discrete_distribution.branches.1.weight f4 [3, 256]
-0.0333274 -0.09198495 0.0064213304 -0.0013900093 0.009433964 -0.044841703 0.009297875 0.016757822
-0.0029652389 -0.019846216 0.048551902 -0.00978455 0.012038595 -0.0103072 -0.037723016 0.022169087
0.06132143 0.021799415 0.013014233 0.014906013 0.02119659 -0.001239845 0.022310497 -0.017212909
-0.00475535 -0.031469792 -0.022282228 0.03140381 0.020691216 -0.036631618 0.01059079 0.011023729
-0.025837947 -0.012710562 0.030385919 -0.0037683712 0.03260248 -0.08041455 0.0027479713 0.021465767
0.010120548 -0.012980486 0.05370565 0.003266983 0.005977233 0.007368333 -0.02150393 0.023553059
-0.031895164 0.038414583 -0.0363045 -0.007869188 0.009180995 0.03401265 -0.018116105 0.0012809229
-0.026390929 0.015765358 0.00782089 -0.016621921 0.023980463 -0.03681033 0.011747368 -0.020846577
-0.0039389012 0.010395024 0.021117844 -0.04750769 0.02756574 -0.024766555 -0.04532023 0.0050912164
-0.010219142 0.01764281 0.0011459586 -0.013767909 0.011494006 -0.012878479 -0.00708833 -0.018369682
-0.0009425474 0.05992046 0.0057112216 0.004970578 -0.00500476 -0.00063439936 0.004618373 -0.04722749
0.035858896 0.0011145258 0.009727125 -0.034672815 -0.015771518 0.005655546 -0.0014047682 0.029596476
0.0035768766 -0.09784485 0.008514194 -0.034687832 0.018109389 -0.046737622 0.010848502 0.025238609
0.029262718 0.026394742 0.01122977 -0.0057020513 -0.0133265415 0.0030720192 -0.0100171175 0.052759282
-0.0007282036 -0.014757213 0.0043486753 -0.012627973 0.01799899 -0.043847315 0.015282255 0.00062739424
0.004214628 -0.017218154 0.005889308 -0.007907695 -0.025661936 -0.012542015 0.009627584 0.004518058
0.011338233 -0.052838735 -0.023246653 -0.049398217 -0.0026204549 -0.0001644186 -0.00075163884 -0.024945932
-0.013653514 -0.029412754 -0.0110491635 -0.004345678 0.026083969 -0.0073489104 0.022983206 -0.023491422
-0.003576336 0.01651345 0.014302248 -0.03494623 0.0052952818 -0.022962755 -0.012578758 0.0060672015
-0.02658782 0.04127516 0.040029984 0.0007767206 -0.06747296 -0.00884615 0.01714051 -0.026095679
0.019535981 -0.012119839 0.05956643 -0.0025948717 -0.0030071214 0.003415153 0.011861761 0.00906808
-0.020604666 0.0038280888 -0.004766635 0.03624455 -0.015369574 0.023547754 0.022640828 -0.01562998
-0.024329402 -0.009626413 -0.022187358 0.0021345154 -0.00010827488 -0.011595871 0.025380788 -0.0017683811
-0.019595271 -0.008227629 0.026541067 0.044674803 -0.015522052 -0.019742679 -0.018799292 -0.0054040486
-0.004369448 -0.039614607 -0.024169328 -0.013550497 -0.061923664 -0.038483147 0.02289202 0.009011628
0.031393416 0.030964086 -0.022222297 -0.002086266 -0.006758033 0.0017199253 0.03172087 -0.0046355063
0.01057273 -0.016673006 -0.0088188015 0.014450659 0.049010992 0.0046968255 -0.0021196716 0.0016182702
0.029824791 0.011119785 -0.0011156434 0.035585746 0.03789318 -0.014850985 -0.033779234 0.0073364093
-0.021654237 0.032743387 0.004674429 0.022248691 0.04364562 -0.034420032 0.0630128 0.01863602
0.01147134 0.010695239 -0.007838003 0.009329783 0.0028535146 0.032119486 -0.013794939 -0.00026330122
0.051172346 0.020117426 -0.02503058 -0.037949808 -0.017011948 -0.029474648 0.002842052 -0.036024142
0.0046442216 0.028180858 0.027928326 -0.010563062 0.0048390343 0.031603433 -0.04609062 -0.015605444
00000000: 5082 08bd 9b62 bcbd 066a d23b f930 b6ba
00000010: ea90 1a3c efab 37bd 1d56 183c b347 893c
00000020: 7454 42bb 8894 a2bc 5cde 463d 614f 20bc
00000030: 873d 453c 88df 28bc 7383 1abd f29b b53c
00000040: 2e2c 7b3d b094 b23c a639 553c 5a38 743c
00000050: 79a4 ad3c 4b82 a2ba 81c4 b63c 1602 8dbc
00000060: c4d2 9bbb 78e6 00bd 3889 b6bc 48a1 003d
00000070: a080 a93c 090b 16bd fe84 2d3c df9c 343c
00000080: 1aaa d3bc f63f 50bc e4eb f83c c7f6 76bb
00000090: 2e8a 053d 62b0 a4bd 4f17 343b fad8 af3c
000000a0: a8d0 253c 1bac 54bc 75fa 5b3d e11a 563b
000000b0: aadc c33b 0f72 f13b 0329 b0bc 58f2 c03c
000000c0: 81a4 02bd 9c58 1d3d 07b4 14bd c4ed 00bc
000000d0: e26b 163c d950 0b3d 3a68 94bc a4e4 a73a
000000e0: ca31 d8bc 5a26 813c 3123 003c b22a 88bc
000000f0: ad72 c43c 6ec6 16bd 0878 403c 71c6 aabc
00000100: e611 81bb e44f 2a3c 54ff ac3c 6c97 42bd
00000110: 8cd1 e13c 3be3 cabc b5a1 39bd 38d4 a63b
00000120: 306e 27bc a787 903c fd33 963a cc92 61bc
00000130: 5b51 3c3c 4200 53bc 3945 e8bb 047c 96bc
00000140: 4915 77ba 286f 753d 3325 bb3b 3be0 a23b
00000150: f8fe a3bb d24d 26ba b855 973b 9d71 41bd
00000160: c7e0 123d 4815 923a 855e 1f3c 1505 0ebd
00000170: 4533 81bc 2952 b93b 3320 b8ba 4f74 f23c
00000180: 086a 6a3b e162 c8bd 1e7f 0b3c d414 0ebd
00000190: 245a 943c f36f 3fbd eabd 313c 33c1 ce3c
000001a0: 5eb8 ef3c c939 d83c 12fd 373c 46d8 babb
000001b0: 9157 5abc ee53 493b d61e 24bc 1e1a 583d
000001c0: ebe4 3eba 3dc8 71bc 557f 8e3b 8fe5 4ebc
000001d0: 9e72 933c 3e99 33bd 6c62 7a3c b777 243a
000001e0: dd1a 8a3b 160d 8dbc 19fb c03b 478f 01bc
000001f0: fb38 d2bc 067d 4dbc 04bd 1d3c 380c 943b
00000200: ffc3 393c 6e6d 58bd c46f bebc c955 4abd
00000210: f0bb 2bbb c867 2cb9 a109 45ba 695b ccbc
00000220: fdb2 5fbc 04f3 f0bc 8d07 35bc 3066 8ebb
00000230: 0cae d53c 21cf f0bb 4747 bc3c 1571 c0bc
00000240: f660 6abb 3747 873c fa53 6a3c c723 0fbd
00000250: 0b84 ad3b 631c bcbc 2317 4ebc 60cf c63b
00000260: b3ce d9bc 2410 293d 7bf6 233d d69c 4b3a
00000270: 432f 8abd 71ef 10bc 416a 8c3c 9bc6 d5bc
00000280: ec09 a03c 4a92 46bc eefb 733d b90e 2abb
00000290: 2013 45bb c2d0 5f3b d557 423c 4992 143c
000002a0: 1ecb a8bc ace0 7a3b 6f31 9cbb 2a75 143d
000002b0: aad0 7bbc 38e7 c03c 4279 b93c 720a 80bc
000002c0: 744e c7bc 1ab8 1dbc 43c2 b5bc 3ae3 0b3b
000002d0: a211 e3b8 9cfc 3dbc 5feb cf3c 06c9 e7ba
000002e0: 4386 a0bc 2dcd 06bc a76c d93c edfc 363d
000002f0: 3450 7ebc 66bb a1bc f900 9abc 7214 b1bb
00000300: 962d 8fbb ed42 22bd c1fe c5bc e702 5ebc
00000310: aba3 7dbd 81a0 1dbd 0c88 bb3c 82a5 133c
00000320: 6296 003d 65a8 fd3c 890b b6bc bcb9 08bb
00000330: 7d72 ddbb 1e6f e13a beed 013d 72e5 97bb
00000340: 3e39 2d3c d495 88bc bc7c 10bc 75c2 6c3c
00000350: c0bf 483d d4e7 993b 30ea 0abb 231c d43a
00000360: 1f53 f43c c22f 363c c83a 92ba 5cc2 113d
00000370: e135 1b3d 8c51 73bc 185c 0abd 4366 f03b
00000380: 3a64 b1bc ee1d 063d f42b 993b e342 b63c
00000390: c0c5 323d 05fc 0cbd db0c 813d 91aa 983c
000003a0: 4af2 3b3c 153b 2f3c f86a 00bc f2db 183c
000003b0: 0802 3b3b b98f 033d 2b04 62bc b10b 8ab9
000003c0: 189a 513d 4dcd a43c ee0c cdbc 4271 1bbd
000003d0: a45c 8bbc d174 f1bc b841 3a3b 0d8e 13bd
000003e0: 8e2e 983b 8bdb e63c f2c9 e43c b110 2dbc
000003f0: c390 9e3b 9a72 013d 85c9 3cbd faad 7fbc

action_model._discrete_distribution.branches.2.bias f4 [2]
0.02188452 -0.021884527
00000000: 2a47 b33c 2e47 b3bc

action_model._discrete_distribution.branches.2.weight f4 [2, 256]
-0.0023345833 0.08026216 -0.12780724 -0.033089176 -0.046545614 0.052650142 -0.026937598 0.07991941
0.054349147 -0.09714004 -0.0019103416 0.023012035 -0.006658226 0.00032495018 0.08040367 0.03457304
0.065703645 0.11640774 -0.029887592 0.00076125 0.08324045 -1.767481e-05 -0.054982334 0.023516877
-0.033191763 0.009390043 -0.025643552 -0.03302394 -0.123725615 -0.029887974 0.023984471 -0.005311206
0.0113863675 -0.06415994 -0.0382995 0.0023806076 0.054029945 0.023730641 -0.004932975 -0.03534846
-0.0990783 0.03509904 0.058534626 -0.01680305 -0.026362525 0.048990004 -0.022833962 -0.031493448
-0.04838426 -0.019970067 -0.050384853 0.009971417 0.03377248 0.10954628 -0.041387476 -0.00017495401
0.004990857 -0.0018903207 0.044139452 -0.0071823588 0.019951457 0.06309305 0.0022113323 -0.029378349
-0.02116342 0.025010139 0.0029425037 0.012127257 -0.02082231 -0.02330536 -0.0347047 0.050082695
0.008396356 -0.08792329 -0.076476984 -0.037204247 0.05118439 -0.09486308 0.0103548225 -0.020882702
0.01680974 0.018996464 -0.005861095 0.0973011 0.017207453 -0.0029242928 0.052033015 0.06582056
0.07708526 -0.024012448 -0.026340926 0.016753795 0.085552014 0.039325055 0.008982615 0.010399173
0.021798758 0.095464185 0.027249109 0.02808771 -0.010654487 -0.040510874 0.012909656 -0.0363128
0.0014384282 -0.047326073 0.045798246 -0.035481494 0.01744311 0.022327695 0.057588995 0.017906629
0.0464657 -0.040099494 0.051333867 0.008800008 0.18345052 -0.02450735 0.07358701 0.023050135
-0.052797765 -0.025155153 0.10346217 0.032825895 -0.03688574 -0.0138879465 0.04626002 0.017191201
-0.039513167 0.059348416 -0.018325169 -0.040746853 -0.017427646 0.0067501557 0.0028411932 0.007568911
-0.005778592 0.005261515 0.05464324 -0.037514243 0.060511377 0.051300533 -0.03771149 -0.053848807
0.08083523 0.0041961577 -0.008980263 -0.100826554 0.036230028 0.06195952 0.012958966 0.037510347
-0.023847423 -0.056071762 0.04116484 -0.020287747 -0.030001467 0.016775222 0.047781225 0.012779307
0.0071786186 0.034763187 -0.0258551 -0.09774289 -0.01773466 0.064680204 0.0119610755 -0.01729092
0.05531579 -0.04611921 0.0061093555 -0.007245485 0.04385122 0.014291484 -0.09577342 -0.0020036954
-0.028109344 0.01469738 0.028967962 -0.01917136 -0.01610786 -0.005886747 0.02525024 0.060373466
-0.019621756 -0.011512491 -0.0071089845 -0.0045016254 -0.045598976 0.10835417 -0.10366933 0.07549376
0.020992657 -0.029102892 -0.029870825 -0.030718014 0.06453367 0.0030835813 0.007180517 -0.03931001
0.012201279 0.022426596 -0.069950625 0.0028941603 0.0111398315 -0.07278863 -0.027188085 0.04452175
-0.04932171 -0.045551743 0.005089991 -0.029826714 -0.015460176 0.0024982914 0.019263491 0.02207555
-0.06916957 0.02513082 -0.0039654197 -0.061973944 0.012142176 -0.0017904373 -0.05095919 0.06856907
0.034146253 -0.020830704 -0.048925903 0.03533161 0.0050589745 0.007168866 0.04010297 -0.03530506
-0.085830994 0.031592213 0.041421734 -0.05199269 -0.022814559 0.019854682 0.038807113 0.047632966
-0.04035307 -0.036645293 -0.053765636 -0.0063435985 -0.03648042 0.022614814 0.014161462 -0.03948611
-0.005540591 0.025619475 0.101338625 -0.046839844 -0.0022017616 -0.031102322 -0.037283774 -0.0023040012
00000000: cfff 18bb 7d60 a43d e7df 02be 8488 07bd
00000010: 9da6 3ebd ada7 573d 3dac dcbc caac a33d
00000020: 369d 5e3d 5bf1 c6bd 6d64 faba bc83 bc3c
00000030: 3f2d dabb 135e aa39 aeaa a43d 769c 0d3d
00000040: a28f 863d 2e67 ee3d d3d6 f4bc 9f8e 473a
00000050: f879 aa3d 5e44 94b7 2835 61bd 77a6 c03c
00000060: 16f4 07bd b2d8 193c 6d12 d2bc 1c44 07bd
00000070: db63 fdbd a0d7 f4bc 157b c43c a009 aebb
00000080: e38d 3a3c 4966 83bd f0df 1cbd f803 1c3b
00000090: 814e 5d3d c366 c23c cba4 a1bb 8cc9 10bd
000000a0: 90e9 cabd 03c4 0f3d 01c2 6f3d 8da6 89bc
000000b0: 39f6 d7bc bea9 483d 4a0e bbbc 46ff 00bd
000000c0: 932e 46bd 4498 a3bc 5960 4ebd 275f 233c
000000d0: 0355 0a3d cd59 e03d ea85 29bd dc73 37b9
000000e0: 588a a33b a3c4 f7ba 92cb 343d fe59 ebbb
000000f0: 3d71 a33c ee36 813d 00ec 103b ddaa f0bc
00000100: e95e adbc 10e2 cc3c 05d7 403b 67b1 463c
00000110: 8d93 aabc e2ea bebc 8426 0ebd 8323 4d3d
00000120: df90 093c 2011 b4bd f79f 9cbd 7b63 18bd
00000130: b9a6 513d 9347 c2bd 46a7 293c 3312 abbc
00000140: 94b4 893c 799e 9b3c 6e0e c0bb cd45 c73d
00000150: a5f6 8c3c 7ea5 3fbb 9220 553d eecc 863d
00000160: e0de 9d3d c1b5 c4bc edc8 d7bc 413f 893c
00000170: e535 af3d 4f13 213d d12b 133c 4b61 2a3c
00000180: 4f93 b23c ba82 c33d 8639 df3c 3218 e63c
00000190: 2890 2ebc bbee 25bd 0683 533c bbbc 14bd
000001a0: a489 bc3a fcd8 41bd f196 3b3d 0b55 11bd
000001b0: dae4 8e3c 92e8 b63c 70e2 6b3d ecb0 923c
000001c0: d152 3e3d 5e3f 24bd 7643 523d e92d 103c
000001d0: 74da 3b3e a3c3 c8bc c9b4 963d a3d3 bc3c
000001e0: 7842 58bd 2e12 cebc f9e3 d33d 7274 063d
000001f0: 8015 17bd 458a 63bc 267b 3d3d 90d4 8c3c
00000200: 8fd8 21bd 5317 733d aa1e 96bc 2ce6 26bd
00000210: 6cc4 8ebc 6930 dd3b 5033 3a3b a104 f83b
00000220: 585a bdbb c968 ac3b 97d1 5f3d 89a8 19bd
00000230: c7da 773d 8220 523d 5d77 1abd 9190 5cbd
00000240: f18c a53d ec7f 893b f421 13bc 277e cebd
00000250: f065 143d 44c9 7d3d d851 543c 73a4 193d
00000260: ac5b c3bc 81ab 65bd 779c 283d 7d32 a6bc
00000270: a3c5 f5bc 316c 893c 3fb6 433d 4c60 513c
00000280: 9e3a eb3b d863 0e3d 13ce d3bc 6d2d c8bd
00000290: 4748 91bc 0e77 843d 63f8 433c b0a5 8dbc
000002a0: cf92 623d 7fe7 3cbd fd30 c83b 896b edbb
000002b0: 569d 333d d426 6a3c db24 c4bd 6e50 03bb
000002c0: 9145 e6bc 48cd 703c 384e ed3c 420d 9dbc
000002d0: a1f4 83bc 9de5 c0bb 97d9 ce3c 2b4a 773d
000002e0: cebd a0bc e39e 3cbc 7cf2 e8bb 5f82 93bb
000002f0: fec5 3abd cbe8 dd3d 9650 d4bd 799c 9a3d
00000300: cbf8 ab3c 3069 eebc a9b3 f4bc 58a4 fbbc
00000310: 3b2a 843d e915 4a3b 8b4a eb3b 8803 21bd
00000320: e0e7 473c fbb7 b73c 4642 8fbd f4ab 3d3b
00000330: d783 363c 3512 95bd 8cb9 debc 705c 363d
00000340: 9005 4abd 7794 3abd f0c9 a63b 2757 f4bc
00000350: ae4c 7dbc 60ba 233b 78ce 9d3c c9d7 b43c
00000360: c7a8 8dbd 26df cd3c 5af0 81bb 64d8 7dbd
00000370: faef 463c 1bad eaba 95ba 50bd f16d 8c3d
00000380: f1dc 0b3d 27a5 aabc 8766 48bd e1b7 103d
00000390: c1c5 a53b cfe8 ea3b 0343 243d 0a9c 10bd
000003a0: 29c8 afbd d666 013d d6a9 293d 49f6 54bd
000003b0: 99e5 babc 49a6 a23c 35f4 1e3d c91a 433d
000003c0: 4349 25bd 6019 16bd 5b39 5cbd f6dd cfbb
000003d0: 7e6c 15bd b442 b93c 7a05 683c 30bc 21bd
000003e0: d98d b5bb efdf d13c a08a cf3d 23db 3fbd
000003f0: 6e4b 10bb 4cca febc dfb6 18bd bafe 16bb

action_model._discrete_distribution.branches.3.bias f4 [2]
-0.026106289 0.026106324
00000000: dbdc d5bc eedc d53c

action_model._discrete_distribution.branches.3.weight f4 [2, 256]
-0.079847835 -0.016777428 0.005613218 -0.0990623 -0.03479695 -0.009896558 -0.09336919 0.07930099
-0.055716675 -0.019083388 0.030757114 -0.06550619 -0.005395845 0.00968637 0.009273238 -0.03744411
0.09283968 -0.0010450538 -0.11836476 0.009000195 0.018709833 0.10605022 0.02408919 -0.00943173
8.5354994e-05 0.08738619 -0.014563615 0.018243508 0.00023084303 -0.020905396 -0.023752304 -0.11411655
-0.036434155 -0.10325543 0.19734247 -0.038608156 0.058310356 -0.06192777 -0.019089578 0.011651019
-0.10765391 0.0153974835 0.02604544 0.04623264 -0.022602962 0.08019178 -0.05382973 0.019537486
-0.0068596858 0.013166737 0.0138755115 0.12665145 0.071217306 0.013426334 -0.04798073 -0.0073413225
0.01889766 -0.21287526 -0.0053970353 -0.008490349 0.0013865627 0.020244915 0.16036323 0.053391427
-0.0029554225 -0.04892221 0.031425186 -0.030834079 -0.0020346183 0.009266496 0.027898505 -0.02667542
0.060788825 -0.006696193 -0.027976654 0.012219508 -0.050774675 -0.012197213 -0.034271836 -0.0006895579
-0.047825057 0.036478348 -0.000991727 -0.06336292 -0.042482406 -0.067292124 -0.05061237 -0.013904786
0.02830858 -0.023143342 0.036529917 0.07826677 0.03623365 0.009637428 -0.16465075 0.057387453
0.015525599 0.015568214 -0.053743403 -0.028261542 0.17099056 0.00044086413 0.117273845 0.06351603
0.038370945 0.08140858 -0.005822829 -0.02266683 -0.0021100948 -0.037864834 -0.04035039 0.0011836799
-0.055838004 0.11998613 0.08774739 0.07802358 -0.071544535 -0.055460002 -0.042572837 -0.025630394
-0.008687324 0.01795886 -0.07566772 -0.1538249 -0.014315192 -0.11048832 0.05888915 0.014228367
-0.0694781 0.059716884 0.04487309 -0.031459924 -0.027316917 0.12450379 0.044684887 0.03850039
-0.017072054 -0.024148649 0.055789374 0.010483756 0.041514575 -0.0690001 -0.0101641035 -0.06512541
0.016187264 -0.026740158 0.00034330646 -0.005923821 0.008552405 -0.073962785 0.037097573 0.0807672
-0.018432973 -0.014608428 -0.026468307 -0.03359758 0.010802035 -0.053691085 -0.10033831 0.07964526
0.047372814 0.05337552 -0.025652919 -0.027626622 -0.0019924268 0.06828862 -0.0026592375 0.028007131
0.014411436 0.058642346 -0.015620431 0.11684104 -0.004811141 -0.0023916506 -0.04901453 -0.039465744
-0.0044006673 -0.06110242 0.0075905914 -0.030998288 -0.07270709 -0.0018299215 0.17123196 -0.07675514
0.033638243 -0.027353477 0.0041079232 0.03623481 -0.027512707 0.06015595 -0.03710311 0.0006214562
-0.020571165 -0.023574524 0.00891706 0.007862459 -0.006623949 -0.024800044 0.16746905 -0.02203945
-0.04439749 -0.1520252 0.007823108 -0.027057385 0.01320577 0.07658877 0.002810949 -0.01659127
0.115454674 0.023504578 0.020063395 -0.016983472 0.028929077 -0.0169994 0.020421462 0.040179003
-0.089322075 0.063099205 0.008918429 0.02681699 -0.0838197 0.034221195 -0.011866255 0.023900248
0.052347995 0.067447506 -0.0022306885 0.0013819339 0.001722877 -0.067412466 0.0422334 -0.004279528
0.033473473 -0.04123403 0.017592894 -0.0259724 0.028399594 0.056825187 -0.07043674 -0.08125565
0.047332816 -0.0072956607 -0.028253783 0.0031159872 -0.040387552 -0.0083513325 -0.020164674 -0.042220734
-0.07245344 0.052889924 0.014238605 0.028631901 -0.039245192 0.070466764 0.0065368717 -0.015770199
00000000: 4387 a3bd d170 89bc 16ef b73b 2de1 cabd
00000010: 3f87 0ebd 2c25 22bc 5938 bfbd 8f68 a23d
00000020: 2b37 64bd c454 9cbc 58f6 fb3c 1c28 86bd
00000030: a1cf b0bb 95b3 1e3c c7ee 173c ff5e 19bd
00000040: bb22 be3d 30fa 88ba 3969 f2bd 8e75 133c
00000050: 5d45 993c dc30 d93d b156 c53c 8b87 1abc
00000060: 9d00 b338 88f7 b23d 3b9c 6ebc 6973 953c
00000070: 740e 7239 cb41 abbc 3194 c2bc f0b5 e9bd
00000080: fb3b 15bd 9577 d3bd 2514 4a3e 9623 1ebd
00000090: d7d6 6e3d f9a7 7dbd bf61 9cbc eae3 3e3c
000000a0: a779 dcbd ba45 7c3c 3f5d d53c 705e 3d3d
000000b0: d929 b9bc 973b a43d 907c 5cbd 140d a03c
000000c0: 37c7 e0bb 4cb9 573c 1d56 633c ebb0 013e
000000d0: 61da 913d 20fa 5b3c 7187 44bd 7a8f f0bb
000000e0: 44cf 9a3c f9fb 59be 9dd9 b0bb 1b1b 0bbc
000000f0: 53bd b53a aad8 a53c 4236 243e f8b0 5a3d
00000100: c3af 41bb a862 48bd b2b7 003d c097 fcbc
00000110: 3b57 05bb 80d2 173c 688b e43c 6986 dabc
00000120: b4fd 783d bd6b dbbb 4c2f e5bc 5534 483c
00000130: 1bf9 4fbd d2d6 47bc a060 0cbd 73c3 34ba
00000140: 35e4 43bd 526a 153d d6fc 81ba 6bc4 81bd
00000150: 0802 2ebd 74d0 89bd eb4e 4fbd e6d0 63bc
00000160: 65e7 e73c 1b97 bdbc 65a0 153d 544a a03d
00000170: bc69 143d 4ee6 1d3c 359a 28be 1b0f 6b3d
00000180: 155f 7e3c d211 7f3c 0b22 5cbd c084 e7bc
00000190: 2618 2f3e c823 e739 452d f03d b114 823d
000001a0: da2a 1d3d 8bb9 a63d 6ecd bebb caaf b9bc
000001b0: 8449 0abb 2818 1bbd 7346 25bd b525 9b3a
000001c0: 64b6 64bd 4abb f53d e7b4 b33d d4ca 9f3d
000001d0: f185 92bd 072a 63bd db60 2ebd d5f6 d1bc
000001e0: 4755 0ebc 761e 933c adf7 9abd 4684 1dbe
000001f0: 448a 6abc b347 e2bd c035 713d 191e 693c
00000200: 894a 8ebd b199 743d d8cc 373d 1fdc 00bd
00000210: bac7 dfbc d8fb fe3d 8007 373d 96b2 1d3d
00000220: b1da 8bbc 63d3 c5bc 6683 643d 0fc4 2b3c
00000230: 300b 2a3d ed4f 8dbd 5787 26bc 7960 85bd
00000240: 279b 843c 2d0e dbbc d0fd b339 9d1c c2bb
00000250: 631f 0c3c cd79 97bd a0f3 173d 4669 a53d
00000260: bf00 97bc 3058 6fbc 10d4 d8bc 9e9d 09bd
00000270: 05fb 303c 2feb 5bbd 2c7e cdbd 0e1d a33d
00000280: ff09 423d 4aa0 5a3d 1226 d2bc 3a51 e2bc
00000290: 6093 02bb e7da 8b3d 9a46 2ebb 366f e53c
000002a0: f21d 6c3c f532 703d d6ec 7fbc 5b4a ef3d
000002b0: c7a6 9dbb 3dbd 1cbb 76c3 48bd d5a6 21bd
000002c0: 7933 90bb 8846 7abd 7fba f83b 1ff0 fdbc
000002d0: 74e7 94bd fad9 efba 6e57 2f3e cd31 9dbd
000002e0: 41c8 093d 6614 e0bc c29b 863b f46a 143d
000002f0: 5462 e1bc 1666 763d 6ef9 17bd 38e9 223a
00000300: dc84 a8bc 5c1f c1bc dc18 123c 8bd1 003c
00000310: b60d d9bb 7629 cbbc 027d 2b3e 148c b4bc
00000320: 24da 35bd 7eac 1bbe 7e2c 003c 73a7 ddbc
00000330: 045d 583c 93da 9c3d e637 383b 6aea 87bc
00000340: 8073 ec3d ac8c c03c fd5b a43c ec20 8bbc
00000350: acfc ec3c 5342 8bbc e94a a73c bd92 243d
00000360: 7eee b6bd 283a 813d 9a1e 123c 4eaf db3c
00000370: aaa9 abbd 862b 0c3d ae6a 42bc 74ca c33c
00000380: da6a 563d eb21 8a3d be30 12bb 0222 b53a
00000390: 29d2 e13a 8c0f 8abd eefc 2c3d 483b 8cbb
000003a0: 7b1b 093d 04e5 28bd f91e 903c 12c4 d4bc
000003b0: 44a6 e83c 87c1 683d 2341 90bd 5d69 a6bd
000003c0: 0ee0 413d 7010 efbb 7a74 e7bc 9735 4c3b
000003d0: 6b6d 25bd 07d4 08bc 6330 a5bc a6ef 2cbd
000003e0: 7862 94bd 1ba3 583d 0a49 693c 738d ea3c
000003f0: 91bf 20bd e150 903d 4133 d63b 8130 81bc

network_body.linear_encoder.seq_layers.0.bias f4 [256]
-0.049067862 -0.00028468305 -0.014993833 0.031996626 -0.026048964 -0.026483653 0.032631718 0.021897871
-0.014346429 0.044788085 -0.015482901 0.0021304723 0.058341928 0.044760417 0.032023765 0.023315037
0.0357139 0.010856935 0.04775054 -0.014469985 -0.02829452 0.110811904 0.045136604 0.04068082
0.0069437376 -0.04855298 0.025413351 0.01678474 -0.008593754 0.023539364 -0.008868051 0.022767302
0.00011658874 0.06547069 0.01529514 0.04681504 0.01783239 -0.017319035 -0.043262593 0.06766712
0.0018782548 0.01037889 0.054701276 0.024349477 -0.0035007896 -0.01570278 0.016379213 0.03957792
0.042084046 0.022069275 0.0778935 -0.028217416 -0.00068652304 -0.013585897 0.08942144 0.047263194
0.03540752 -0.032788616 0.004347257 0.06563892 -0.0007153594 0.040145807 0.016749965 -0.021247799
0.02803085 0.024178881 0.042057544 -0.016124316 0.031707413 0.002472372 0.003039474 0.03661468
-0.018727342 0.0043443763 -0.0039791404 0.105106 0.03307766 0.021754216 0.015554237 0.03480228
0.06206915 0.05526688 0.04078972 0.026554532 0.07440941 0.08692407 -0.015944805 0.04655973
0.0011781603 -0.023793073 0.029229494 0.040715914 0.05922156 0.0053050974 0.015701564 0.08009938
0.0122032855 0.02839471 0.02510188 0.073498264 0.030297553 0.06253489 0.046656545 0.040972393
0.0033363078 0.070150904 -0.030522488 -0.03862939 0.0028859738 0.06165215 0.0044856537 0.027607776
0.040038586 -0.0006393401 0.038835857 0.034029495 0.03982501 -0.0015230733 0.04147759 0.09133995
0.08746886 -0.008428152 0.046785258 0.0030799983 0.012205729 0.0024667073 0.0769625 0.016275493
0.028936455 -0.028434347 0.033318583 0.00068458315 0.03195248 -0.053616934 -0.024196558 0.039493546
-0.031689946 0.050667644 0.015533713 -0.006431858 0.09797017 0.01638547 0.0058710044 0.01788153
0.069266364 0.0042966995 0.06997485 0.0095946165 0.06613038 0.055780705 -0.028969688 0.017211614
0.03596019 0.0021696324 0.012242415 0.027774045 0.013957663 0.062888704 0.042787097 -0.019201664
-0.0015984152 0.0017632417 0.057076517 0.053139742 0.0033636843 0.027301148 -0.013854798 0.050128646
0.06056203 -0.016904514 0.0059310338 0.04996512 0.06881201 0.07133532 0.025461633 0.014035192
0.0066696894 0.065798655 0.021351175 0.022095388 -0.037411492 -0.051661782 0.00022743671 0.08950302
-0.032904267 0.031424146 0.029554542 0.007861548 0.035960052 0.057590153 0.014691687 0.06678777
-0.02016647 0.012930437 0.0183526 0.048276734 0.034606785 -0.04519704 -0.009504053 0.0221081
0.028703753 -0.06084993 0.026845466 -0.05599417 0.10779448 -0.0067222104 0.0026564694 -0.002124093
-0.0023431263 0.021995198 0.04498482 0.05628386 0.061244324 0.06404978 0.016420731 0.025541496
0.018307988 -0.0005378891 0.040724136 0.058167007 -0.0035332523 0.019012785 0.03227843 -0.0092846025
0.11096105 0.023404298 0.01808191 0.010407823 -0.011622112 -0.01108073 -0.009574332 0.014570804
0.047883626 0.06107314 0.014677673 -0.050086968 0.064015925 0.041626777 0.024154624 0.019815873
-0.04621693 -0.0037508889 0.0032206345 0.0010005382 0.06957001 -0.0058843084 0.050138824 0.025207894
0.049643934 -0.030920945 -0.01661986 -0.022074113 0.004001841 -0.01842523 0.052115418 0.08269628
00000000: 62fb 48bd 8341 95b9 b2a8 75bc e50e 033d
00000010: a364 d5bc 3ff4 d8bc d6a8 053d 2a63 b33c
00000020: 490d 6bbc b673 373d feab 7dbc 659f 0b3b
00000030: f2f7 6e3d b356 373d 5a2b 033d 2dff be3c
00000040: bd48 123d 49e1 313c 1296 433d 8413 6dbc
00000050: e9c9 e7bc 5af1 e23d 29e1 383d eea0 263d
00000060: 4b88 e33b 7ddf 46bd a92f d03c 2780 893c
00000070: d1cc 0cbc a0d5 c03c 4d4b 11bc 7e82 ba3c
00000080: 1a81 f438 7f15 863d 7898 7a3c 21c1 3f3d
00000090: 3b15 923c a6e0 8dbc 1e34 31bd 0f95 8a3d
000000a0: c62f f63a 380c 2a3c 720e 603d 8e78 c73c
000000b0: 816d 65bb 1ea3 80bc b32d 863c 751c 223d
000000c0: 5260 2c3d a0ca b43c a186 9f3d 3628 e7bc
000000d0: c8f7 33ba 6297 5ebc 9722 b73d 0d97 413d
000000e0: 7a07 113d 5b4d 06bd 6f73 8e3b b36d 863d
000000f0: f586 3bba ee6f 243d 3937 893c dd0f aebc
00000100: f4a0 e53c ca12 c63c 8844 2c3d 2417 84bc
00000110: a2df 013d 8507 223b e931 473b 46f9 153d
00000120: 156a 99bc 455b 8e3b 7363 82bb d141 d73d
00000130: 717c 073d e635 b23c 33d7 7e3c d68c 0e3d
00000140: 393c 7e3d 865f 623d 1f13 273d e488 d93c
00000150: f663 983d 3f05 b23d ae9e 82bc 6ab5 3e3d
00000160: 806c 9a3a b1e9 c2bc b172 ef3c bbc5 263d
00000170: 4e92 723d 62d6 ad3b 91a0 803c 250b a43d
00000180: 4af0 473c 069c e83c 75a2 cd3c 4286 963d
00000190: 9332 f83c 4b12 803d ef1a 3f3d abd2 273d
000001a0: f5a5 5a3b 47ab 8f3d 4c0a fabc da39 1ebd
000001b0: 9b22 3d3b f786 7c3d 64fc 923b b429 e23c
000001c0: 80ff 233d 6399 27ba 5912 1f3d 8362 0b3d
000001d0: 8d1f 233d dca1 c7ba 68e4 293d 7110 bb3d
000001e0: e022 b33d 3b16 0abc e6a1 3f3d ccd9 493b
000001f0: 8afa 473c 7ba8 213b 849e 9d3d 2f54 853c
00000200: 250c ed3c 26ef e8bc 1179 083d 9975 333a
00000210: 9be0 023d 6e9d 5bbd dc37 c6bc fcc3 213d
00000220: 51cd 01bd e088 4f3d 1d81 7e3c 56c2 d2bb
00000230: 96a4 c83d d23a 863c 8e61 c03b 497c 923c
00000240: 86db 8d3d 54cb 8c3b f94e 8f3d bd32 1d3c
00000250: 5d6f 873d 4f7a 643d d751 edbc 5fff 8c3c
00000260: fe4a 133d 6430 0e3b 6994 483c 6586 e33c
00000270: afae 643c cbcb 803d 8641 2f3d cf4c 9dbc
00000280: ea81 d1ba 931c e73a 11c9 693d 0fa9 593d
00000290: 4271 5c3b a8a6 df3c 3cff 62bc b253 4d3d
000002a0: e40f 783d 567b 8abc 1e59 c23b 3aa8 4c3d
000002b0: 50ed 8c3d 4118 923d ea94 d03c ddf3 653c
000002c0: 698d da3b 72c1 863d a9e8 ae3c 6301 b53c
000002d0: cb3c 19bd 4e9b 53bd 147c 6e39 5c4d b73d
000002e0: a0c6 06bd 9bb6 003d 5e1c f23c b9cd 003c
000002f0: d94a 133d a7e3 6b3d 67b5 703c 07c8 883d
00000300: 2734 a5bc 2fda 533c 3158 963c d3bd 453d
00000310: d8bf 0d3d 8820 39bd e3b6 1bbc 0c1c b53c
00000320: 2224 eb3c c73d 79bd 06eb db3c 255a 65bd
00000330: 5ac3 dc3d fd45 dcbb 2918 2e3b 5e34 0bbb
00000340: 238f 19bb 462f b43c 0142 383d e889 663d
00000350: 54db 7a3d 882c 833d c584 863c 663c d13c
00000360: a2fa 953c 2001 0dba 5ace 263d 8740 6e3d
00000370: 238e 67bb b3c0 9b3c 6336 043d 721e 18bc
00000380: 8c3f e33d 5fba bf3c 8420 943c 9385 2a3c
00000390: ac6a 3ebc f38b 35bc a9dd 1cbc 62ba 6e3c
000003a0: 9f21 443d d427 7a3d 9f7a 703c fe27 4dbd
000003b0: c81a 833d d780 2a3d ebdf c53c e654 a23c
000003c0: f74d 3dbd 79d1 75bb 4811 533b 7e24 833a
000003d0: b97a 8e3d 28d1 c0bb 5e5e 4d3d c980 ce3c
000003e0: 7057 4b3d ec4d fdbc 5f26 88bc c5d4 b4bc
000003f0: e021 833b 82f0 96bc fa76 553d ab5c a93d

network_body.linear_encoder.seq_layers.0.weight f4 [256, 75]
0.06829062 0.14269318 0.024164107 0.11127807 -0.121373 0.05366465 0.053446524 0.2651804
0.005798638 -0.30074006 -0.02667537 0.34857863 -0.14329807 0.050032094 0.07483485 -0.011879673
0.3027872 0.0010151769 0.21093392 -0.001300454 -0.13515541 0.1391255 -0.00943046 -0.11795421
-0.17550322 -0.17772469 0.15939872 -0.08781787 0.08215888 -0.19144093 -0.13375992 0.024750847
-0.019314155 -0.1104085 -0.22315043 0.0036182324 -0.0472689 -0.10863743 -0.0030239571 -0.1838383
-0.02701049 0.07705568 0.06745758 0.1134399 0.093445145 -0.026505299 -0.04484743 0.05010381
0.11496164 -0.085359156 -0.13559315 0.075570166 0.026615582 0.08080786 0.16014703 0.18027125
0.019362828 0.056324642 0.14311595 -0.11298012 0.042994116 0.18591273 0.03057016 0.04502172
-0.1582154 -0.0065195146 0.055902418 -0.1640793 -0.041516013 0.05598541 -0.09273506 0.079222865
-0.095742695 -0.025690258 0.20750391 0.13920993 0.015625164 -0.03142867 0.00022060346 -0.03724172
-0.013857445 0.22925392 -0.09176849 0.18394889 0.19401525 -0.07760582 0.10784904 -0.13670056
0.07889708 0.16007043 -0.14256276 -0.00909531 0.051515914 -0.007097777 0.08502741 0.11076116
0.28200188 0.047566462 0.09139947 0.19832717 -0.024219006 0.06304026 -0.048465356 -0.065504536
0.10928036 0.18314792 -0.025858583 -0.024923835 -0.040682588 -0.106990166 -0.06247989 0.06600835
0.016257089 -0.039589483 -0.08546966 0.10244072 -0.10122298 -0.05986315 -0.119493075 0.1571215
-0.21195593 0.081373475 -0.05186484 -0.20725507 0.016956573 -0.06330848 -0.05650807 -0.032248575
0.04123405 0.13661854 -0.15649976 -0.19687332 -0.4230774 0.08756215 -0.019565647 0.16735497
-0.17115495 0.1554141 -0.13694495 -0.025255352 0.1912581 -0.14581364 -0.14599219 0.06148931
-0.053281777 0.08311118 -0.028692748 -0.13053736 -0.09317488 0.1477271 -0.10749058 -0.15191227
0.09348823 -0.1236585 -0.009008573 -0.26098487 -0.027988192 -0.050639935 -0.0613741 -0.011662129
-0.056120485 0.05395988 0.06311393 0.12138865 0.1656189 -0.050503712 -0.06872767 0.091592096
-0.08772092 -0.105560906 -0.013335702 -0.074317925 0.019836083 -0.024312275 0.15071611 -0.09450381
0.0529045 0.14166127 -0.14637376 0.26802802 -0.07473326 -0.037572537 0.011112139 0.14936034
-0.15132183 -0.1119417 0.0850278 0.034747522 0.12979804 -0.09621096 0.0071313474 0.08871647
-0.014192285 -0.039743077 -0.10261271 -0.21157323 -0.025631405 0.026927488 0.029591147 0.046615414
0.025616648 0.15041961 0.031750657 0.0689765 -0.25981402 0.24604173 -0.08383004 0.008270891
0.10120987 0.032163683 -0.035773914 0.1924261 -0.0019766702 -0.14801197 -0.031851053 -0.14804398
-0.06404169 -0.026779933 0.06575758 -0.2001119 0.21857095 -0.23984322 0.12784779 -0.02767606
0.17604649 -0.00095890026 0.0312783 -0.027883777 -0.020608924 -0.065342546 -0.056527603 -0.06300021
-0.06369016 0.0067904345 0.10633228 -0.010470797 0.14967701 0.12576321 0.20852134 0.26788035
-0.14300588 -0.038004864 -0.087977424 0.08395135 0.005533029 -0.042291317 -0.018539164 0.08398591
0.0056657004 -0.11946338 -0.06858521 0.30944443 0.15070009 0.12258917 0.09789425 0.09318881
00000000: f4db 8b3d 291e 123e cef3 c53c c2e5 e33d
00000010: 6892 f8bd 77cf 5b3d beea 5a3d bac5 873e
00000020: 8002 be3b 9afa 99be 4e86 dabc e678 b23e
00000030: bbbc 12be 74ee 4c3d 0443 993d f6a2 42bc
00000040: ed06 9b3e af0f 853a 10ff 573e ff73 aaba
00000050: 2e66 0abe ea76 0e3e 3782 1abc fa91 f1bd
00000060: 1eb7 33be 76fd 35be 6b39 233e dbd9 b3bd
00000070: ea42 a83d 1709 44be 5cf8 08be 4ac2 ca3c
00000080: b838 9ebc da1d e2bd 8c81 64be de1f 6d3b
00000090: 099d 41bd 4d7d debd 952d 46bb 1b40 3cbe
000000a0: 1a45 ddbc 5ecf 9d3d 3327 8a3d 2e53 e83d
000000b0: 2b60 bf3d a421 d9bc f0b1 37bd a739 4d3d
000000c0: 0271 eb3d c8d0 aebd eed8 0abe 88c4 9a3d
000000d0: ec08 da3c 977e a53d 95fd 233e 0799 383e
000000e0: cb9e 9e3c abb4 663d fd8c 123e 1f62 e7bd
000000f0: 991a 303d e85f 3e3e 466e fa3c b268 383d
00000100: 3803 22be a7a1 d5bb eff9 643d 6704 28be
00000110: b20c 2abd f550 653d e1eb bdbd 993f a23d
00000120: bf14 c4bd 6074 d2bc e87b 543e 0c8d 0e3e
00000130: 5800 803c 59bb 00bd ca51 6739 c68a 18bd
00000140: 560a 63bc 8ac1 6a3e 1ef1 bbbd 195d 3c3e
00000150: efab 463e cdef 9ebd f5df dc3d 3bfb 0bbe
00000160: cb94 a13d 81e9 233e f9fb 11be 7f04 15bc
00000170: 5a02 533d 7894 e8bb da22 ae3d bfd6 e23d
00000180: 8d62 903e 0dd5 423d a52f bb3d 4716 4b3e
00000190: f066 c6bc 401b 813d 9c83 46bd 3e27 86bd
000001a0: 62ce df3d 218b 3b3e 61d5 d3bc 122d ccbc
000001b0: c9a2 26bd a91d dbbd eaea 7fbd 632f 873d
000001c0: 962d 853c 9528 22bd b80a afbd 71cc d13d
000001d0: fe4d cfbd 1033 75bd c9b8 f4bd 75e4 203e
000001e0: fa0a 59be 23a7 a63d 3a70 54bd ac3a 54be
000001f0: 83e8 8a3c e0a7 81bd 0275 67bd 1517 04bd
00000200: 09e5 283d bbe5 0b3e 7941 20be 2999 49be
00000210: 9a9d d8be c953 b33d 2348 a0bc 1a5f 2b3e
00000220: 3e43 2fbe e024 1f3e 4c3b 0cbe 50e4 cebc
00000230: 2ad9 433e 2c50 15be fa7e 15be 37dc 7b3d
00000240: fe3d 5abd 3236 aa3d 0e0d ebbc 96ab 05be
00000250: 79d2 bebd c645 173e 0524 dcbd e48e 1bbe
00000260: c276 bf3d ab40 fdbd b298 13bc cf9f 85be
00000270: 7e47 e5bc d26b 4fbd 6963 7bbd 8412 3fbc
00000280: 98de 65bd 0905 5d3d e041 813d 9d9a f83d
00000290: 0098 293e fbdc 4ebd 18c1 8cbd a394 bb3d
000002a0: 07a7 b3bd 5130 d8bd fd7d 5abc ff33 98bd
000002b0: 487f a23c 892a c7bc 5355 1a3e 378b c1bd
000002c0: 64b2 583d a70f 113e 01e3 15be f83a 893e
000002d0: c00d 99bd a9e5 19bd b00f 363c ebf1 183e
000002e0: 1cf4 1abe b141 e5bd 0e23 ae3d 6b53 0e3d
000002f0: c7e9 043e 400a c5bd 14ae e93b fbb0 b53d
00000300: c286 68bc a3c9 22bd 9d26 d2bd a7a6 58be
00000310: f4f8 d1bc 0997 dc3c 2269 f23c ceef 3e3d
00000320: 01da d13c 9907 1a3e fa0c 023d 8d43 8d3d
00000330: 5806 85be 5df2 7b3e 16af abbd a282 073c
00000340: 1f47 cf3d 11be 033d ab87 12bd 590b 453e
00000350: 068b 01bb 7390 17be 4076 02bd d798 17be
00000360: 4a28 83bd 9761 dbbc e9ab 863d 22ea 4cbe
00000370: 10d1 5f3e 7699 75be 88ea 023e e8b8 e2bc
00000380: 8845 343e b55e 7bba ad1d 003d 856c e4bc
00000390: 0cd4 a8bc 50d2 85bd 7d89 67bd 4106 81bd
000003a0: fd6f 82bd 4b82 de3b bdc4 d93d b58d 2bbc
000003b0: ee44 193e 12c8 003e 9e86 553e 9d27 893e
000003c0: 2270 12be fdaa 1bbd 822d b4bd afee ab3d
000003d0: 694e b53b a939 2dbd 72df 97bc ce00 ac3d
000003e0: 57a7 b93b 37a9 f4bd 6776 8cbd 806f 9e3e
000003f0: 2051 1a3e 0810 fb3d c87c c83d c6d9 be3d

network_body.linear_encoder.seq_layers.2.bias f4 [256]
0.025165606 0.012277466 -0.034915835 -0.01054366 0.018634122 0.062843174 0.055051163 0.030527031
0.009857786 -0.035675246 -0.048587196 -0.032393377 0.067396335 0.00063960697 -0.0073853214 0.022302058
-0.015847938 0.042823892 -0.022368087 0.09880909 -0.018737141 -0.004461741 -0.008522439 0.05260501
-0.06378806 0.019083822 -0.028254852 0.05127612 -0.02235883 0.067711085 0.025567928 0.052618057
0.030483227 -0.011191666 -0.0181318 0.0056388658 -0.014420087 0.00086717366 -0.049958173 -0.046595637
0.039841965 -0.02021948 -0.008222412 0.016000416 -0.046858087 0.005349753 0.040826853 0.007880863
0.016605899 0.0300741 -0.009723249 -0.00414231 -0.024643462 0.038791597 0.039891392 -0.004582962
-0.033090163 -0.03886687 -0.015140122 0.059790812 -0.05706429 -0.0013835934 -0.042183377 0.013443118
0.027138975 0.039408628 -0.068892926 -0.03455769 -0.01806726 -0.014281571 -0.031855047 0.005542526
0.046717986 -0.039359964 -0.040503662 -0.04620281 -0.03261584 0.012987231 -0.012805486 0.04660673
0.05269655 -0.064688444 -0.020412218 0.018589446 -0.041525804 0.016440136 0.014160323 0.0026296617
-0.023616515 0.017658355 0.029336711 -0.016648918 0.011366504 0.013529704 0.005480524 -0.041228887
0.024931183 -0.02322267 0.053957228 0.030371398 -0.014784925 0.03820916 -0.0009106295 -0.034283545
-0.033276964 -0.039286748 0.05707623 -0.030526489 0.00028980404 0.03636249 0.00057762844 0.030299181
0.04605179 -0.023854509 -0.002278994 -0.037812885 0.037784833 0.036226157 0.054594 0.004337272
-0.017798187 -0.028355412 -0.009467529 -0.02393979 -0.034086496 0.038635302 -0.02358121 -0.08953086
0.054133132 -0.030085882 -0.07340174 -0.029258464 0.016122414 -0.013475687 -0.038642857 -0.045834936
-0.029989999 -0.023473913 -0.032729346 -0.006503321 -0.014466943 0.029680366 0.04267582 0.034586675
0.01705851 0.005045419 -0.080381885 0.058607094 -0.012076127 -0.00022973132 -0.036044452 -0.019777238
0.074594475 -0.07529279 0.05613776 0.09748797 0.030496215 0.008335738 0.0467028 -0.018247787
-0.035035875 0.0052383435 0.006077892 -0.034749556 0.043971304 0.0037864656 0.0026969803 0.058995143
0.03871236 -0.016673528 -0.028836073 -0.022038393 -0.037392493 0.038425673 -0.0049933316 0.013046317
0.0093597 0.0769039 -0.03778595 0.012669718 0.035053954 -0.052078962 -0.010598118 0.0008844207
-0.0019020065 -0.037999593 -0.061069597 -0.004157321 -0.0062545156 0.056638256 0.0024186568 0.0024517495
0.023100968 -0.046723608 -0.0586027 -0.029839829 -0.0031555777 0.072112605 -0.045618 -0.05115892
-0.020742126 0.04653745 0.0047877426 0.06595004 0.030139554 -0.030514466 -0.011753834 0.01394279
-0.00055863755 -0.037337914 0.03666362 0.012392001 -0.048573103 -0.034871984 0.07777054 0.0046334695
-0.03525871 0.01445056 0.036958277 -0.041913923 0.0026320722 -0.05672796 -0.02063162 0.027160246
-0.01779563 -0.049231835 0.006659638 0.031514727 -0.060262408 0.055814836 -0.009938837 0.07959726
-0.04541495 -0.045974627 -0.041355364 -0.048099063 0.03478033 0.008046548 0.027758066 0.025379835
-0.045079473 -0.052806687 -0.00048234747 0.06789224 0.0969579 0.09026567 0.08729602 0.021898948
-0.0014728582 -0.065864526 0.060046133 0.012490201 -0.057273086 -0.026540466 -0.05616757 0.024896313
00000000: 1a28 ce3c 6d27 493c e803 0fbd 51bf 2cbc
00000010: 96a6 983c ecb3 803d 547d 613d d313 fa3c
00000020: 8d82 213c 3520 12bd 5e03 47bd ebae 04bd
00000030: 1707 8a3d 4cab 273a 9100 f2bb ceb2 b63c
00000040: 89d3 81bc 1b68 2f3d 473d b7bc 6c5c ca3d
00000050: a27e 99bc cc33 92bb b3a1 0bbc 5a78 573d
00000060: 50a3 82bd ad55 9c3c b876 e7bc e906 523d
00000070: dd29 b7bc 1cac 8a3d d573 d13c 0886 573d
00000080: f6b7 f93c 405d 37bc 2489 94bc 3cc6 b83b
00000090: 3b42 6cbc 0a53 633a f1a0 4cbd 11db 3ebd
000000a0: 5431 233d 53a3 a5bc 4cb7 06bc 4e13 833c
000000b0: 44ee 3fbd fb4c af3b 0f3a 273d bc1e 013c
000000c0: 1809 883c f55d f63c 434e 1fbc 37bc 87bb
000000d0: 16e1 c9bc f0e3 1e3d 2865 233d ac2c 96bb
000000e0: 8d89 07bd de32 1fbd 460e 78bc 36e7 743d
000000f0: 3fbc 69bd b159 b5ba 7ac8 2cbd 8640 5c3c
00000100: 8e52 de3c f16a 213d bc17 8dbd 5d8c 0dbd
00000110: ca01 94bc 40fd 69bc 707a 02bd 149e b53b
00000120: 5c5b 3f3d ea37 21bd 2be7 25bd 283f 3dbd
00000130: 3098 05bd 65c8 543c 1ace 51bc b3e6 3e3d
00000140: 56d8 573d 607b 84bd 8637 a7bc e548 983c
00000150: f616 2abd 77ad 863c b300 683c 6756 2c3b
00000160: 6c77 c1bc 41a8 903c 8b53 f03c 5063 88bc
00000170: 933a 3a3c b1ab 5d3c f895 b33b 9fdf 28bd
00000180: 7b3c cc3c 783d bebc 4102 5d3d 70cd f83c
00000190: 783c 72bc 3581 1c3d 50b7 6eba e76c 0cbd
000001a0: 6d4d 08bd 24eb 20bd c4c8 693d b012 fabc
000001b0: d7f0 9739 d6f0 143d fd6b 173a fd35 f83c
000001c0: cda0 3c3d 886a c3bc 2d5b 15bb afe1 1abd
000001d0: 45c4 1a3d e161 143d f59d 5f3d ad1f 8e3b
000001e0: 81cd 91bc 9c49 e8bc b21d 1bbc 611d c4bc
000001f0: 489e 0bbd 0d40 1e3d 622d c1bc f55b b7bd
00000200: b4ba 5d3d ab76 f6bc a753 96bd 72af efbc
00000210: 2713 843c 21c9 5cbc f947 1ebd 6abd 3bbd
00000220: 96ad f5bc 5d4c c0bc 350f 06bd d019 d5bb
00000230: c206 6dbc 3d24 f33c d7cc 2e3d c2aa 0d3d
00000240: 4abe 8b3c 0b54 a53b 429f a4bd fe0d 703d
00000250: f3da 45bc 08e4 70b9 59a3 13bd e003 a2bc
00000260: fdc4 983d 1b33 9abd b5f0 653d c6a7 c73d
00000270: 33d3 f93c 9f92 083c 6f4b 3f3d 627c 95bc
00000280: c781 0fbd 69a6 ab3b 0e29 c73b 8d55 0ebd
00000290: 411b 343d 5a26 783b d2bf 303b e4a4 713d
000002a0: da90 1e3d ec96 88bc a139 ecbc dc89 b4bc
000002b0: df28 19bd 3d64 1d3d 1a9f a3bb 38c0 553c
000002c0: 6d59 193c cb7f 9d3d 71c5 1abd a694 4f3c
000002d0: bc94 0f3d c050 55bd bba3 2dbc 78d8 673a
000002e0: bf4c f9ba 76a5 1bbd 1d24 7abd 233a 88bb
000002f0: aef2 ccbb 84fd 673d 5482 1e3b 88ad 203b
00000300: 3e3e bd3c 4161 3fbd 6209 70bd a872 f4bc
00000310: cfcd 4ebb c6af 933d f1d9 3abd 048c 51bd
00000320: 64eb a9bc 0e9e 3e3d 7fe2 9c3b d110 873d
00000330: 3ae7 f63c 79f9 f9bc 2793 40bc 4d70 643c
00000340: 8871 12ba a4ef 18bd 982c 163d d207 4b3c
00000350: 97f4 46bd edd5 0ebd 2946 9f3d 5cd4 973b
00000360: 706b 10bd 0bc2 6c3c 9061 173d efad 2bbd
00000370: d87e 2c3b 945b 68bd a503 a9bc 2a7f de3c
00000380: 24c8 91bc 52a7 49bd 1839 da3b 9615 013d
00000390: b7d5 76bd 199e 643d 81d6 22bc e303 a33d
000003a0: 0705 3abd e44f 3cbd 3e64 29bd 8603 45bd
000003b0: d275 0e3d abd5 033c e264 e33c 5fe9 cf3c
000003c0: 41a5 38bd d34b 58bd 95e3 fcb9 160b 8b3d
000003d0: dd91 c63d 35dd b83d 41c8 b23d 6c65 b33c
000003e0: ec0c c1ba fbe3 86bd eff2 753d b3a3 4c3c
000003f0: 2f97 6abd 646b d9bc f70f 66bd 5af3 cb3c
