Assets/Models/Thesis/volley.onnx (onnx, 114822 bytes, 12 tensors)

action_model._discrete_distribution.branches.0.bias f4 [3]
0	0x3dfdfd48	0.12401825
1	0x3d56c4d8	0.05243382
2	0xbe381a85	-0.17978866

action_model._discrete_distribution.branches.0.weight f4 [3, 128]
0	0x3d620da3	0.055188786
1	0x3e8b5a9a	0.2721756
2	0x3e5aad9c	0.21355289
3	0xbd71d789	-0.05904344
4	0x3e97c4b9	0.29642275
5	0x3d13cdd6	0.036084972
6	0xbf58ff3f	-0.84764475
7	0x3e951cad	0.2912344
8	0xbe776b06	-0.2416192
9	0x3e6af9bd	0.2294683
10	0xbf3c5562	-0.73567784
11	0x3e791638	0.24324882
12	0x3e6bc09a	0.2302269
13	0xbeaa4607	-0.33256552
14	0xbd6a2508	-0.057164222
15	0x3ca06436	0.019579034
16	0x3c253848	0.010084219
17	0x3ce73c54	0.028227009
18	0xbe8ca553	-0.27469882
19	0x3e9d7327	0.30751917
20	0x3e476611	0.19472529
21	0x3e7aa53b	0.24477093
22	0xbf11946b	-0.5686709
23	0xbeddbab9	-0.4330652
24	0xbc46f0d0	-0.012142375
25	0x3e48d759	0.19613399
26	0x3d385b16	0.04500874
27	0xbc3eed62	-0.011653276
28	0x3bd1ead3	0.006406167
29	0x3b8516c3	0.0040615513
30	0x3ed56fff	0.4168701
31	0x3eae20e8	0.3400948
32	0xbec47a4c	-0.38374555
33	0xbec80b0a	-0.39070922
34	0xbdb813c7	-0.08988147
35	0x3cea7525	0.028620312
36	0x3d20f7f9	0.039298985
37	0x3f1ca6c2	0.6119195
38	0x3cd2e86a	0.02574559
39	0x3e85c572	0.261272
40	0x3e8eed0b	0.27915224
41	0x3e24f42c	0.16108769
42	0xbcfa5d6e	-0.030562129
43	0xbe613543	-0.21992974
44	0xbe45cb73	-0.19315891
45	0xbdde74e3	-0.10862138
46	0xbd6e8f28	-0.058241993
47	0xbedd7e7e	-0.43260568
48	0xbd86a954	-0.065752655
49	0x3e926013	0.28588924
50	0x3ef726af	0.482717
51	0xbdb483b4	-0.08814183
52	0xbbd08ff5	-0.0063648173
53	0x3ea3f6d2	0.32024246
54	0xbe02e079	-0.12780942
55	0xbe096326	-0.13416728
56	0x3edd8c65	0.43271175
57	0xbcc4a09c	-0.024002366
58	0x3e237e4f	0.15966152
59	0x3f93b238	1.1538763
60	0xbbfca7b2	-0.0077104205
61	0x3ddc51d5	0.10757796
62	0xbe1d225c	-0.15345138
63	0xbf548980	-0.8302231
64	0x3f08db5e	0.5345973
65	0xbe853480	-0.26016617
66	0x3eff206c	0.49829423
67	0x3d9fe9b2	0.07808246
68	0x3e90dae3	0.28291997
69	0x3e8d5a55	0.2760798
70	0xbe745452	-0.2386029
71	0xbc202122	-0.0097735245
72	0x3daefcc0	0.08544302
73	0x3ef39ebc	0.47582042
74	0xbeecad56	-0.46225995
75	0xbd7db3c2	-0.06193901
76	0x3e5fdb94	0.21861106
77	0xbeb5af05	-0.35485092
78	0x3df6f8fb	0.12059208
79	0xbecb9044	-0.39758503
80	0x3d2b873e	0.041877024
81	0xbe815bf1	-0.25265458
82	0x3ee5b9f0	0.44868422
83	0xbeee2d0f	-0.46518752
84	0x3ea4bf9e	0.32177442
85	0xbe27bd4f	-0.16380809
86	0xbd1adb32	-0.037806697
87	0x3da868cb	0.08223113
88	0x3ea029bd	0.31281844
89	0xbf001d2e	-0.50044525
90	0x3e13a25c	0.14417404
91	0x3db6f3de	0.08933233
92	0x3ce1dfa5	0.027572462
93	0xbe7ec1c5	-0.24878605
94	0x3e295f6d	0.16540308
95	0x3e276a50	0.16349149
96	0xbb3a995b	-0.0028472755
97	0x3ceeb7ca	0.029140372
98	0x3edbfd11	0.42966512
99	0x3e40ae34	0.18816453
100	0xbafdd5b6	-0.0019366059
101	0x3e291877	0.16513239
102	0x3d920875	0.07130519
103	0x3e4174e5	0.18892248
104	0x3f08c0bb	0.53419083
105	0x3eb93918	0.36176372
106	0x3ee33796	0.44378346
107	0x3eaca75a	0.3372143
108	0xbe61de5f	-0.22057484
109	0xbec97841	-0.3934956
110	0x3cd8fc33	0.026487445
111	0xbe162948	-0.14664185
112	0x3f426eb9	0.759502
113	0xbdc9e05e	-0.09857248
114	0x3b9d4488	0.0047994293
115	0xbddd94b2	-0.10819377
116	0xbee08220	-0.43849277
117	0x3dfd98d4	0.12382665
118	0xbecad476	-0.3961522
119	0xbe84e960	-0.259593
120	0xbf163ff7	-0.5869135
121	0xbd52f511	-0.051503245
122	0xbedb0ea0	-0.42784595
123	0xbd0f36e1	-0.034964446
124	0x3eddc208	0.43312097
125	0xbdd05a1c	-0.10173437
126	0x3ebd6d6f	0.36997554
127	0x3e952b9e	0.2913484
128	0x3c89a4bb	0.016802182
129	0xbe7603b0	-0.24024844
130	0x3e3d3bbe	0.18479821
131	0x3eee1a2f	0.46504351
132	0x3de1030b	0.109869085
133	0x3ec6de5a	0.38841516
134	0x3f0e2cdb	0.55537194
135	0xbe0bee83	-0.13665204
136	0x3ea8189a	0.3283127
137	0xbec2d149	-0.38050297
138	0xbd89e9fa	-0.067340806
139	0xbf4af6db	-0.7928292
140	0x3da34a1e	0.07973121
141	0xbf59269b	-0.8482453
142	0xbd8290c9	-0.06375272
143	0xbe3b2238	-0.18274772
144	0x3e87b273	0.26503333
145	0x3e6b1709	0.22958006
146	0x3d74968d	0.05971389
147	0x3dc928e6	0.09822254
148	0xbe0b9b17	-0.13633381
149	0xbece274e	-0.40264362
150	0x3f037ce4	0.5136244
151	0x3d5af6b2	0.053457923
152	0xbd6063d4	-0.054782704
153	0xbf14c184	-0.5810778
154	0xbd150620	-0.036382794
155	0x3d452fe2	0.048141368
156	0x3d682ac3	0.056681406
157	0x3d2488d0	0.040169537
158	0xbe784adc	-0.24247307
159	0xbe51e93c	-0.20499128
160	0x3f0aceca	0.54221785
161	0x3e04fa79	0.12986173
162	0x3d90a7ce	0.07063256
163	0xbed4a8c9	-0.41535023
164	0x3ea74445	0.32669273
165	0xbf6bdc89	-0.92133385
166	0x3c8cc603	0.017184263
167	0x3d801e2c	0.06255755
168	0xbe5871fb	-0.2113723
169	0xbeaa0537	-0.33207104
170	0xbba54d63	-0.0050446256
171	0x3f096bd0	0.53680134
172	0x3df06ed1	0.117398866
173	0x3e2308ef	0.15921377
174	0x3ef02b5c	0.4690808
175	0xbde8c1aa	-0.113650635
176	0xbdb16177	-0.08661168
177	0xbee97477	-0.45596668
178	0xbea5de40	-0.32396126
179	0x3d0d9759	0.034568164
180	0x3eb35c8a	0.3503154
181	0x3e90ce9e	0.28282636
182	0x3e3b2733	0.18276672
183	0x3e921616	0.28532475
184	0xbd173dfb	-0.036924344
185	0x3e197597	0.14986263
186	0x3e005ad4	0.12534648
187	0xbf81736e	-1.0113351
188	0xbe03811b	-0.12842219
189	0x3e965270	0.2935977
190	0x3eada21b	0.3391274
191	0x3f8ea04b	1.1142668
192	0xbf25900b	-0.6467292
193	0x3ec7f1a7	0.39051554
194	0xbf515c99	-0.8178192
195	0xbd730c0b	-0.059337657
196	0x3d516aaf	0.051127132
197	0xbdf96885	-0.12178139
198	0x3de034e9	0.10947592
199	0x3d922b0e	0.07137118
200	0x3ec4a00f	0.38403365
201	0xbe9cbb36	-0.3061158
202	0x3e887c72	0.26657444
203	0x3e59e1f9	0.21277608
204	0xbf12120b	-0.5705878
205	0x3ec5d651	0.38640073
206	0xbcf5477d	-0.029941315
207	0xbe022fbc	-0.12713522
208	0xbf02c7f9	-0.51086384
209	0x3e4ad647	0.19808303
210	0xbecd52a1	-0.40102103
211	0xbdfd6bcb	-0.123740755
212	0xbf0d76fd	-0.55259687
213	0x3ec733be	0.38906664
214	0x3e885dff	0.26634213
215	0x3ea8f2a4	0.3299762
216	0xbf9804c2	-1.1876452
217	0xbe8dd06f	-0.27698085
218	0xbe406d9b	-0.18791811
219	0xbe983895	-0.2973067
220	0x3eaab54d	0.33341447
221	0x3e2259c5	0.15854557
222	0x3cfd7b6b	0.03094264
223	0x3e50ef00	0.20403671
224	0xbc216669	-0.009851077
225	0xbd4e24eb	-0.050328176
226	0xbe89b1a7	-0.2689335
227	0x3d9650dc	0.073396415
228	0x3e49eec5	0.1971999
229	0x3c681bba	0.014166767
230	0xbeb4d550	-0.35318995
231	0xbe969f68	-0.29418492
232	0xbedac80c	-0.4273075
233	0xbeabe7c8	-0.33575273
234	0xbed57054	-0.41687262
235	0xbf111d10	-0.5668497
236	0x3dde74fa	0.10862155
237	0x3e7ac0dd	0.24487634
238	0xbe156a93	-0.14591436
239	0x3e8b8f0d	0.27257577
240	0xbf5d1436	-0.86358964
241	0xbe7014cd	-0.23445435
242	0x3e02440a	0.12721267
243	0x3eb4d556	0.35319012
244	0xbd047933	-0.032342147
245	0x3e33fee5	0.17577703
246	0x3efee8e5	0.4978706
247	0x3ec7735f	0.3895521
248	0x3f08d8ce	0.5345582
249	0x3d01df51	0.03170711
250	0x3e50dae6	0.20396003
251	0xbe6a75ef	-0.2289655
252	0xbf7440b5	-0.95411235
253	0x3e71294f	0.23550914
254	0xbe38d036	-0.18048176
255	0xbe7cf2e2	-0.24702027

action_model._discrete_distribution.branches.1.bias f4 [3]
0	0xbcc42f0b	-0.023948213
1	0xbd306f58	-0.043074936
2	0x3db69203	0.08914568

action_model._discrete_distribution.branches.1.weight f4 [3, 128]
0	0x3d400065	0.046875376
1	0x3dc735f6	0.09727089
2	0x3e4f143c	0.20222563
3	0x3e7eea4f	0.24894069
4	0x3d3e2cc7	0.04642942
5	0xbe4abea8	-0.19799292
6	0x3ebd60ce	0.3698792
7	0xbc109a99	-0.008825921
8	0x3e1c74d0	0.15278935
9	0x3e9b6906	0.30353564
10	0x3e9482ca	0.29006034
11	0xbdf8fbba	-0.12157388
12	0x3ee310b5	0.44348684
13	0x3efba61d	0.49150172
14	0xbec2d772	-0.38054997
15	0xbe52c8d7	-0.20584427
16	0x3ea83c36	0.32858437
17	0x3e30a1d0	0.17249227
18	0xbea8a097	-0.3293502
19	0xbdd0adad	-0.10189376
20	0xbe051778	-0.12997234
21	0x3e5dbf9d	0.21655126
22	0xbedca869	-0.43097237
23	0xbc80cf94	-0.015723981
24	0x3ee63581	0.44962695
25	0x3d26cb50	0.040721238
26	0xbf104dc7	-0.5636868
27	0x3e367cc4	0.17821032
28	0x3ec04a8a	0.3755687
29	0x3ea07dca	0.3134597
30	0x3c17dae2	0.009268494
31	0x3ea7b37d	0.32754126
32	0x3e97792b	0.2958463
33	0x3ec9c722	0.3940974
34	0x3dd93748	0.10606247
35	0xbb0e4fae	-0.0021714973
36	0xbe058fee	-0.13043186
37	0x3eb4efec	0.35339296
38	0xbdb503ac	-0.08838591
39	0xbddb20b7	-0.10699599
40	0xbe1c919f	-0.15289925
41	0x3ecc1d6e	0.39866203
42	0xbc88eed9	-0.016715454
43	0xbeeae065	-0.45874324
44	0xbbbeff7a	-0.005828795
45	0x3dba9b3e	0.09111641
46	0xbe1ce25d	-0.15320726
47	0x3ebb5c81	0.36594012
48	0x3ee2b2b4	0.44276965
49	0x3bfcdad3	0.0077165156
50	0xbdae1e69	-0.08501894
51	0xbf0368c8	-0.5133176
52	0xbecf7f39	-0.4052675
53	0xbcc258c3	-0.023723966
54	0x3a110a73	0.0005532868
55	0x3db0c8fc	0.08632085
56	0x3b681915	0.003541534
57	0xbd7fb544	-0.062428728
58	0x3db61d45	0.088923015
59	0xbe9e98b2	-0.30975872
60	0xbd2cabe9	-0.042156134
61	0xbe024afe	-0.1272392
62	0xbcdc37e9	-0.026882129
63	0xbf3f03bc	-0.74615073
64	0x3ec26fb3	0.37975845
65	0xbbecfc50	-0.0072322264
66	0x3d882825	0.06648282
67	0xbe242611	-0.16030146
68	0xbe81fc92	-0.25388008
69	0x3f3c5ae6	0.735762
70	0x3ef8e5ce	0.48612827
71	0x3e8ae076	0.27124375
72	0xbdea3aa1	-0.11436964
73	0x3ea3c864	0.31988823
74	0xbe0826d6	-0.13296065
75	0x3ae3c3c2	0.0017377066
76	0x3e86efb4	0.26354754
77	0x3ea048c1	0.31305507
78	0x3ee3cdd9	0.44492987
79	0xbedd2cb6	-0.43198174
80	0xbe2a51ff	-0.16632842
81	0xbdf0aa60	-0.117512465
82	0xbd9ccda6	-0.07656412
83	0xbe843f51	-0.25829557
84	0x3e4a4d30	0.19756007
85	0x3f23d240	0.6399269
86	0x3e254ed9	0.16143359
87	0x3e79f2b2	0.24408987
88	0xbbe1f856	-0.006896059
89	0xbe5f14a4	-0.21785218
90	0xbef343ab	-0.47512564
91	0xbe6595be	-0.22420403
92	0x37c7cf69	2.3819232e-05
93	0x3e41a57d	0.18910785
94	0xbde55dd7	-0.11199539
95	0x3db57aa3	0.08861282
96	0xbd79ff94	-0.061034754
97	0xbe1ea634	-0.15493089
98	0xbdd32bca	-0.103110865
99	0x3e03fb99	0.12888946
100	0xbdb835cb	-0.08994635
101	0xbe1e83f1	-0.15480019
102	0x3e9d00ba	0.30664617
103	0x3e2959c3	0.16538148
104	0x3e926ef3	0.28600273
105	0x3ed7d565	0.42154995
106	0x3e3de7da	0.18545476
107	0xbf26dac3	-0.65177554
108	0x3d899177	0.06717198
109	0x3d8b16ef	0.067914836
110	0xbf163cd4	-0.58686566
111	0x3eae5a56	0.34053296
112	0x3e7a0dd1	0.24419333
113	0xbe6ea227	-0.23304044
114	0x3e93b32e	0.2884764
115	0xbbc87272	-0.0061171586
116	0xbe73f7cc	-0.23824996
117	0x3d9aa998	0.07551879
118	0xbda52732	-0.080641165
119	0xbeefeb05	-0.46858993
120	0x3e06f0b6	0.13177761
121	0x3e3177e6	0.17330894
122	0xbf3401c1	-0.70315176
123	0xbdd81623	-0.10551097
124	0xbc7e08c7	-0.015505022
125	0x3e516bb7	0.20451246
126	0x3f31252b	0.6919734
127	0x3dfaf0ff	0.122529976
128	0x3dda9195	0.10672299
129	0xbef25c54	-0.47336066
130	0xbcc70ad0	-0.024297148
131	0xbe94bb80	-0.290493
132	0x3e5f011a	0.21777764
133	0x3f8ed517	1.115878
134	0xbe87afa8	-0.26501203
135	0x3eaa0eca	0.33214408
136	0xbe6b8563	-0.23000102
137	0xbe6b6bbe	-0.22990319
138	0xbf216987	-0.63051647
139	0x3e5b7f38	0.21435249
140	0xbec8bd54	-0.39206946
141	0xbe63f2bc	-0.22260565
142	0x3dc02458	0.09381932
143	0x3e9dd6a7	0.3082783
144	0x3e7f3652	0.24923065
145	0xbe8363ff	-0.25662228
146	0x3e067049	0.13128771
147	0xbd689846	-0.056785844
148	0xbe1b4ccf	-0.15166019
149	0x3d153466	0.036426924
150	0x3d989175	0.07449619
151	0x3e3c8f48	0.18414032
152	0xbe40cc12	-0.18827847
153	0x3c7d64ef	0.015465959
154	0x3ee87f62	0.45409685
155	0xbe5a7ef2	-0.21337488
156	0x3e43dac0	0.19126415
157	0x3e1a4c5a	0.15068188
158	0xbdd0430d	-0.10169039
159	0xbe0329c5	-0.12808903
160	0x3e42baec	0.19016618
161	0xbe5a510d	-0.21319981
162	0x3ea0dfdd	0.31420794
163	0x3f05bcf2	0.5224143
164	0x3e94c3a5	0.29055515
165	0x3f05b486	0.5222858
166	0xbde31b84	-0.110892326
167	0xbcde8eab	-0.027167639
168	0x3ce2c8d9	0.027683662
169	0xbcfd79ee	-0.03094193
170	0xbe396d64	-0.18108135
171	0x3e82cf8d	0.25548974
172	0xbc99cb6a	-0.018773753
173	0x3dd074de	0.10178541
174	0x3e84a178	0.2590444
175	0x3d98012b	0.07422098
176	0xbe73bd40	-0.23802662
177	0x3ef39e04	0.47581494
178	0x3df23e5c	0.118283
179	0x3e536cb6	0.20646939
180	0x3df5bf00	0.11999321
181	0xbeb967d8	-0.3621204
182	0xbe5c1be2	-0.21495011
183	0x3dae5411	0.08512128
184	0x3ed808cf	0.4219422
185	0xbd5e4e6a	-0.054274
186	0xbe2d878f	-0.16946243
187	0xbe369b48	-0.17832673
188	0x3d2ec3b3	0.042667102
189	0xbea797ca	-0.32732993
190	0x3df0599f	0.11735844
191	0x3cefad31	0.029257389
192	0xbe1f5900	-0.15561295
193	0x3e3c4371	0.18385102
194	0x3e952de4	0.29136574
195	0x3eabef9c	0.33581245
196	0x3e2fa56d	0.17152949
197	0x3e854e45	0.26036277
198	0x3d794e16	0.060865484
199	0xbefcdadd	-0.4938573
200	0x3e41892c	0.18899983
201	0xbdebafc2	-0.115081325
202	0xbd8e3655	-0.06943957
203	0xbe1e99f4	-0.15488416
204	0x3e99895b	0.29987606
205	0xbebd55f1	-0.3697963
206	0x3e26e448	0.1629802
207	0x3f0fd272	0.5618049
208	0x3d0d815f	0.034547206
209	0x3ede523c	0.43422115
210	0x3cde2770	0.027118415
211	0x3f3b2261	0.73099333
212	0x3e33223b	0.17493527
213	0xbdd3678d	-0.10322485
214	0xbf41c453	-0.7569019
215	0x3e70d8eb	0.23520248
216	0x3eef81ad	0.46778622
217	0xbdab472d	-0.08363185
218	0x3e89a18d	0.26881066
219	0x3cfefd28	0.031126574
220	0xbb5afa6a	-0.0033413419
221	0xbf15f843	-0.5858194
222	0x3e87adfe	0.26499933
223	0x3e4d79d3	0.20066004
224	0xbec199c6	-0.37812632
225	0xbe4e0c58	-0.20121896
226	0x3e93336f	0.28750178
227	0xbf079fea	-0.52978384
228	0x3e02079e	0.12698218
229	0x3e4bef4c	0.19915503
230	0x3e533adc	0.20627922
231	0x3d3fe1ec	0.046846315
232	0x3e31c2d6	0.1735948
233	0xbf8f6dca	-1.120538
234	0xbc2acd63	-0.010424945
235	0x3ebf87d5	0.3740832
236	0x3e6c2015	0.23059113
237	0xbd50c802	-0.050971992
238	0x3ea1003e	0.31445497
239	0xbea6329f	-0.32460496
240	0xbe2d7435	-0.1693886
241	0xbdbb4a9e	-0.091450915
242	0x3da001ca	0.07812841
243	0x3d2c0cf2	0.042004533
244	0x3d545253	0.051836323
245	0x3eb4a622	0.35283
246	0xbcd55029	-0.0260392
247	0x3df93a21	0.1216929
248	0xbf09ad84	-0.5378039
249	0x3d991988	0.07475573
250	0x3db156df	0.086591475
251	0x3e9b0422	0.3027659
252	0xbedb1270	-0.42787504
253	0xbe08f2ca	-0.13373867
254	0xbf4e1eec	-0.80515933
255	0xbdd050b6	-0.101716444

action_model._discrete_distribution.branches.2.bias f4 [2]
0	0xbda831f3	-0.08212652
1	0x3da832a9	0.08212788

action_model._discrete_distribution.branches.2.weight f4 [2, 128]
0	0xbde3d8c2	-0.11125328
1	0x3d066ad0	0.032816708
2	0xbe5067b9	-0.20352067
3	0x3e88d66b	0.26726088
4	0x3f65592a	0.8958918
5	0xbe225f36	-0.15856633
6	0x3e1d0977	0.15335642
7	0x3e19d015	0.15020783
8	0x3e3624cb	0.17787473
9	0xbe830b55	-0.25594583
10	0xbec89675	-0.3917729
11	0x3da5b0e5	0.080903806
12	0xbedc867b	-0.4307135
13	0xbe9696f2	-0.29412037
14	0x3e23eaad	0.1600749
15	0x3db21952	0.08696236
16	0xbf40c521	-0.75300795
17	0xbe873ff9	-0.26415995
18	0xbcfc1ebb	-0.030776372
19	0xbec85cba	-0.39133245
20	0xbcc27e3d	-0.023741836
21	0x3ed37f94	0.41308272
22	0xbf818096	-1.0117366
23	0x3ed9bb02	0.42525488
24	0xbe51b0f0	-0.20477653
25	0x3de58ea2	0.11208846
26	0x3d552248	0.052034646
27	0xbdc381d1	-0.09546245
28	0xbf1fe500	-0.624588
29	0xbe9671d0	-0.29383707
30	0x3d86ebf5	0.06587974
31	0xbdbbbe81	-0.09167195
32	0xbd166c80	-0.036724567
33	0x3e9ef3bc	0.3104533
34	0xbf2864b4	-0.6577866
35	0x3dad0b51	0.08449424
36	0x3ea9523a	0.33070546
37	0x3cbc9e4c	0.0230247
38	0x3e37606e	0.17907879
39	0xbdf7047b	-0.120614015
40	0xbcd1ebb4	-0.025625087
41	0x3eb35506	0.35025805
42	0xbdf5dab6	-0.120046064
43	0x3e663c38	0.22483909
44	0x3de69eb5	0.1126074
45	0x3e8ef859	0.2792385
46	0x3d0a598a	0.033776797
47	0x3ddad786	0.10685639
48	0xbed2ae84	-0.4114877
49	0xbdde4535	-0.10853044
50	0xbeececb2	-0.46274334
51	0xbf10701b	-0.5642106
52	0xbe5933ee	-0.21211216
53	0xbee0c366	-0.43899077
54	0x3e3b3d08	0.18285
55	0xbefa9356	-0.48940533
56	0x3e035a1e	0.12827346
57	0xbef95401	-0.48696902
58	0xbdf91086	-0.12161355
59	0x3fc5aeae	1.5443933
60	0xbec6cf5d	-0.3883008
61	0x3d2594fd	0.04042529
62	0x3e1dfbf2	0.15428141
63	0x3f03c760	0.514761
64	0x3f211e27	0.62936634
65	0x3f56b3ad	0.83867913
66	0x3e2fef9d	0.17181249
67	0x3d8006cd	0.06251297
68	0xbe4e7d70	-0.20165038
69	0xbb8ff7bf	-0.0043935473
70	0xbe0ddae0	-0.13853025
71	0xbe0363ea	-0.12831083
72	0x3ea83e92	0.32860237
73	0x3ebb49ed	0.36579838
74	0x3dccaa15	0.09993378
75	0x3e39a8c3	0.18130784
76	0x3c775dd0	0.01509805
77	0xbebd3851	-0.36957029
78	0x3ea5cf99	0.32384947
79	0x3e1cbe60	0.15306997
80	0xbeaf9534	-0.3429352
81	0xbeac4414	-0.3364569
82	0xbefb5a0a	-0.49092132
83	0xbf0a269b	-0.5396516
84	0x3dfd7354	0.12375513
85	0x3d3a2b27	0.04545131
86	0x3ebb6343	0.36599168
87	0x3d5d3690	0.054007113
88	0x3e61a709	0.22036375
89	0xbf122211	-0.5708323
90	0xbe4f7d88	-0.2026273
91	0x3f4e0d78	0.804893
92	0x3dbb1614	0.091350704
93	0x3f0d9993	0.5531246
94	0xbf96627b	-1.1748804
95	0xbe94b17d	-0.29041663
96	0xbf2109d0	-0.629056
97	0x3d451ce8	0.04812327
98	0xbe548f9b	-0.20757906
99	0xbd76cb60	-0.060252547
100	0x3f5650e0	0.83717155
101	0xbdc61651	-0.09672225
102	0x3dd5256c	0.10407528
103	0xbefcc11d	-0.49366084
104	0x3f305559	0.6888023
105	0xbe8e1e00	-0.27757263
106	0x3f446d9c	0.7672975
107	0x3ede5302	0.43422705
108	0xbe509dee	-0.20372745
109	0xbeb6740a	-0.35635406
110	0xbf6671da	-0.90017474
111	0xbe4f7fa9	-0.20263542
112	0xbf3bdd33	-0.733844
113	0xbeb9020b	-0.3613437
114	0x3ce5daab	0.02805837
115	0x3e018074	0.12646657
116	0x3e9854e4	0.29752266
117	0x3f151247	0.58231014
118	0xbdb0ee9f	-0.08639263
119	0x3d738077	0.059448685
120	0xbb67231a	-0.0035268725
121	0x3e93fd91	0.28904393
122	0x3d85ce5f	0.06533503
123	0x3f2f68d2	0.6851932
124	0xbc431ea1	-0.011909158
125	0x3eef2a9a	0.4671219
126	0xbd12896a	-0.03577558
127	0x3e306837	0.17227255
128	0x3e07f390	0.13276505
129	0xbd12a6fc	-0.03580378
130	0x3e4f45d5	0.20241483
131	0xbe903642	-0.28166395
132	0xbf615081	-0.88013464
133	0x3e2bba9f	0.16770409
134	0xbe1f4f76	-0.15557656
135	0xbe0440bb	-0.12915318
136	0xbe37f06c	-0.17962807
137	0x3e7ec17e	0.24878499
138	0x3ebc64cc	0.36795652
139	0xbdcb6d59	-0.09932966
140	0x3edf3cb2	0.43600994
141	0x3e94c5fb	0.29057297
142	0xbe21c00d	-0.15795918
143	0xbd87bce8	-0.06627828
144	0x3f3d2d90	0.7389765
145	0x3e8e9407	0.2784731
146	0x3d00f382	0.031482227
147	0x3ec5e21b	0.38649067
148	0x3d0f7e8e	0.0350328
149	0xbeda9815	-0.42694154
150	0x3f827f22	1.0195048
151	0xbee29793	-0.44256267
152	0x3e5faccb	0.21843259
153	0xbde8bdbe	-0.113643155
154	0xbd43acd2	-0.047772236
155	0x3dd9d738	0.10636753
156	0x3f1d5518	0.6145797
157	0x3e941c59	0.28927878
158	0xbd864fd5	-0.065581955
159	0x3dad9334	0.084753424
160	0x3d41a5fb	0.047277432
161	0xbe9d49f8	-0.30720496
162	0x3f2811c1	0.6565209
163	0xbdd5e72f	-0.104444854
164	0xbea308bd	-0.31842604
165	0xbc244af5	-0.010027637
166	0xbe4cc797	-0.19998012
167	0x3e011393	0.12605123
168	0x3d0c9567	0.03432217
169	0xbea485ac	-0.32133234
170	0x3dec87d8	0.11549348
171	0xbe73ea96	-0.23819956
172	0xbdcb5fea	-0.099304035
173	0xbe8eac00	-0.278656
174	0xbd54db09	-0.0519667
175	0xbdc7fc62	-0.09764935
176	0x3ed50ce2	0.4161139
177	0x3db104a1	0.08643461
178	0x3ee92ad5	0.4554049
179	0x3f1361f8	0.57571363
180	0x3e41e273	0.1893404
181	0x3ed7e929	0.42170075
182	0xbe2c79d2	-0.16843346
183	0x3ef5d2c8	0.48012376
184	0xbdffd4bf	-0.1249175
185	0x3efe4138	0.49659133
186	0x3e00647f	0.12538336
187	0xbfc3b87d	-1.5290676
188	0x3ebe86bd	0.37212172
189	0xbd59524d	-0.053057004
190	0xbe2ecdd2	-0.17070702
191	0xbf002df5	-0.50070125
192	0xbf209fe6	-0.62743986
193	0xbf5628a3	-0.83655757
194	0xbe3bdc96	-0.18345866
195	0xbd565c03	-0.052333843
196	0x3e43e883	0.19131665
197	0xba57858e	-0.00082215003
198	0x3e0b67b0	0.13613772
199	0x3e0cfc73	0.13768177
200	0xbeab65eb	-0.33476195
201	0xbeb2c4be	-0.34915727
202	0xbd8858c4	-0.06657556
203	0xbe3c9ada	-0.18418446
204	0xbc0af758	-0.008481823
205	0x3ec2bfaf	0.38036868
206	0xbe996944	-0.29963124
207	0xbe24dfbc	-0.16100973
208	0x3eae849b	0.34085545
209	0x3eaf11d2	0.34193283
210	0x3efa66b5	0.48906484
211	0x3f080323	0.53129786
212	0xbe089266	-0.13337097
213	0xbc639d77	-0.013892523
214	0xbeb9f6ae	-0.36321014
215	0xbd286b63	-0.041118037
216	0xbe5b0b5d	-0.21391053
217	0x3f150e69	0.58225113
218	0x3e4b6cdb	0.19865744
219	0xbf4c926a	-0.7991091
220	0xbdd4d58c	-0.10392293
221	0xbf106d9b	-0.56417245
222	0x3f96e47a	1.1788476
223	0x3e961ed7	0.29320404
224	0x3f23cfc2	0.6398889
225	0xbd0ef1de	-0.03489863
226	0x3e4c4b73	0.19950657
227	0x3d8067e6	0.06269817
228	0xbf52704c	-0.822026
229	0x3d9c0f3f	0.076200955
230	0xbe025134	-0.12726289
231	0x3f051750	0.519887
232	0xbf2a64dc	-0.6656015
233	0x3e8d3365	0.27578273
234	0xbf40e91a	-0.75355685
235	0xbed6fc62	-0.41989428
236	0x3e516482	0.20448497
237	0x3ead05b3	0.3379341
238	0x3f6bbe9b	0.92087716
239	0x3e5c5fab	0.2152087
240	0x3f3af0bc	0.7302358
241	0x3eb8d22d	0.3609785
242	0xbceefe0c	-0.029173873
243	0xbddd51a3	-0.108065866
244	0xbe9f8fe0	-0.31164455
245	0xbf1318a9	-0.57459503
246	0x3d9c2f8d	0.07626257
247	0xbd7410fb	-0.059586506
248	0xbc21e170	-0.009880409
249	0xbe944003	-0.28955087
250	0xbd7d2eff	-0.061812397
251	0xbf37885e	-0.71692455
252	0x3cba6e8c	0.022757791
253	0xbeeda6b6	-0.46416253
254	0x3d5f5cae	0.054531746
255	0xbe39e85e	-0.18155047

action_model._discrete_distribution.branches.3.bias f4 [2]
0	0xbb435694	-0.0029806243
1	0x3b43668c	0.0029815761

action_model._discrete_distribution.branches.3.weight f4 [2, 128]
0	0xbe924ef5	-0.28575864
1	0xbe937d06	-0.28806323
2	0x3ea4dc41	0.3219929
3	0xbe0b9cd3	-0.13634042
4	0x3e57eda0	0.2108674
5	0x3e534683	0.20632367
6	0x3da3b8ca	0.0799423
7	0xbe0674e8	-0.13130534
8	0xbe5cbbbc	-0.2155599
9	0xbea7e51f	-0.32791993
10	0xbe12d428	-0.14338744
11	0x3f09cf2e	0.53831756
12	0x3d993d2b	0.0748237
13	0xbebc80a4	-0.36816895
14	0x3f28b2fa	0.65898097
15	0x3e6349bc	0.22196096
16	0x3f1efb4e	0.6210221
17	0xbf45dbe5	-0.7728866
18	0xbec8bcb0	-0.39206457
19	0x3f31999b	0.6937501
20	0x3cfd1131	0.030891987
21	0x3ef4ca8e	0.47810787
22	0xbddf2ba2	-0.10896994
23	0xbde7ca91	-0.11317933
24	0x3e831292	0.25600106
25	0xbf3ad8a3	-0.7298681
26	0xbf4aa674	-0.7916024
27	0xbe033984	-0.12814909
28	0xbc8fe48a	-0.01756503
29	0x3e3851b8	0.17999923
30	0xbf9c99ce	-1.2234437
31	0x3f7a48f3	0.9776756
32	0xbe74bfb4	-0.23901254
33	0xbebb6835	-0.3660294
34	0xbdb5cb8b	-0.08876713
35	0xbee3295e	-0.44367498
36	0xbebd73e3	-0.37002477
37	0xbd04f0ec	-0.032456324
38	0x3f2eb4a9	0.68244416
39	0xbf05e0d2	-0.52296174
40	0x3c64a30d	0.01395489
41	0xbdf5bfa5	-0.11999444
42	0x3e16a8b9	0.147128
43	0xbe86c883	-0.26324853
44	0xbe224d40	-0.15849781
45	0xbc935148	-0.017983094
46	0x3d0ab751	0.03386623
47	0xbedbd01a	-0.42932206
48	0xbe073ab2	-0.13205984
49	0xbe87a2b3	-0.26491317
50	0xbdb8a06b	-0.09014972
51	0xbc2be977	-0.010492674
52	0x3d900311	0.07031835
53	0x3e070f2f	0.13189386
54	0x3e782bbd	0.24235435
55	0x3ddb8162	0.10718037
56	0xbdc6461e	-0.096813425
57	0x3e14c973	0.14529972
58	0x3da199e4	0.078906804
59	0xbe334e64	-0.17510372
60	0x3f2c4d98	0.673059
61	0xbe45f210	-0.19330621
62	0xbf1e1438	-0.617496
63	0xbf44fd5b	-0.7694909
64	0x3e4bcd06	0.19902429
65	0x3bad319a	0.005285454
66	0x3ebfcb07	0.37459585
67	0x3d72f666	0.059317015
68	0x3dcad42b	0.09903749
69	0xbe9e131f	-0.30873963
70	0xbe5d9e0c	-0.21642321
71	0x3db3a541	0.08771754
72	0xbed311ed	-0.41224614
73	0xbec23526	-0.37931174
74	0xbe24352b	-0.16035907
75	0xbe5a05d1	-0.21291281
76	0x3ea26b77	0.31722614
77	0x3e975a91	0.29561284
78	0xbd956209	-0.07294089
79	0xbe188dfd	-0.14897914
80	0xbdfdbfcb	-0.12390097
81	0xbdf56db3	-0.11983814
82	0xbeb39c29	-0.35080078
83	0xbc810031	-0.015747162
84	0xbdae8970	-0.08522308
85	0xbe044472	-0.12916735
86	0xbd288fcc	-0.04115276
87	0xbd45d9b7	-0.048303332
88	0xbb229bc7	-0.0024812089
89	0xbebbfa39	-0.36714342
90	0x3d9b071d	0.07569716
91	0xbd83d530	-0.06437147
92	0x3f06f4ec	0.5271747
93	0x3a014cad	0.0004932385
94	0x3d775351	0.06038219
95	0x3e4a5e35	0.197625
96	0xbe85f1c5	-0.26161018
97	0x3ea949cf	0.33064124
98	0x3efd23d4	0.49441397
99	0x3eb62338	0.35573745
100	0x3f20bce4	0.62788224
101	0x3c7cb957	0.015425048
102	0xbea55c22	-0.32296854
103	0x3f74b081	0.95581824
104	0xbe182d52	-0.14861038
105	0xbf46c7ba	-0.7764851
106	0x3d432ee9	0.04765216
107	0x3ef1ba02	0.47212225
108	0xbe9596c4	-0.29216588
109	0x3e28f50b	0.16499726
110	0x3e7caa57	0.24674354
111	0xbdbd14f6	-0.092325136
112	0xbe2a7319	-0.16645469
113	0x3da00036	0.0781254
114	0x3da70199	0.081546016
115	0x3dda4fee	0.10659777
116	0x3f156861	0.58362395
117	0xbdeb088e	-0.11476241
118	0x3e38005f	0.17968892
119	0x3df7bd4b	0.12096652
120	0x3de50253	0.11182084
121	0x3e669612	0.22518185
122	0x3eb33d0e	0.3500752
123	0xbe9856cc	-0.2975372
124	0xbe5d5f76	-0.21618447
125	0x3dd2416c	0.102663845
126	0x3a9d1ce2	0.0011986757
127	0xbe2ca88e	-0.16861174
128	0x3e8fe6ac	0.28105676
129	0x3e8ae360	0.27126598
130	0xbea3b0ec	-0.31970918
131	0x3e144a69	0.1448151
132	0xbe536e8c	-0.20647639
133	0xbe4d51fc	-0.20050806
134	0xbd946436	-0.07245676
135	0x3e12797c	0.14304155
136	0x3e5cb078	0.21551692
137	0x3e9d26a2	0.30693537
138	0x3e1227b8	0.14272964
139	0xbf069300	-0.52568054
140	0xbd8c8171	-0.068606265
141	0x3ec19eec	0.3781656
142	0xbf2b41dc	-0.6689737
143	0xbe6fbe5a	-0.23412457
144	0xbf188589	-0.5957876
145	0x3f430939	0.7618595
146	0x3ed6b109	0.41931942
147	0xbf321b94	-0.6957333
148	0xbcf032e4	-0.029321142
149	0xbef3c040	-0.47607613
150	0x3dd95ce8	0.106134236
151	0x3deee749	0.11665208
152	0xbe81570a	-0.25261718
153	0x3f370cba	0.71503794
154	0x3f49c28c	0.7881248
155	0x3e0d6c17	0.13810764
156	0x3cd76e62	0.026297752
157	0xbe2c83e6	-0.1684719
158	0x3f9ae4ee	1.2101114
159	0xbf795c44	-0.9740641
160	0x3e6c5fa2	0.23083356
161	0x3ec932de	0.3929662
162	0x3da2a56d	0.07941709
163	0x3ee2a8a4	0.44269288
164	0x3ebbb602	0.36662298
165	0x3d425d67	0.047452357
166	0xbf30f306	-0.69120824
167	0x3efe3aed	0.49654332
168	0xbbb09ac5	-0.0053895437
169	0x3def37e2	0.11680581
170	0xbe27f704	-0.16402823
171	0x3e84b39a	0.25918275
172	0x3e13e3a2	0.14442304
173	0x3ca09aa0	0.019604981
174	0xbd11e429	-0.03561798
175	0x3ee470c2	0.44617277
176	0x3e124e1a	0.14287606
177	0x3e92fdd6	0.28709286
178	0x3db53e45	0.088497676
179	0x3c8115be	0.015757438
180	0xbd9a545b	-0.07535621
181	0xbe0d0102	-0.13769916
182	0xbe7b028b	-0.24512689
183	0xbdc5d05e	-0.096588835
184	0x3db60aac	0.08888754
185	0xbe0a025d	-0.13477464
186	0xbd8f6b48	-0.07002884
187	0x3e2d2f81	0.16912653
188	0xbf2ac202	-0.6670228
189	0x3e41e462	0.18934777
190	0x3f1dad24	0.61592317
191	0x3f466105	0.7749179
192	0xbe47bad3	-0.19504862
193	0xbc753674	-0.014966596
194	0xbebe3f75	-0.3715779
195	0xbd8f5ab5	-0.06999723
196	0xbdea839f	-0.11450886
197	0x3e95cfed	0.29260197
198	0x3e52e87c	0.20596498
199	0xbdc0dc36	-0.09417002
200	0x3ec6f6d4	0.3886019
201	0x3ebb29d8	0.36555362
202	0x3e1d077e	0.1533489
203	0x3e602efa	0.2189292
204	0xbe9e1d63	-0.30881795
205	0xbe93ef75	-0.2889363
206	0x3da50437	0.080574445
207	0x3e273ea7	0.16332494
208	0x3dfdb084	0.12387183
209	0x3e034c7c	0.12822145
210	0x3eb4ac83	0.35287866
211	0x3c778add	0.015108791
212	0x3d73c359	0.05951247
213	0x3e0e8348	0.13917267
214	0x3d1ef3c3	0.038806688
215	0x3d87eb4d	0.06636677
216	0xbc7d23bf	-0.015450417
217	0x3ebfc903	0.37458047
218	0xbdba7444	-0.09104207
219	0x3d7a545d	0.06111561
220	0xbf085142	-0.5324899
221	0x3b3e8cb7	0.0029075572
222	0xbd8d53c2	-0.06900741
223	0xbe4efeef	-0.20214437
224	0x3e88880c	0.26666296
225	0xbea346b2	-0.31889874
226	0xbf033b9b	-0.51262826
227	0xbeb0551f	-0.34439942
228	0xbf1ae929	-0.60512024
229	0xbc00c747	-0.007860011
230	0x3ea29952	0.317576
231	0xbf76072c	-0.96104693
232	0x3e1bc821	0.15213062
233	0x3f453543	0.77034396
234	0xbd90c04d	-0.070679285
235	0xbef06bd3	-0.46957263
236	0x3e8da0bb	0.2766169
237	0xbe1ea926	-0.15494213
238	0xbe78bb8d	-0.24290295
239	0x3db038c0	0.08604574
240	0x3e1c024d	0.15235253
241	0xbd6fd38a	-0.05855135
242	0xbdbd1a59	-0.09233541
243	0xbddc4a2e	-0.10756336
244	0xbf178c3c	-0.59198356
245	0x3dcb2f27	0.09921103
246	0xbe41c9ac	-0.18924588
247	0xbe0b0c56	-0.13578925
248	0xbdd3d63a	-0.10343595
249	0xbe59a2ea	-0.21253553
250	0xbead96b8	-0.33904052
251	0x3e9b6cdc	0.3035649
252	0x3e4c1a60	0.19931936
253	0xbdc88d82	-0.097926155
254	0x3cebb19c	0.028771214
255	0x3e2512c4	0.1612044

network_body.linear_encoder.seq_layers.0.bias f4 [128]
0	0x3d9eb231	0.07748831
1	0x3d932690	0.071850896
2	0x3d02c348	0.031924516
3	0x3d342138	0.043976992
4	0x3d812b7d	0.06307123
5	0x3d354354	0.044253662
6	0x3d068eae	0.032850914
7	0x3db8f0a2	0.09030272
8	0x3e0d76a8	0.13814795
9	0xbe110b5f	-0.14164494
10	0xbc5b84bf	-0.013398348
11	0xbd4cb249	-0.049974713
12	0x3d0ce838	0.03440115
13	0x3dab390d	0.08360491
14	0x3bfa0f41	0.007631213
15	0x3d180091	0.037109915
16	0xbd78fa61	-0.060785655
17	0x3d687d37	0.05676004
18	0x3dee13be	0.11624859
19	0x3ddf4d86	0.10903458
20	0x3d9a5920	0.075365305
21	0x3cbae2bd	0.022813195
22	0x3d929c3a	0.07158704
23	0x3db35895	0.0875713
24	0x3e37d390	0.17951798
25	0xbcd3c089	-0.025848644
26	0x3b3df438	0.0028984677
27	0x3d3a6b27	0.045512345
28	0x3da4169b	0.08012124
29	0x3db354f0	0.08756435
30	0x3d844912	0.064592496
31	0x3d27a4a9	0.040928517
32	0x3db833e1	0.0899427
33	0x3d468e68	0.048475653
34	0x3d851e29	0.06499893
35	0x3b8e3a69	0.004340459
36	0x3d5a0688	0.053228885
37	0x3dc5f28a	0.09665401
38	0x3de84960	0.1134212
39	0xbcbf44c1	-0.023348214
40	0x3e5d774a	0.21627536
41	0x3b2aff51	0.0026092122
42	0x3ddcd7cf	0.1078335
43	0x3da831c3	0.08212616
44	0x3cd202a2	0.025636021
45	0xbddcf39d	-0.10788653
46	0x3c5c1808	0.013433464
47	0x3e0f9400	0.14021301
48	0x3e1f35c2	0.1554785
49	0x3e62b405	0.22138985
50	0xbd829ed9	-0.06377954
51	0xbdad9013	-0.084747456
52	0xbd8fb87a	-0.07017608
53	0xbc4ae994	-0.012384791
54	0x3cd616b3	0.02613387
55	0x3da68feb	0.08132919
56	0xbd69fd64	-0.057126418
57	0x3d978052	0.07397522
58	0x3c049283	0.008091572
59	0x3cebd659	0.028788732
60	0x3cb5ff44	0.022216447
61	0x3e11b6f1	0.14229943
62	0x3cf7df72	0.030257914
63	0xbda58496	-0.080819294
64	0xbc89c001	-0.016815187
65	0x3e7421a3	0.23840956
66	0x3e02014f	0.12695812
67	0x3c7774c1	0.01510352
68	0x3d0c990a	0.034325637
69	0x3e171149	0.14752688
70	0x3d632767	0.0554575
71	0xbe2060ad	-0.15661879
72	0x3dc426c5	0.09577707
73	0x3df0f9e3	0.11766412
74	0x3cf003cc	0.029298685
75	0x3da935b3	0.082621954
76	0x3d1dc655	0.038519222
77	0xbd1e16bf	-0.03859591
78	0x3d69c721	0.05707467
79	0x3df5981b	0.119919024
80	0x3d8cf5d6	0.06882827
81	0x3e0f46c1	0.13991834
82	0xbc1ced2e	-0.009578032
83	0xbd114a68	-0.03547135
84	0x3e1241c0	0.14282894
85	0x3dc12b3c	0.094320744
86	0x3df85321	0.121252306
87	0xbc3606e3	-0.01111004
88	0x3d7ab56c	0.061208174
89	0x3c540adf	0.012942045
90	0xbc84efdf	-0.01622766
91	0x3e308cfc	0.17241281
92	0x3d7b9a2a	0.06142632
93	0x3e1a1234	0.15046006
94	0xbda2f53b	-0.0795693
95	0x3df2faea	0.11864264
96	0xbdc249b6	-0.094867155
97	0xbd4c9a03	-0.049951565
98	0x3d0adf3a	0.03390429
99	0xbd856d42	-0.0651498
100	0x3d112487	0.035435226
101	0x3caece1a	0.021338511
102	0x3ddebe11	0.10876096
103	0xbd779be3	-0.0604514
104	0x3c124244	0.008926932
105	0x3d0c15df	0.034200545
106	0x3de768b9	0.11299271
107	0x3cd2b521	0.025721135
108	0x3d50074a	0.0507882
109	0x3d7aa817	0.06119546
110	0x3cf71179	0.030159699
111	0x3dc5fbfe	0.09667204
112	0x3e0af98d	0.13571759
113	0x3d323ae4	0.043513194
114	0x3e38b528	0.18037856
115	0x3ce512f8	0.027963147
116	0x3d9d6d8a	0.076869085
117	0x3df0ae76	0.11752026
118	0x3d5ee789	0.054420028
119	0xbb8405a3	-0.0040289923
120	0x3c633861	0.013868422
121	0xbd2fde4e	-0.042936616
122	0xbd968305	-0.07349209
123	0x3c909081	0.01764703
124	0x3dc9a4d7	0.09845894
125	0xbd026dde	-0.03184306
126	0x3b0fe3fb	0.0021955955
127	0x3d533616	0.051565252

network_body.linear_encoder.seq_layers.0.weight f4 [128, 75]
0	0xbca4b601	-0.020106317
1	0x3ec79343	0.3897954
2	0xbce71e52	-0.0282127
3	0x3f2b999d	0.6703127
4	0xbe964517	-0.29349586
5	0xbd1f8696	-0.03894671
6	0xbd5551b7	-0.052079882
7	0x3e4c6185	0.19959076
8	0xbedd7cde	-0.4325933
9	0xbe73e34c	-0.23817176
10	0xbc028bcd	-0.007967901
11	0x3e5f8768	0.21828997
12	0x3c38f603	0.0112891225
13	0x3f1b886d	0.60755044
14	0x3edae198	0.4275024
15	0x3bd0e7b1	0.006375276
16	0x3e55233e	0.20814225
17	0x3efb64f7	0.49100468
18	0xbdb47763	-0.08811834
19	0x3e25e833	0.16201858
20	0xbd878f4d	-0.06619129
21	0x3dbca62f	0.092113845
22	0x3e6a8aaa	0.22904459
23	0xbf4889b2	-0.78335106
24	0x3e56afee	0.2096555
25	0xbe2cf17e	-0.16888997
26	0x3eff3d71	0.49851564
27	0x3e604f44	0.21905237
28	0x3f4ded7d	0.80440503
29	0x3eead28d	0.45863762
30	0xbcee3bbc	-0.029081218
31	0x3ea0f021	0.31433204
32	0xbde31224	-0.110874444
33	0x3e69d00f	0.22833274
34	0x3e124a0f	0.14286064
35	0xbdda8187	-0.10669237
36	0xbc0ac333	-0.008469391
37	0x3e182faa	0.14861932
38	0xbe69907d	-0.22809024
39	0xbe918b62	-0.28426653
40	0x3d2d5b0a	0.04232315
41	0x3ee03f41	0.4379826
42	0x3db4888c	0.08815107
43	0x3eee0f32	0.46495968
44	0x3ebd7bf6	0.37008637
45	0x3db6172a	0.08891137
46	0x3e175d23	0.14781623
47	0xbe8e73ba	-0.27822667
48	0xbe364e98	-0.17803419
49	0x3ee20263	0.44142446
50	0xbe1a949c	-0.15095752
51	0xbdece77c	-0.1156759
52	0x3d33a469	0.043857966
53	0xbec1e207	-0.37867758
54	0xbeab2623	-0.33427534
55	0xbd8897cc	-0.06669578
56	0x3f22588c	0.6341636
57	0xbd34dace	-0.04415398
58	0x3de3bc85	0.111199416
59	0x3f3953f9	0.7239376
60	0x3d78a4eb	0.060704153
61	0x3e2f9fb1	0.17150761
62	0xbeba27ad	-0.36358395
63	0xbf335d29	-0.70064026
64	0x3e95e481	0.29275897
65	0x3b47a3f7	0.003046272
66	0x3d9487a5	0.07252435
67	0x3e102f7c	0.14080614
68	0x3d9c9ba2	0.07646872
69	0xbf02275f	-0.50841326
70	0xbe8cce63	-0.2750121
71	0x3e9cc20e	0.30616802
72	0x3e5af3ba	0.21382037
73	0x3ee0c617	0.4390113
74	0xbdbfd787	-0.093672805
75	0xbdd76471	-0.105172046
76	0xbe50c025	-0.20385797
77	0xbef8ef2f	-0.48619983
78	0x3f15f592	0.58577836
79	0xbcbf0ebf	-0.023322461
80	0xbe4cf0a5	-0.20013674
81	0xbe4b0e11	-0.19829585
82	0x3e928333	0.28615722
83	0x3f0246fe	0.50889575
84	0x3e8f4386	0.27981204
85	0x3e895b22	0.2682734
86	0x3e53e091	0.20691134
87	0xbd85e09d	-0.06536982
88	0xbe511301	-0.20417406
89	0x3eb4f333	0.35341796
90	0x3c9bc18b	0.019013187
91	0x3d8b1749	0.06791551
92	0xbe82f8d1	-0.25580457
93	0x3ec031d9	0.3753803
94	0x3ce30465	0.027712056
95	0xbd9c6837	-0.07637065
96	0xbe89a7b0	-0.26885748
97	0xbd2eee8e	-0.042707972
98	0xbd75f836	-0.060051166
99	0xbec90116	-0.3925864
100	0x3ea54d4c	0.32285535
101	0x3b367753	0.002784212
102	0x3e870354	0.26369727
103	0x3d754917	0.059884157
104	0xbea9de2a	-0.3317731
105	0xbd6f126b	-0.058367174
106	0xbe006d65	-0.1254173
107	0xbf84ad6a	-1.0365422
108	0xbd212bb7	-0.03934833
109	0x3e025255	0.1272672
110	0x3e10ca2c	0.14139622
111	0xbc775a15	-0.015097161
112	0x3e079f08	0.1324426
113	0xbeb687c5	-0.3565046
114	0xbf3f3376	-0.746879
115	0x3db77945	0.08958677
116	0x3d2fe9d2	0.042947598
117	0xbdafb88e	-0.08580123
118	0xbe8eb2bd	-0.2787074
119	0xbefa9229	-0.48939636
120	0xbcb7f825	-0.022457192
121	0xbaaa74fa	-0.0013004832
122	0xbf097e4d	-0.53708345
123	0xbe425c4f	-0.18980525
124	0xbe37a3e8	-0.17933619
125	0xbac30751	-0.00148795
126	0x3bc2a322	0.005939857
127	0x3d1149b7	0.03547069
128	0xbec4223e	-0.38307375
129	0xbe8f8b8d	-0.28036156
130	0x3b072edf	0.0020627303
131	0x3eba1268	0.36342168
132	0xbe19f04b	-0.1503307
133	0xbe78f85e	-0.24313495
134	0xbe32c09f	-0.17456292
135	0x3cede274	0.029038645
136	0xbdd8246b	-0.10553821
137	0xbeec02dd	-0.46095935
138	0xbe57e5fc	-0.21083826
139	0x3e42aec0	0.19011974
140	0xbe08082c	-0.13284367
141	0xbe584a63	-0.21122126
142	0x3e02f64c	0.12789267
143	0xbe97eb75	-0.29671827
144	0xbe046747	-0.12930022
145	0x3d8e35d9	0.069438644
146	0x3dd36337	0.10321658
147	0xbddaf439	-0.10691113
148	0xbef6368c	-0.4808849
149	0xbe90bd6f	-0.28269526
150	0x3e2bb6d8	0.16768968
151	0xbeae92ed	-0.3409647
152	0x3e032739	0.12807931
153	0xbd642c0f	-0.05570608
154	0xbe3a6650	-0.18203092
155	0x3d1ec08d	0.03875785
156	0xbe28966b	-0.1646363
157	0x3dbe9133	0.09305038
158	0xbf40918d	-0.7522209
159	0xbc8b8aa6	-0.017033886
160	0x3dfca2a0	0.12335706
161	0xbef30c93	-0.4747053
162	0x3db0bcaf	0.086297385
163	0x3d1a47f0	0.03766626
164	0x3eb3c3c0	0.35110283
165	0x3d8206de	0.06348966
166	0xbe8a3d91	-0.27000096
167	0xbded9dee	-0.11602388
168	0xbe8fa049	-0.28051975
169	0xbee95b25	-0.4557735
170	0xbd99eb6b	-0.075156055
171	0xbb6010ed	-0.0034189776
172	0x3d14bada	0.036311008
173	0xbebc5d12	-0.36789757
174	0xbe3c01d9	-0.1836008
175	0x3dca3890	0.0987407
176	0xbe636503	-0.22206502
177	0xbe0066a7	-0.12539159
178	0x3cc56daa	0.024100143
179	0x3e3208f6	0.17386231
180	0x3de75a67	0.1129654
181	0xbdf8a2b2	-0.12140407
182	0xbf039740	-0.51402664
183	0xbf3f19f1	-0.7464896
184	0xbe84d2ff	-0.25942227
185	0x3d775967	0.060387995
186	0x3c810fcd	0.015754605
187	0x3c706fb8	0.014675073
188	0xbe533005	-0.20623787
189	0x39922b75	0.00027879668
190	0x3e080076	0.13281426
191	0xbea32999	-0.31867674
192	0xbdf86488	-0.1212855
193	0x3f087748	0.5330701
194	0x3f0dfea1	0.5546666
195	0x3e316b9a	0.17326203
196	0xbec826ad	-0.39092007
197	0x3d0bceb7	0.034132686
198	0xbf030bca	-0.51189864
199	0x3e1e604e	0.15466425
200	0x3de5aca9	0.11214573
201	0x3e17770d	0.14791508
202	0x3c0c72de	0.008572308
203	0xbe6b7e0b	-0.229973
204	0x3ee5f086	0.44910067
205	0x3e956fbf	0.29186818
206	0xbead492f	-0.33844897
207	0xbcaad1c2	-0.020851973
208	0x3f19cefb	0.6008145
209	0xbd093573	-0.03349824
210	0xbd2249fe	-0.039621346
211	0xbe82c201	-0.25538638
212	0x3bd01dd2	0.006351211
213	0x3f8568c6	1.0422599
214	0xbd22e69a	-0.0397707
215	0x3e4af793	0.19821005
216	0xbe74a2c9	-0.23890223
217	0x3d92fc3b	0.071770154
218	0xbf1dd55d	-0.6165369
219	0x3eddb7c0	0.43304253
220	0x3f0acbba	0.5421711
221	0xbcf3cb1e	-0.02975994
222	0xbdca8bf4	-0.09889975
223	0x3e9f2242	0.31080824
224	0x3eb82322	0.35964304
225	0x3dc52767	0.09626656
226	0x3e26bab7	0.16282164
227	0xbe0c9ecf	-0.13732456
228	0xbefa8e2b	-0.4893659
229	0x3dcfcdd5	0.10146681
230	0xbdf1a5c0	-0.117991924
231	0x3c2600f7	0.010132066
232	0xbd5d0303	-0.05395795
233	0x3ebcceee	0.36876625
234	0xbf68be5d	-0.9091547
235	0x3c650868	0.013979055
236	0xbe4138f2	-0.18869379
237	0x3e89efd9	0.26940802
238	0xbe81b972	-0.25336796
239	0x3d2267b2	0.039649673
240	0x3e5c6050	0.21521115
241	0x3d17ff33	0.03710861
242	0xbd606edc	-0.054793224
243	0x3f270768	0.65245676
244	0xbd9b693a	-0.0758843
245	0x3e2cd036	0.16876301
246	0x3cef43d6	0.029207151
247	0xbd58ddff	-0.052946087
248	0x3b0c9138	0.0021448862
249	0x3d8ddcb6	0.06926863
250	0xbd898033	-0.06713905
251	0xbe198929	-0.14993729
252	0x3deea71b	0.116529666
253	0xbe7d3a69	-0.24729313
254	0x3f021c86	0.50824773
255	0x3e9a41a1	0.30128196

network_body.linear_encoder.seq_layers.2.bias f4 [128]
0	0x3ce736a7	0.028224302
1	0x3d6b3f66	0.05743351
2	0xbe120d04	-0.14262778
3	0xbccef8d4	-0.025265135
4	0xbb64ecbe	-0.0034931148
5	0xbd2046b1	-0.039129917
6	0xbdbb3e05	-0.09142689
7	0xbdab8fa5	-0.083770074
8	0x3bf56c0a	0.007489686
9	0xbd657189	-0.05601648
10	0xbd80232f	-0.06256711
11	0xbcb51550	-0.02210489
12	0x3cfe306b	0.031028947
13	0x3d168506	0.036747955
14	0xbd640749	-0.05567101
15	0x3d752bec	0.05985634
16	0x3c5869fd	0.013208863
17	0x3d588697	0.05286273
18	0x3d89df64	0.067320615
19	0x3bd4acab	0.00649031
20	0x3d2a9e01	0.04165459
21	0xbdcc91c1	-0.09988738
22	0xbcb6243b	-0.022234073
23	0xbd18f71f	-0.037345048
24	0x3daf27d8	0.085525215
25	0xbb47915f	-0.0030451638
26	0x3ca1d392	0.019754205
27	0xbd6da47e	-0.0580182
28	0x3d7b0ac4	0.061289564
29	0xbde00522	-0.10938479
30	0xbc36d591	-0.011159317
31	0x3cb32b09	0.021871107
32	0xbdadfc50	-0.084953904
33	0xbd1cf41e	-0.038318746
34	0xbbce3456	-0.00629286
35	0xbe0a1a41	-0.13486578
36	0x3c065f85	0.008201485
37	0xbd44da88	-0.04805997
38	0xbc31ae15	-0.010844727
39	0x3d57ac78	0.052654713
40	0xbbcbb9d6	-0.0062172217
41	0xbd187982	-0.037225254
42	0x3d9fe00b	0.07806405
43	0xbc7ea193	-0.015541452
44	0xbc3ab889	-0.011396536
45	0xbdd29269	-0.10281832
46	0xbd8173a3	-0.06320884
47	0xbdd0bf0e	-0.10192691
48	0xbc8fd6c5	-0.017558465
49	0xbd2a8548	-0.041631013
50	0x3de182f6	0.11011307
51	0x3b91af6a	0.00444596
52	0x3d2b7d20	0.041867375
53	0x3e72a69d	0.2369637
54	0x3c95713f	0.018242477
55	0xbd4dba3f	-0.050226446
56	0x3bac34f5	0.0052553364
57	0x3bfa3c97	0.0076366174
58	0x3df7c855	0.12098757
59	0xbdef3a2c	-0.11681017
60	0x3db2d166	0.08731346
61	0x3dcdbb36	0.10045473
62	0xbcfcd68a	-0.030864019
63	0x3d8fa221	0.070133455
64	0xbd7e280a	-0.062049903
65	0x3d865356	0.06558864
66	0x3c4d4011	0.012527482
67	0x3ca36052	0.01994339
68	0x3c60d1ce	0.013721896
69	0xbdc01123	-0.093782686
70	0xbd222192	-0.039582796
71	0x3dd2fbb3	0.10301914
72	0xbc95751e	-0.018244322
73	0x3d062b4a	0.032756127
74	0x3c50a4fc	0.012734648
75	0x3aa0a448	0.0012255991
76	0xbcf1bee3	-0.029509967
77	0xbd0684aa	-0.032841362
78	0xbd453e69	-0.048155222
79	0x3dc4e882	0.0961466
80	0xbcc9c2d8	-0.024629042
81	0x3cc5f122	0.024162833
82	0xbd11ec1a	-0.035625555
83	0x3dac9355	0.08426539
84	0x3dd8d4cc	0.10587463
85	0xbddd32c2	-0.10800697
86	0xbc93ad1c	-0.01802688
87	0xbd88547f	-0.06656741
88	0xbd8843f1	-0.06653584
89	0x3c837862	0.016048614
90	0x3d75b7bb	0.059989672
91	0xbdc5c9da	-0.09657641
92	0x3d521dc4	0.051297918
93	0xbdce0309	-0.10059173
94	0xbd2a55a5	-0.041585583
95	0x3dc7e9b2	0.09761371
96	0x3e1949a3	0.14969496
97	0x3d8e97d0	0.0696255
98	0xbd615fef	-0.05502313
99	0xbbd955f7	-0.0066325623
100	0xb9b6edba	-0.00034890865
101	0x3dce33e9	0.10068495
102	0xbc5b913f	-0.013401329
103	0xbce857a5	-0.028362105
104	0xbdcc83c5	-0.099860705
105	0xbb95c87f	-0.00457102
106	0x3acccbc2	0.0015624689
107	0x3cc34d76	0.023840647
108	0xbd43bb35	-0.047785956
109	0x3d18a778	0.037269086
110	0x3c746492	0.014916556
111	0xbd881d1d	-0.06646178
112	0x3d7dfdeb	0.062009733
113	0x3d1c5ffb	0.03817747
114	0xbd21dc7a	-0.039516903
115	0x3d70a021	0.05874646
116	0xbc54f2ad	-0.012997312
117	0xbd9bbbb1	-0.07604159
118	0xbdbbce07	-0.09170156
119	0xbd5c40c5	-0.053772707
120	0x3cd79e31	0.026320549
121	0x3c61465a	0.013749683
122	0x3d2c47f3	0.042060804
123	0xbe39c5c7	-0.18141852
124	0x3d55f9ef	0.05224031
125	0xbe0b1866	-0.13583526
126	0xbd310161	-0.043214206
127	0xbd396ebc	-0.04527162

network_body.linear_encoder.seq_layers.2.weight f4 [128, 128]
0	0xbe474b92	-0.19462422
1	0xbe861b50	-0.26192713
2	0xbebdd490	-0.37076235
3	0x3dfb80b7	0.1228041
4	0xbd9211d2	-0.07132305
5	0x3dd9623a	0.10614438
6	0x3cb7d15c	0.022438698
7	0xbe2119d9	-0.15732516
8	0xbd8a7b8a	-0.067618445
9	0xbdf2f4c1	-0.11863089
10	0x3e68899c	0.22708744
11	0xbe2a8fe5	-0.16656454
12	0xbe5c1e8b	-0.21496026
13	0x3db1dfe8	0.08685285
14	0x3f0989a9	0.5372568
15	0x3dec56cf	0.11539995
16	0xbdf3cc89	-0.11904246
17	0x3d720f03	0.059096348
18	0xbe91b514	-0.28458464
19	0xbd5c0bc6	-0.053722166
20	0x3de4c098	0.11169547
21	0xbdf529b2	-0.119708434
22	0x3e9f48b1	0.31110147
23	0xbe2bfa32	-0.1679466
24	0x3e1c0e9b	0.15239947
25	0x3dc631b4	0.09677449
26	0x3e4f808b	0.20263879
27	0x3da277ed	0.0793303
28	0xbcf062c5	-0.029343972
29	0xbe425e07	-0.18981181
30	0xba545d30	-0.0008101044
31	0x3c466175	0.0121081965
32	0x3d506f18	0.050887197
33	0x3e37a386	0.17933473
34	0x3e2ca358	0.16859186
35	0x3e10b2ff	0.14130782
36	0xbec4e345	-0.38454643
37	0xbc906ce0	-0.01763004
38	0xbdaab526	-0.083353326
39	0x3da44034	0.08020058
40	0xbec9293e	-0.39289278
41	0x3e59683f	0.21231173
42	0x3daa8d5e	0.08327745
43	0xbdf8a103	-0.121400855
44	0x3d6923d3	0.05691893
45	0x3e8fd926	0.2809536
46	0xbe58fa0e	-0.21189138
47	0x3d910d7e	0.070826516
48	0xbd3ed585	-0.046590347
49	0x3da95391	0.08267892
50	0x3dce95ff	0.10087203
51	0x3af76bee	0.001887677
52	0x3e41c88b	0.18924157
53	0xbe3212f6	-0.17390046
54	0x3cd51ac5	0.026013741
55	0x3be2339c	0.006903125
56	0x3ea16058	0.31518817
57	0x3dd2aef1	0.10287274
58	0x3ec45a92	0.3835035
59	0x3cd6d3b0	0.026223987
60	0x3e1257b4	0.14291269
61	0xbe950631	-0.29106286
62	0xbe24ae69	-0.16082157
63	0x3d330ad4	0.0437115
64	0xbe31acb8	-0.17351043
65	0xbdb9d695	-0.090741314
66	0xbd97133e	-0.07376717
67	0xbd570285	-0.052492637
68	0xbeb2fb67	-0.3495743
69	0xbe3661b0	-0.17810702
70	0xbe2368de	-0.15957972
71	0x3e8987cc	0.26861417
72	0xbd64ccbd	-0.055859316
73	0x3e141dc9	0.14464487
74	0x3e3a12d9	0.18171252
75	0x3e9613cb	0.29311976
76	0x3d87daea	0.066335514
77	0xbe5c6022	-0.21521047
78	0x3e8ccffa	0.27502424
79	0xbe0377a3	-0.12838607
80	0xbdcf047d	-0.10108278
81	0xbc6f9f78	-0.014625423
82	0xbe354911	-0.17703654
83	0x3ead3108	0.3382647
84	0xbe7efa2b	-0.24900119
85	0x3d43b151	0.047776524
86	0x3d567795	0.052360136
87	0x3d932110	0.071840405
88	0xbd8ceb70	-0.06880844
89	0x3d723603	0.05913354
90	0xbd886676	-0.06660168
91	0x3d2dd1fe	0.042436592
92	0x3d960634	0.07325402
93	0xbdd0244f	-0.10163175
94	0x3e28e6de	0.16494319
95	0xbcf8b890	-0.030361444
96	0xbe8f928f	-0.28041503
97	0x3de30798	0.11085433
98	0xbe2ca296	-0.16858897
99	0x3f02f088	0.5114827
100	0xbe439bea	-0.19102445
101	0xbdf4ec35	-0.119591154
102	0xbd73d70e	-0.059531264
103	0x3e28f51e	0.16499755
104	0x3cd77c3e	0.02630436
105	0x3d937cb0	0.07201517
106	0xbe012f4c	-0.12615699
107	0x3dd51051	0.10403503
108	0xbd1d6651	-0.038427655
109	0xbe5f4f3c	-0.2180757
110	0x3e8c4466	0.27395934
111	0x3cb07605	0.021540651
112	0x3cb3597d	0.021893257
113	0x3c2b38b3	0.01045053
114	0xbe07b11d	-0.13251157
115	0xbe75c9df	-0.24002789
116	0x3cdb895f	0.026798902
117	0x3cbda0a0	0.023147881
118	0xbd11d9d1	-0.035608117
119	0xbe088ddc	-0.13335365
120	0xbf3ce715	-0.73790103
121	0x3de65501	0.11246682
122	0xbe8500bb	-0.2597712
123	0xbdcf1a32	-0.10112418
124	0x3d6f1289	0.058367286
125	0x3e4afad4	0.19822246
126	0x3d72c30f	0.059268054
127	0x3dd6a82a	0.104812935
128	0xbea5ed00	-0.3240738
129	0xbd8593a8	-0.06522304
130	0x3eb2088d	0.3477215
131	0x3eb09fe0	0.34496975
132	0xbcb63715	-0.022243062
133	0xbdac0886	-0.08400063
134	0x3eb7ce49	0.3589957
135	0xbeb1767d	-0.34660712
136	0x3db84884	0.08998206
137	0x3e0b493d	0.13602157
138	0xbea05100	-0.31311798
139	0xbda8c8f2	-0.08241452
140	0xbe8399c6	-0.25703257
141	0x3e880bb3	0.26571426
142	0x3cdd4a92	0.027013097
143	0xbe1cfa77	-0.1532992
144	0xbe8fe71a	-0.28106004
145	0x3df93fe3	0.121703885
146	0xbd7ee927	-0.06223407
147	0xbd8da014	-0.06915298
148	0xbd424690	-0.047430575
149	0x3e3dffd6	0.18554625
150	0xbe8b891b	-0.2725304
151	0xbe1d8e45	-0.15386303
152	0xbdf675da	-0.12034197
153	0x3d90fba6	0.07079248
154	0x3daed790	0.08537209
155	0x3c8c8536	0.017153364
156	0xbe0a46f3	-0.13503627
157	0xbae3c0a8	-0.0017376142
158	0xbd4677b2	-0.048453994
159	0xbe6446d9	-0.22292651
160	0x3e91d516	0.28482884
161	0xbceeeefe	-0.029166695
162	0xbcb09cab	-0.02155908
163	0xbe50a3c1	-0.20374967
164	0x3e58edea	0.21184507
165	0x3b382ca1	0.0028102773
166	0x3eddf0da	0.43347818
167	0x3de7e71a	0.11323376
168	0xbe87e273	-0.26539955
169	0x3dc50ab2	0.096211806
170	0xbde04916	-0.1095144
171	0xbdd344a1	-0.10315824
172	0x3e83fb67	0.25777742
173	0x3e0bfe50	0.13671231
174	0x3cdf2ce0	0.027243078
175	0xbe07b6e8	-0.13253367
176	0xbdf2750b	-0.118387304
177	0x3f00e705	0.5035251
178	0xbec12cbb	-0.3772944
179	0xbde29eaa	-0.11065419
180	0x3d17e142	0.037080057
181	0xbe9fea4f	-0.3123345
182	0xbe3165c6	-0.1732398
183	0x3e10330c	0.14081973
184	0x3e174274	0.14771444
185	0xbe223a05	-0.15842445
186	0x3dd326f8	0.10310167
187	0xbda39fc3	-0.079894565
188	0x3ed7e4a9	0.4216664
189	0x3edc298c	0.43000448
190	0x3e9c0370	0.30471373
191	0x3e5e6db9	0.21721543
192	0xbb6022d8	-0.0034200456
193	0xbe086ca0	-0.13322687
194	0x3dd4416e	0.10364042
195	0x3e8800f1	0.26563218
196	0xbd156f59	-0.036483143
197	0xbe4d36c3	-0.20040421
198	0xbd82170d	-0.06352053
199	0x3e61a5c2	0.22035888
200	0x3e7399f7	0.23789202
201	0x3dd5fdbc	0.104487866
202	0xbe4a873c	-0.1977815
203	0xbe0be84d	-0.13662834
204	0xbef908dc	-0.48639572
205	0x3e27f06e	0.1640031
206	0xbd945be1	-0.07244087
207	0xbd4cf3bc	-0.05003713
208	0x3e5444fc	0.2072944
209	0x3d8e05ec	0.06934723
210	0x3ec1997a	0.37812406
211	0xbc6fd7b3	-0.014638829
212	0xbd91b0e7	-0.071138196
213	0xbc04f410	-0.00811483
214	0xbe622956	-0.22086081
215	0xbd07486f	-0.033028062
216	0xbe9bbec7	-0.3041899
217	0xbea3039b	-0.31838688
218	0xbed9c3ba	-0.4253214
219	0x3d6ec0d3	0.05828936
220	0x3e0aece2	0.13566926
221	0xbdc88115	-0.097902454
222	0x3dde5647	0.108563
223	0xbe32bf16	-0.17455706
224	0xbf1a76ca	-0.6033751
225	0x3dcc05d6	0.099620506
226	0x3d7feab6	0.062479697
227	0x3e074dda	0.13213292
228	0x3eb9f4f9	0.36319712
229	0x3ec31a0f	0.3810582
230	0xbef0512f	-0.46936938
231	0x3d8a63ff	0.06757354
232	0x3de57aee	0.112050876
233	0x3d072165	0.032990832
234	0xbe4b6f79	-0.19866742
235	0xbe3621ff	-0.17786406
236	0xbe3cef74	-0.18450719
237	0xbce3e653	-0.027819788
238	0xbc9a00f7	-0.018799288
239	0xbcb784df	-0.022402225
240	0x3e650093	0.223635
241	0x3ea9b16e	0.3314318
242	0x3da0062b	0.078136764
243	0xbe31309c	-0.173037
244	0x3cf07a9d	0.029355342
245	0x3db472f0	0.08810985
246	0xbf14ff32	-0.582019
247	0xbcb99850	-0.022655636
248	0xbf006aee	-0.5016316
249	0xbb408964	-0.0029378766
250	0x3df53c63	0.119744085
251	0xbe96b161	-0.29432204
252	0xbcc65217	-0.024209065
253	0x3c324dea	0.010882834
254	0x3e51fa70	0.2050569
255	0x3caa681b	0.020801594
